Plots_MA/LAYER_influence_real_data_curves/data/D_I_IST_G=1_FC/feature=D:I_soll_X_GAMMA=1.0_GAMMA_reduction1.0_num_pool=2_[False, False, False, True, True, True]_17_07_2022__06_17_06/best_model/model_cnn.pt (torch, 762095 bytes, 16 tensors)

conv1.weight f4 [64, 1, 100]
000000 98 22 ed bc e9 32 d4 bb ff a6 1c bd c7 90 34 bd
       -0.02894716 -0.0064757955 -0.038245197 -0.044083383
000010 02 3e 7c bd 9b 01 10 be b0 f3 dd bd e7 16 c1 bd
       -0.061582573 -0.14063112 -0.10837495 -0.094281964
000020 e2 e3 48 bd a5 30 95 bd 2d b5 06 be d6 69 fd bd
       -0.04904545 -0.07284669 -0.1315505 -0.12373702
000030 e8 4d db bd fe 94 15 bb 96 94 b1 bc e5 92 32 be
       -0.10708219 -0.0022824402 -0.021677297 -0.17438848
000040 42 51 15 be d1 5d 7a bd d0 46 0a be 8a 2f 08 be
       -0.14581779 -0.061124627 -0.13503575 -0.13299385
000050 3f 17 3c be 07 2a ed bd 08 9e 9e bd 28 b7 d1 bc
       -0.18368243 -0.11580282 -0.07744986 -0.025600031
000060 12 65 0f be ec 08 20 be 9a a6 d5 bd 5e 5c ef bd
       -0.14003399 -0.15628403 -0.10432167 -0.116875395
000070 01 f7 e7 bd a3 3d 62 be 7b dd 5b bd dd 72 0c be
       -0.11326409 -0.22093825 -0.053678017 -0.13715692
000080 a8 33 16 be 7e c4 2f be e8 d8 6f be ed c1 34 be
       -0.14668143 -0.171648 -0.23422587 -0.17652102
000090 28 2d 72 be 33 84 e2 bd 78 49 53 be 48 f0 77 be
       -0.23650038 -0.11060371 -0.20633495 -0.24212754
0000a0 f6 57 54 be 32 0b fa bd 0e 07 5c be d3 b3 73 be
       -0.2073668 -0.122091666 -0.21487066 -0.23799066
0000b0 39 75 51 be 9c 22 95 bd 52 6e ee bd 99 92 18 be
       -0.20454873 -0.07281992 -0.11642136 -0.14899673
0000c0 ed f7 46 be 63 e8 59 be a8 30 22 be de c5 d9 bd
       -0.19430514 -0.21280055 -0.15838873 -0.10633443
0000d0 9e 94 83 be 0f 75 d5 bd 93 b4 8c be e2 ae 8a be
       -0.25699323 -0.10422718 -0.27481517 -0.2708655
0000e0 60 b9 8f be 23 6c 1d be e4 6f 3d be 66 2a 26 be
       -0.28071117 -0.15373282 -0.18499714 -0.16227111
0000f0 71 4e 83 be 9a 83 7d be eb 71 1a be ce 97 f1 bd
       -0.25645784 -0.24757233 -0.15082519 -0.117965326
000100 46 3b 8b be 19 3c 3c be c5 db 47 be 78 9c 5b be
       -0.2719366 -0.183823 -0.19517429 -0.21446407
000110 94 f1 20 be 1e 62 87 be 32 a2 0e be 44 7d 69 be
       -0.15717155 -0.26442045 -0.1392906 -0.22801691
000120 b1 d3 f2 bd e5 c4 57 be 12 40 f2 bd 3d 0c 80 be
       -0.11856783 -0.21071203 -0.11828627 -0.25009337
000130 77 02 8c be 7c f2 ae bd a0 bb 5a be 82 0d 37 be
       -0.2734563 -0.08542344 -0.21360636 -0.17876247
000140 13 23 de bd 02 17 b4 bd f9 bc 1d be 30 aa 87 be
       -0.108465336 -0.08793451 -0.15404119 -0.2649703
000150 5e 5d 6c be da b9 de bd a8 cf 0f be 41 5f e5 bd
       -0.23082492 -0.10875292 -0.14044058 -0.11199809
000160 2e 34 4c be 28 5e 81 be 7e 8c 32 be dd f6 f3 bd
       -0.1994178 -0.25267148 -0.17436406 -0.1191232
000170 a3 b7 b8 bd 37 14 61 be 66 c9 4c be 0e 85 89 bd
       -0.09019401 -0.21980368 -0.19998702 -0.06714831
000180 bf 1f 87 bd d5 e4 4c bd d0 30 98 bd c2 10 ea bd
       -0.06597852 -0.05002292 -0.07431185 -0.114289775
000190 b3 42 07 3c 39 48 84 bd 18 42 c1 bc f0 9b a4 bd
       0.008255648 -0.06459088 -0.023591086 -0.08037555
0001a0 3a 71 b0 3d 8e bf a9 3d 4a 01 98 3d ab a1 67 3c
       0.08615346 0.08288489 0.07422121 0.014137666
0001b0 d3 f7 4b bd e5 de fb 3d f0 24 7c 3d fb c7 81 3d
       -0.04979689 0.12298373 0.061558664 0.06336971
0001c0 4e 5e cb 3c b6 97 a6 bc 94 20 84 3d 08 1f 2c 3d
       0.024825241 -0.020336013 0.06451526 0.04202178
0001d0 90 f2 18 3e 24 c7 ce 3d 6d 61 d8 3d 59 b5 14 3e
       0.1493628 0.10096577 0.105654575 0.14522304
0001e0 01 6b bb 3c b0 61 17 3e e3 0a af 3d 8b 4d ed bb
       0.022878172 0.14783359 0.08546998 -0.00724191
0001f0 e3 d3 31 3e 5a c9 41 3d 70 0c 20 3e 7e de 34 3e
       0.17365985 0.047311164 0.15629745 0.17662999
000200 c7 29 c4 3d 11 70 93 3d 38 d3 00 3e f5 67 51 3e
       0.09578281 0.07199109 0.12580574 0.20449813
000210 1a 99 3b 3e a0 bc 46 3e 9f 61 11 3e a2 55 90 3d
       0.18320122 0.19407892 0.14197396 0.07047583
000220 68 10 47 3e d2 ab 24 3e 26 04 37 3e 06 0a 7e 3e
       0.19439852 0.16081169 0.17872676 0.24808511
000230 36 c9 09 3e 6c 8b 80 3e d2 51 e1 3d 62 a0 d7 3d
       0.13455662 0.2510637 0.11001934 0.105286375
000240 2c 08 70 3e 79 d7 7e 3e 02 07 10 3e 99 13 4a 3e
       0.23440617 0.24886884 0.14065173 0.19734038
000250 bf 43 44 3e e9 90 5c 3e 2b 39 2e 3e ad 84 ad 3d
       0.19166468 0.21539654 0.17013995 0.084725715
000260 8d 2f 62 3e b9 07 b7 3d 6f 77 eb 3d fa d0 d7 3d
       0.22088452 0.0893702 0.114973895 0.10537906
000270 20 eb 62 3e cd 75 64 3e 76 7c f9 3d 73 5e 88 3e
       0.22160006 0.22310562 0.12181942 0.2663456
000280 4c 9f dc 3d 3c 09 80 3e a3 17 5e 3e ac e5 19 3e
       0.10772571 0.25007045 0.21688704 0.15029019
000290 92 12 81 3e 76 7a 79 3e 15 02 80 3e 8e ab ac 3d
       0.2520948 0.24363121 0.25001588 0.08431159
0002a0 5b eb 00 3e 9f 4b bf 3d 61 6b 7a 3e 50 ec 3a 3e
       0.12589781 0.093405955 0.24455024 0.18254209
0002b0 e9 ae dd 3d 4d 03 13 3e 27 05 66 3e 92 3f 80 3e
       0.10824377 0.14356728 0.22462903 0.250485
0002c0 d4 69 1f 3e 01 1a 7b 3d 26 6f da 3d 12 1a 60 3e
       0.15567714 0.061304096 0.10665731 0.21884945
0002d0 7c 9b 26 3e 48 fe 5d 3e ce ee 69 3e 98 c5 db 3d
       0.1627025 0.21679032 0.22845003 0.107310474
0002e0 7f 7f 4e 3e 7b 3f 08 3e 5b dc c7 3d be 5c 94 3d
       0.20165823 0.13305466 0.09758826 0.07244252
0002f0 f5 99 21 3e ad b9 1f 3e 6a 90 4c 3e 3a 5f 6f 3e
       0.15781386 0.15598173 0.19976965 0.2337617
000300 6d 14 65 3d 1a e2 f0 3d 09 7b cf 3d 26 d6 3a 3e
       0.055927683 0.117618755 0.10130889 0.18245754
000310 69 17 37 3e ec f6 5f 3e 38 43 45 3e 2d fb 43 3e
       0.17880024 0.21871537 0.19263923 0.19138785
000320 a8 70 bc bb af 33 ce 3b 0d 6b 3f bb 99 1d 08 3d
       -0.0057507344 0.0062927823 -0.0029208094 0.03323135
000330 3c dc 07 3d a3 54 20 3e ff bc 36 3d e8 99 37 3e
       0.033169016 0.15657286 0.044613834 0.17929804
000340 a4 00 37 3e 57 82 28 3e 8d 37 28 3e e9 86 35 3e
       0.17871338 0.1645597 0.16427441 0.17727245
000350 2d d0 02 3e 75 b6 4d 3d 60 49 45 3e 9a e4 44 3e
       0.12774725 0.050222833 0.19266272 0.1922783
000360 9c de 44 3e ee 34 7a 3d 4e 6c f4 3d 42 b2 49 3e
       0.19225544 0.061085634 0.1193472 0.19696906
000370 34 10 08 3e 7e 87 08 3e 41 fc b6 3d af 72 45 3e
       0.13287431 0.13332936 0.08934832 0.1928203
000380 52 02 45 3e 37 6b 05 3e ef d5 66 3e 4c 8e c4 3d
       0.19239166 0.1302918 0.22542547 0.095974535
000390 9a a9 55 3e 13 42 1f 3e 77 2a fb 3d 37 dc 37 3e
       0.20865479 0.15552549 0.12263959 0.17955099
0003a0 ac 30 a6 3d 18 7f 81 3e 61 f0 19 3e 66 fc f7 3d
       0.08114752 0.25292277 0.15033104 0.12108688
0003b0 9e 80 3b 3e 84 21 6e 3e 52 c4 7e 3e b4 ff 76 3e
       0.18310782 0.23254973 0.24879578 0.2412098
0003c0 cf 8e 23 3e a6 92 4e 3e 55 1c 8b 3e f0 d7 6e 3e
       0.15972446 0.2017313 0.27170053 0.23324561
0003d0 6a f4 8d 3e 60 3b 4b 3e 4b 3b af 3d e0 1f 55 3e
       0.27725536 0.19846869 0.08556231 0.2081294
0003e0 78 b7 1e 3e fa 50 4b 3e 12 17 5e 3e de 09 71 3e
       0.15499675 0.19855109 0.21688488 0.2353892
0003f0 43 11 07 3e 29 ab d5 3d 7d f3 89 3e 97 c4 4d 3e
       0.13190179 0.10433037 0.2694358 0.20094524

conv1.bias f4 [64]
000000 83 f2 0a bf dd 6d bf ba 9c 7a 64 bd ed 54 ff be
       -0.54276294 -0.0014604885 -0.055780992 -0.4986948
000010 a3 fe 0e bf d9 39 33 bf 2d ea 99 3e 36 af 9b bd
       -0.55857295 -0.70010144 0.30061474 -0.07601778
000020 8d 2f 0f bf 35 93 40 bf ca af 47 bf 8f 93 92 bd
       -0.5593193 -0.7522462 -0.7800261 -0.07157051
000030 4a 7e 7c be c9 7c 85 3e ca 69 1a bf ac c2 bc 3e
       -0.2465755 0.26071766 -0.6031767 0.36867273
000040 31 44 fd bd a6 a2 5b 3e 4c 8e fe be 92 e9 24 bf
       -0.12366522 0.21448764 -0.4971794 -0.644189
000050 6e 23 e5 be db e9 16 bf 1a ff b3 3c 0c 54 a8 be
       -0.44753593 -0.58950585 0.021972228 -0.32876623
000060 3a 5f bc bd 41 9a 14 bd cb 70 9a be e2 ad f6 be
       -0.091978505 -0.03627992 -0.3016418 -0.48179537
000070 f2 14 cf bd ed 3c db be ce f6 06 bf 3b 9a 09 be
       -0.10111417 -0.4281992 -0.52720344 -0.1343774
000080 b1 2d 32 bf ee 30 fa bd f1 63 08 bf f3 e3 83 be
       -0.6960097 -0.12216364 -0.532775 -0.2575985
000090 b2 dd 9a 3e 5c e2 02 be 21 37 34 bf 6b 39 12 bf
       0.30247265 -0.12781662 -0.7039662 -0.5711886
0000a0 e1 c3 11 bf b0 02 0f bf 89 48 00 3e 2a 2a 1d bf
       -0.5693951 -0.55863476 0.1252767 -0.6139246
0000b0 cb 30 a7 bd c2 75 28 bf 74 46 00 bf dc 53 2e bf
       -0.081636034 -0.65804684 -0.501075 -0.6809671
0000c0 ce f7 5c be 8c 48 9a be 56 cc 22 bf da 7d d4 bd
       -0.21578905 -0.30133474 -0.6359304 -0.10375567
0000d0 8b bf 42 be 77 f1 eb be ff 59 13 bf 30 c4 11 bf
       -0.1901838 -0.4608266 -0.575592 -0.56939983
0000e0 b9 ac 4c bf da 09 1b bf 63 10 22 bf 26 fb d8 bc
       -0.79951054 -0.6056191 -0.63306254 -0.026486944
0000f0 ed af a8 bc 62 a9 1e bf bb 37 49 be 41 ca 43 be
       -0.0205917 -0.6197721 -0.19650166 -0.19120122

conv2.weight f4 [32, 64, 10]
000000 97 0c e9 3d f0 0a 25 3e 99 da 35 3e 0e 30 05 3e
       0.113793544 0.16117454 0.1775917 0.13006613
000010 2d d9 34 3e f5 6f 0f 3e f7 19 19 3e c3 bc ee 3d
       0.17660971 0.14007552 0.14951311 0.11657097
000020 0f e3 0e 3e be 79 15 3e ce b4 4e bc a2 80 f0 3c
       0.13953803 0.14597222 -0.012616349 0.029358212
000030 78 a7 9b 3c c9 e5 b7 3b 00 d4 3e bb 4c 40 15 bc
       0.019000754 0.0056121093 -0.002911806 -0.009109568
000040 a4 63 8d bc 7c 8f 57 3c e9 3c 25 bd 3a cd 1d bd
       -0.017259426 0.013156768 -0.04034129 -0.038525797
000050 49 5e 0b bd 3f d7 8c bc 62 9d b9 bc 2e 07 31 bd
       -0.034025464 -0.017192481 -0.022658054 -0.043219738
000060 f8 7b c2 3c 9e bb bc 3c 9a c1 e9 bc 7e 33 2e bd
       0.023740754 0.023038682 -0.0285347 -0.042529576
000070 c8 3f 87 bc c0 6a bd 3c 07 0b d5 3d 47 88 a0 3d
       -0.016509905 0.023122191 0.10402494 0.07838493
000080 4e 69 cb 3d 0d 82 12 3e a5 98 1c 3e ce 5d e0 3d
       0.09932195 0.14307423 0.15292604 0.10955392
000090 c4 d6 db 3d ce f9 f0 3d 29 93 01 3e be 53 29 3e
       0.10734323 0.117663965 0.12653793 0.16535851
0000a0 5b a4 f6 3d 9a 1d ff 3d 09 2e 25 3e c7 41 08 3e
       0.12043067 0.12456818 0.16130842 0.13306342
0000b0 d6 24 58 3e fa 13 28 3e a2 99 35 3e c0 ac 09 3e
       0.21107802 0.1641387 0.17734388 0.13444805
0000c0 de 6b 11 3e 9d ac 40 3e 0e f1 19 3e bc 56 0c 3e
       0.14201304 0.18815847 0.15033361 0.13704962
0000d0 e8 69 14 3e 45 79 19 3e 1e 9c 4b 3e db de 50 3e
       0.14493525 0.14987667 0.19883773 0.20397513
0000e0 ca 2c 3f 3e 88 98 51 3e f5 00 5a 3e 0b 16 49 3e
       0.1866943 0.20468342 0.21289428 0.19637315
0000f0 b6 86 4f 3c 2f 30 d2 3c 6e ba 47 3d 82 ea f2 3c
       0.012666395 0.025657741 0.048761778 0.029652838
000100 a9 c4 cb 3a 25 ed 43 3d 1b b5 98 3b d3 db af 3c
       0.001554628 0.04783358 0.0046602613 0.021467125
000110 1a 2a ec bb 4d 6b 10 3d 59 ea 30 3d d7 5d 2e 3d
       -0.0072071673 0.03525858 0.04319224 0.04256996
000120 b8 da 65 bc 7a 31 be bc 47 4a e2 bc 70 d6 8f 3c
       -0.014029197 -0.023216952 -0.027623309 0.017558306
000130 ac ad 31 3d c9 9c 5e bc f5 00 9f bb ef 3e b9 bb
       0.043378517 -0.013587185 -0.004852409 -0.005653254
000140 75 70 bd 3b e8 40 96 3d d9 61 52 3d d2 78 9d 3d
       0.005781228 0.07336599 0.051362846 0.0768906
000150 b0 8a 23 3d 6c d6 12 3d 75 e9 0d 3d ac 6b ba 3c
       0.039927185 0.03584902 0.03464647 0.02275642
000160 fa 9c d4 3c 46 d4 b9 3d bf b2 aa 3d 7b ef fd 3d
       0.025953759 0.09073691 0.08334874 0.12399193
000170 3e 50 03 3e 33 50 bb 3d 9b c5 ac 3d a5 93 a5 3d
       0.12823579 0.09146156 0.08436128 0.080848016
000180 24 11 02 3e c3 9b 14 3e 71 67 f9 3d 50 59 bd 3d
       0.12701851 0.14512543 0.12177933 0.09245551
000190 66 28 39 3e 0d 72 4b 3e 10 09 2f 3e 3b a1 3d 3e
       0.18081817 0.19867726 0.17093301 0.18518536
0001a0 66 7f 36 3e 12 85 34 3e 2c e2 45 3e ab be 6c 3e
       0.17822036 0.17628887 0.19324559 0.23119609
0001b0 5f 5c 67 3e 3e 13 54 3e 56 ed 6b 3c ac f5 95 3b
       0.2259383 0.20710465 0.014399847 0.0045764055
0001c0 8b d7 eb 3c 1c 29 51 bc cd 5e 6a 3c f4 6e 68 3d
       0.028789302 -0.012766149 0.014304829 0.05674644
0001d0 4f a6 2a bc f7 71 8b 3b 57 4b cf bb f2 51 1e 3c
       -0.010415628 0.004255529 -0.00632612 0.009663092
0001e0 81 43 91 3c b6 66 df 3b 69 50 b8 ba 2b 21 7d 3d
       0.017732384 0.006817664 -0.001406205 0.06179921
0001f0 ab 03 13 3d b6 4e 23 3b ba 46 ba 3c 07 a7 2b 3d
       0.03589217 0.0024918742 0.022738803 0.041907337
000200 ec 77 07 3d f9 58 2f 3d 89 98 ea bc 9b 68 78 bd
       0.03307335 0.04280946 -0.028637188 -0.060646635
000210 1a bd df bc a1 92 b1 bb 24 2a 32 bc 38 a4 87 bd
       -0.02731185 -0.005419091 -0.010874305 -0.06623119
000220 82 d4 68 bd 19 09 53 bd d4 7e ef bc f3 19 55 bd
       -0.05684329 -0.051522348 -0.029235281 -0.0520267
000230 54 69 f6 3d c4 aa 02 3e cf 1b 1b 3e d1 97 10 3e
       0.120318085 0.12760454 0.15147327 0.14120413
000240 59 04 18 3e 0e 66 08 3e 02 7a 32 3e 93 03 1e 3e
       0.14845408 0.13320181 0.17429355 0.15431051
000250 0c ff 42 3e 9f 30 00 3e 2b 53 00 3e 69 09 05 3e
       0.19042605 0.12518547 0.12531726 0.12991871
000260 80 33 3f 3e 0e 4f 0a 3e 72 bb 03 3e 6a 61 36 3e
       0.1867199 0.1350672 0.12864473 0.17810598
000270 1d d7 21 3e 12 2b 1f 3e 7e 79 2e 3e f3 18 ea 3d
       0.15804715 0.15543774 0.17038533 0.1143054
000280 40 6b 0f bd a1 cd 45 bd 0d 8e 7c bd 55 9d 51 bd
       -0.03501439 -0.048291806 -0.061658908 -0.051175434
000290 5a 1d ad bd 4c 74 9d bd 16 c2 8d bd 7a 00 3a bd
       -0.08452864 -0.076881975 -0.069217846 -0.04541061
0002a0 2e 4b 99 bd c7 d3 b3 bd 62 dd f9 3d 2e ac a3 3d
       -0.074850425 -0.08780628 0.122004285 0.07991825
0002b0 ba 8a f8 3d 2e b5 0a 3e e5 af b1 3d d2 90 ce 3d
       0.12135835 0.13545677 0.08676127 0.10086216
0002c0 58 5b 9d 3d 57 72 eb 3d bd 95 9f 3d 5c 52 f6 3d
       0.07683438 0.11496418 0.07792232 0.120274276
0002d0 77 32 5a 3e d9 9d 44 3e fd 73 47 3e 78 6a 30 3e
       0.21308313 0.19200839 0.1947784 0.17228115
0002e0 5b c8 55 3e 31 c2 1c 3e 01 6e 48 3e 59 bb 61 3e
       0.20877211 0.15308453 0.19573213 0.22044124
0002f0 c3 90 65 3e d3 03 2d 3e 2c 7b 0d 3e ab 2b 10 3e
       0.22418503 0.1689599 0.13816518 0.14079158
000300 21 36 4b 3e a4 bb 08 3e d9 8f 45 3e cf 3c 04 3e
       0.19844867 0.13352829 0.19293155 0.12913822
000310 ed b2 0a 3e 2e 2c 40 3e 83 e9 29 3e be a6 07 3e
       0.13544817 0.18766853 0.16592984 0.13247201
000320 ab 9c 21 3d fd ed 68 3c d8 23 82 3d a5 e3 88 3d
       0.03945605 0.014216897 0.06354493 0.06684045
000330 a2 6d 1f 3d 03 32 af 3d 62 23 5d 3d 5d dc c4 3d
       0.038922913 0.08554461 0.05398882 0.096123435
000340 5d b6 15 3d 65 d2 5b 3d 10 78 27 3e 41 e9 eb 3d
       0.03655087 0.053667445 0.16354394 0.11519099
000350 08 ed ff 3d da 82 01 3e 97 46 3a 3e de 29 41 3e
       0.12496382 0.12647572 0.1819099 0.18863627
000360 7f ac 35 3e 39 93 41 3e 8c 96 38 3e 88 73 42 3e
       0.17741583 0.18903817 0.18026179 0.18989384
000370 c0 ab ba 3d 35 59 34 3d cf 64 5a 3d 1a af cc 3d
       0.0911479 0.044030387 0.053318795 0.099943355
000380 c2 08 5a 3d 19 99 3f 3d 60 9a e7 3d 8f 4b d6 3d
       0.05323101 0.046776865 0.113087416 0.104636304
000390 74 12 c1 3d 28 2f a9 3d e5 09 69 3c 11 03 92 bc
       0.09427348 0.082609475 0.01422355 -0.017823728
0003a0 2f b4 bf 3c 08 c8 50 3c d4 e9 15 bb 0f 47 10 bc
       0.023401348 0.012743004 -0.0022874968 -0.008806004
0003b0 d5 c0 83 bb a0 86 be bb 75 5d d9 bc f3 80 c9 3c
       -0.00402079 -0.0058143884 -0.026533822 0.02459762
0003c0 85 77 3d 3d ab 22 0e 3d 96 7f c1 3d da 72 b8 3d
       0.04625656 0.03470103 0.09448163 0.09006281
0003d0 db 92 ab 3d 9f df 93 3d e2 6c 23 3d 66 b7 a8 3d
       0.0837762 0.07220387 0.03989876 0.082381055
0003e0 90 2b cf 3d 43 a4 b6 3d 45 97 a2 bb 48 fc ae 3b
       0.10115731 0.08918049 -0.0049618804 0.005340133
0003f0 db 99 06 bd ae f4 0f bd 98 9e aa 3c 16 db 64 bc
       -0.03286157 -0.035145454 0.020827577 -0.01396825

conv2.bias f4 [32]
000000 bd c8 85 bc b9 47 ed 3c f9 27 b4 bc 0a 26 c3 3b
       -0.016331071 0.028964864 -0.021991717 0.0059554623
000010 9d 8d 07 bc eb 65 99 3c c9 f1 22 bd 3a a1 80 bc
       -0.008273509 0.018725356 -0.039781366 -0.015701879
000020 02 75 16 3d d2 cd 27 bc ae 19 f4 3c 95 bf 89 ba
       0.03673268 -0.0102419425 0.029797401 -0.0010509366
000030 b4 66 ca bc 82 26 98 bc b2 ed 5f 3c c6 c4 fe bb
       -0.024707176 -0.01857305 0.013667511 -0.007774922
000040 f8 38 af 3c 4f 5e f8 bb 3f f3 41 bc bc c8 c5 bc
       0.02138947 -0.007579602 -0.01183778 -0.02414357
000050 a1 7d 0d bd a9 12 cd 3c 04 f6 9b 3c 9d f5 5c bc
       -0.034543637 0.025033312 0.019038208 -0.013486293
000060 b7 c4 d0 3c e2 a7 8f bb e4 68 7b bc 3a 3a 19 3d
       0.025484426 -0.004384027 -0.015344832 0.037409045
000070 46 5e 15 bd 1c 78 20 3d 99 81 bc 39 bb 78 b6 3c
       -0.03646686 0.039177045 0.00035954712 0.022274366

batch1.weight f4 [32]
000000 49 6b 53 3f 3e b1 77 3f 54 d1 5f 3f 15 da 96 3f
       0.8258558 0.96754825 0.87428784 1.1785303
000010 9a af 5d 3f eb cb 55 3f 0a e2 98 3f 7f cd 61 3f
       0.8659607 0.8351428 1.1943982 0.8820419
000020 58 9b 13 3f c0 d0 80 3f 74 50 6d 3f 32 d3 8e 3f
       0.5765891 1.0063705 0.92700887 1.1158202
000030 3d 48 3f 3f 49 d8 64 3f 0f 4d 57 3f fb bc 97 3f
       0.747196 0.89392525 0.8410196 1.1854547
000040 d9 8a 45 3f e5 54 49 3f d5 e3 60 3f a5 99 67 3f
       0.7716499 0.78645164 0.87847644 0.9046882
000050 7d cb 7b 3f 15 77 61 3f 4d 26 57 3f 5e 63 77 3f
       0.98357373 0.8807233 0.8404282 0.96636
000060 e5 fa 7a 3f 52 c3 4f 3f 6c 75 78 3f c6 bc 6e 3f
       0.98039085 0.8115741 0.9705417 0.93256795
000070 33 25 5b 3f d4 d2 21 3f e1 4d 80 3f 97 5d 8a 3f
       0.85603637 0.63212323 1.0023767 1.0809811

batch1.bias f4 [32]
000000 31 a5 c4 be be 2c c2 be 7b a7 88 3e aa 81 4f 3e
       -0.3840728 -0.3792476 0.26690277 0.20264307
000010 47 ab 22 bf 33 5c 92 3d 06 8a 16 bf ef 6e ec bd
       -0.635426 0.07146492 -0.5880436 -0.115445964
000020 05 fa 0c bf 35 87 1e bf 31 6a 87 be f3 67 ac be
       -0.55069 -0.6192506 -0.26448205 -0.33673057
000030 d1 79 ed be 40 62 96 bd 37 7f 15 bf f9 1b 82 be
       -0.46382 -0.073429585 -0.5839724 -0.25411966
000040 83 17 2f 3e 30 1b 17 bf 17 29 be 3e 55 ce eb be
       0.17098813 -0.5902586 0.37140724 -0.46055856
000050 6d 86 f7 3e a4 0e f0 be b7 76 b9 3e 25 07 eb bd
       0.48344746 -0.4688617 0.36223385 -0.11475972
000060 c5 30 e1 be 59 8f 94 3e 50 76 49 bf ae 90 cc be
       -0.4398252 0.29015616 -0.78696156 -0.39954132
000070 ca 4a 09 bf df 58 1e bf 28 4e ba be dd 6a 1a be
       -0.53629744 -0.61854357 -0.36387753 -0.15079828

batch1.running_mean f4 [32]
000000 e4 ad a3 43 27 4a ca 43 de 8b d4 c3 1b 2f cb c3
       327.35852 404.5793 -425.0927 -406.368
000010 7c 12 99 43 35 2b 95 c3 27 58 e2 43 23 be ef c3
       306.1444 -298.33755 452.6887 -479.48544
000020 07 27 c1 43 38 af d6 43 6a 99 b3 43 46 24 99 43
       386.3049 429.3689 359.19855 306.2834
000030 86 63 bc 43 39 80 29 43 92 f3 a5 43 c6 64 86 43
       376.77753 169.50087 331.9029 268.7873
000040 2e 75 88 c3 e1 4c 92 43 29 c2 0d c4 bc ab ad 43
       -272.91547 292.60062 -567.03375 347.34167
000050 d3 04 f3 c3 25 35 8d 43 bb d0 00 c4 5d 5a 9e c3
       -486.0377 282.4152 -515.2614 -316.70596
000060 2c 95 e1 43 02 49 02 c4 88 c9 c0 43 0f ce fa 43
       451.1654 -521.14075 385.57446 501.60983
000070 bd 39 ce 43 c5 4d ad 43 ee 12 e6 43 1e f2 e5 c3
       412.45108 346.60757 460.1479 -459.89154

batch1.running_var f4 [32]
000000 1f 23 2a 48 14 a3 22 48 09 09 94 48 82 74 9d 48
       174220.48 166540.31 303176.28 322468.06
000010 51 b9 d4 47 22 b0 aa 48 28 ec 11 48 cc 5d 43 48
       108914.63 349569.06 149424.62 200055.19
000020 3a 6b 05 48 f3 29 fa 47 9a 82 1b 48 5d 8e 20 48
       136620.9 128083.9 159242.4 164409.45
000030 43 df c0 47 b6 f4 2d 48 3b 26 f4 47 6a b5 6c 48
       98750.52 178130.84 125004.46 242389.66
000040 c5 c7 a6 48 c7 92 c8 47 2b 0f fa 48 5c a7 2b 48
       341566.16 102693.555 512121.34 175773.44
000050 8e 44 b6 48 49 d6 b8 47 68 5c 0e 49 fa 1c a8 48
       373284.44 94636.57 583110.5 344295.8
000060 a7 1d 0e 48 ef e5 19 49 b4 78 c9 47 05 2c 33 48
       145526.61 630366.94 103153.41 183472.08
000070 b1 ec ed 47 e0 49 0a 48 e3 aa 89 48 e4 0a 1f 48
       121817.38 141607.5 281943.1 162859.56

conv3.weight f4 [32, 32, 5]
000000 4f 8f 8b 3e 68 a9 97 3e cf d4 57 3e 10 9c b7 3e
       0.27257773 0.29621434 0.21077274 0.35861254
000010 38 37 8a 3e 08 af d3 3d 80 b7 70 3d f9 cb c9 3d
       0.26995254 0.10336119 0.05876875 0.09853358
000020 e7 22 2f 3e 01 02 26 3e 76 61 77 3d 0e 3e a9 3d
       0.17103158 0.16211702 0.06039568 0.08263789
000030 76 82 ef 3d a9 46 cd 3d 46 24 ee 3d a2 53 f5 3d
       0.11694805 0.10023243 0.11628012 0.11978842
000040 7a 72 30 3d 50 00 4c 3b c5 8e 8e 3d fa a8 db bc
       0.043077923 0.0031128116 0.06960825 -0.026813973
000050 73 f3 89 3e e4 c2 61 3e fe 00 86 3e 28 ff 3f 3e
       0.2694355 0.22047001 0.26172632 0.18749678
000060 f6 7b 8e 3e b4 2c 74 bb 38 0a 30 bd 07 34 1f bd
       0.2782895 -0.003725809 -0.042978495 -0.038867977
000070 6f e8 98 3d 99 1f f1 bb ca f5 df 3b f3 22 56 bd
       0.07466208 -0.007358503 0.0068347203 -0.052279424
000080 b5 81 86 bc 7f 9c 42 3d ff 8c a0 bc 42 d1 35 3e
       -0.016419271 0.047512528 -0.019598482 0.17755607
000090 9a 35 ee 3d ec 7e 06 3e f4 be 31 3e a7 6a 20 3e
       0.116313174 0.13134354 0.17357999 0.15665685
0000a0 1c 76 98 3d 9d ed ba 3d 09 44 a5 3d fc 5b fb 3d
       0.074444026 0.091273524 0.08069617 0.12273404
0000b0 8a e9 d3 3d 1f b7 20 3e 29 f9 b7 3d 78 c3 9b 3d
       0.103472784 0.15694855 0.089830704 0.07605642
0000c0 1f f5 28 3d 12 9d 3d 3d e5 5a 72 3e e8 4c 86 3e
       0.04124939 0.046292372 0.23667486 0.2623055
0000d0 18 aa 63 3e 7c a7 9a 3e 3e 38 52 3e 25 c3 f0 bd
       0.22232854 0.30205905 0.20529267 -0.11755971
0000e0 e8 64 10 be ad 66 7f bd c4 e1 05 be af ff 1d be
       -0.14100993 -0.06235378 -0.13074404 -0.15429567
0000f0 ba 29 8e 3d 0a 6b 28 3e 48 7d 45 3e 39 5e 64 3d
       0.069415525 0.16447082 0.19286072 0.05575392
000100 88 bd 47 3d df 5d 37 3e 9e 71 f5 3c 7d 14 f6 3d
       0.048764735 0.17906903 0.029961403 0.120156266
000110 70 9f e8 3d 6e f7 0d 3e 34 8c 4c 3d 6b 3d 0e 3e
       0.11358535 0.13863918 0.049938396 0.13890617
000120 ed 17 45 3e 76 d2 0a 3e f5 aa f5 3d 17 c1 50 be
       0.19247408 0.13556847 0.11995498 -0.20386158
000130 6d 0b f8 bd 2f 79 e7 bd 8c b9 dd bd 31 b9 ce bd
       -0.12111554 -0.11302411 -0.10826406 -0.10093916
000140 8a 10 8e bc e5 eb ea bc ad cd f6 3b 78 3f db 39
       -0.01734187 -0.028676936 0.0075318427 0.00041818223
000150 a6 d0 e9 bc 65 6e 04 3c 05 9d b5 3c ad 7d 9f 3d
       -0.028541874 0.008082961 0.0221696 0.07787643
000160 67 4d ec 3d 53 70 f3 3d 3b dc 4e 3e 0b 1e 11 3e
       0.11538201 0.118866585 0.20201199 0.14171617
000170 f2 61 23 3e 4f 1b 9a 3d 81 89 ae 3d 5c 2e 7b 3e
       0.15955332 0.0752474 0.085223205 0.24529403
000180 5f 5e 57 3e 53 60 71 3e 08 12 75 3e 4b 66 2e 3e
       0.21032093 0.23571901 0.2393266 0.17031209
000190 d2 13 4f 3e 86 3c 95 3e 64 a0 44 3e 70 9b 88 3e
       0.20222405 0.29147738 0.19201809 0.2668109
0001a0 2e 95 45 3e 77 3b 2a 3d b3 48 81 3d d3 22 34 3d
       0.19295189 0.041560616 0.063126944 0.043978523
0001b0 a9 5d 9c 3d c1 c5 66 3d b0 c1 93 3d f6 4f 57 3d
       0.07635052 0.056340937 0.07214677 0.05256649
0001c0 71 c1 bc 3d 64 36 a6 3d 05 f8 ad 3d 81 f2 bc 3c
       0.092165835 0.08115843 0.084945716 0.023064854
0001d0 c2 22 60 3d de 1c 26 3d 1f 6a 3b 3d d3 44 63 3d
       0.054720648 0.040554874 0.0457555 0.055485558
0001e0 83 cd ce 3d ca 19 4e 3e 9d 7f 1b 3e a7 74 f8 3d
       0.10097792 0.20127025 0.151854 0.12131625
0001f0 56 41 3c 3e 50 ba 01 3e 6f 36 97 3d 1b ba 81 3d
       0.18384299 0.12668729 0.07383429 0.06334325
000200 92 fc 1d 3d bc 22 95 3d 7f 27 58 3e a3 51 59 3e
       0.038570948 0.07282016 0.21108817 0.21222548
000210 c8 90 2b 3e 63 cc ea 3d 46 a8 b0 3d ac e2 e6 3d
       0.16754448 0.11464765 0.086258456 0.11273703
000220 28 63 f4 3d 22 08 1c 3e 68 55 db 3d e2 8d 25 3b
       0.11932975 0.15237477 0.10709649 0.002526157
000230 30 0f 35 3e db 59 89 3e fb 21 43 3e a4 53 7a 3e
       0.17681575 0.26826367 0.19055931 0.24445969
000240 4a c1 b8 3d c8 d0 69 3c 4b 29 bc 3d 98 ab 01 3c
       0.09021242 0.014270969 0.091875635 0.007914446
000250 74 08 a1 3d 58 6e 01 bd fd 00 80 3e bd 12 5f 3e
       0.078629404 -0.031599373 0.25000754 0.21784492
000260 ae 23 6e 3e fe 0b 7f 3e 7b 79 42 3e c1 c5 f4 3d
       0.23255798 0.24906918 0.18991654 0.11951781
000270 cd 09 85 3e 43 f3 69 3e bc 4a 1e 3e 0c 8a 1f 3e
       0.2598404 0.22846703 0.15458196 0.15580004
000280 9d f6 9c be ae 5b b8 be ba 93 ab be d3 ea cb be
       -0.306569 -0.36007446 -0.33511144 -0.39827594
000290 99 1b 9f be 4e 02 7a be d0 66 4b be 27 ac 17 be
       -0.31075743 -0.24414942 -0.19863439 -0.14811765
0002a0 9f f9 13 be ae e9 e3 bd cc ee cb bd aa 52 f5 3c
       -0.14450692 -0.11128555 -0.09957656 0.029946644
0002b0 e6 ce 4d 3d 12 87 92 bd f4 49 1b 3d 0c dc 14 be
       0.05024614 -0.07154669 0.037912324 -0.14537066
0002c0 f0 b9 13 be de f2 89 bd 6e ab 13 be 29 28 e9 bd
       -0.14426398 -0.06735776 -0.14420864 -0.11384613
0002d0 d5 15 f8 bd 18 3c 0d be 6b 6a 35 be 3b ae e1 bd
       -0.12113539 -0.13792455 -0.17716376 -0.1101956
0002e0 db a3 c9 bd c6 dd 40 bd bb 80 47 3d 0d ce 9f 3d
       -0.09845706 -0.0470865 0.04870675 0.07802973
0002f0 b5 99 85 3d 47 27 b3 3d 56 7a d2 bd 6e 59 ba bd
       0.06523458 0.08747726 -0.1027724 -0.090990886
000300 71 03 f5 bd 40 da 59 be 56 02 51 be bb 3f 04 be
       -0.11963547 -0.21274662 -0.20411047 -0.12914936
000310 5a 03 2a be 0a 9e 6e be 47 6a 81 be 84 c7 3b be
       -0.16602841 -0.23302475 -0.25276396 -0.18337828
000320 1b 77 79 be 96 63 45 be db 00 e8 bd 65 06 41 be
       -0.24361841 -0.1927627 -0.11328288 -0.18850096
000330 65 9c 76 be 3d df fa bd 65 b6 c4 bd 84 16 1d 3b
       -0.24083097 -0.122496106 -0.096051015 0.002396972
000340 79 07 e4 bd 7d 88 3e bc 02 e1 fa be 2a d9 e9 be
       -0.11134238 -0.011629221 -0.48999792 -0.45673496
000350 b8 64 b1 be 7f 1a c5 be 58 c9 99 be 16 1e 11 be
       -0.34647155 -0.38496777 -0.30036426 -0.14171633
000360 c7 cf eb 3b 54 be 6d bd 5d d7 0c be 3c 86 b0 bd
       0.0071964 -0.05804284 -0.1375403 -0.08619353
000370 d9 c4 0a be 88 de 70 be 29 a8 59 be 24 13 33 be
       -0.13551654 -0.23522389 -0.21255554 -0.1748777
000380 73 0d 59 be 6f 25 80 be af 40 90 be d9 73 3b be
       -0.21196537 -0.2502856 -0.2817435 -0.18305911
000390 04 2e 42 be 3c b3 1a be 80 6a 41 be a8 0a 57 be
       -0.18962866 -0.15107435 -0.18888283 -0.21000159
0003a0 a4 b0 2d be d8 fa 6c be 3e a8 3a be e6 79 8d bd
       -0.16961914 -0.23142564 -0.18228242 -0.06908016
0003b0 d5 24 21 be 46 82 ea bc 1d c2 05 be ea 6f bd bd
       -0.15736707 -0.028626572 -0.1306233 -0.092498615
0003c0 cd b2 94 3d ec f2 90 3d c5 76 11 3c 45 e4 ae 3d
       0.07260666 0.07077584 0.0088784145 0.08539633
0003d0 11 b4 03 3e c4 58 36 be a3 30 cc bd de 8e 54 be
       0.12861659 -0.17807299 -0.09970214 -0.20757625
0003e0 5c 6b a5 bd 52 ea 9e bd 08 57 37 bd a7 29 19 bc
       -0.08077118 -0.07759537 -0.044760734 -0.00934831
0003f0 16 54 bb bc fa 71 92 bd a8 b7 d8 bd 4a 1a e7 bd
       -0.022867244 -0.071506456 -0.10581905 -0.11284311

conv3.bias f4 [32]
000000 25 8c 71 3c 4c 47 a6 3d f3 62 9c 3c 25 9d 73 3d
       0.014742886 0.081190675 0.019090151 0.059476037
000010 62 24 5c bc fe 00 63 3d 10 c7 1e 3d a8 e8 de bc
       -0.013436409 0.055420868 0.03876406 -0.027210549
000020 73 d3 01 bd 65 5c 87 3d 01 ac b9 3d f4 69 ba bc
       -0.031695794 0.0660942 0.0906601 -0.0227556
000030 5c e7 c1 3c 9d 36 b7 3d 8e 1d 03 bd 32 28 05 3d
       0.023669891 0.089459635 -0.032010607 0.032509036
000040 24 3f f2 3c 78 f0 6e bc 0a 4e a7 3c 15 af 64 bd
       0.029571123 -0.014583699 0.020422954 -0.055831034
000050 8a f5 62 3d 5f 18 b0 3d 71 99 75 be cf a6 12 bc
       0.055409946 0.085983984 -0.23984315 -0.008950903
000060 50 41 2f 3d 4e 8c 10 3d 7c 25 50 3d 53 77 21 3c
       0.042786896 0.035290055 0.050816998 0.009855109
000070 0a 60 63 bc 4b 98 4f bd 06 7c 60 bd 63 e5 e8 3d
       -0.013877878 -0.050682347 -0.054805778 0.11371877

batch2.weight f4 [32]
000000 e0 e1 7c 3f ed 54 35 3f f9 34 1b 3f a2 3a 8f 3f
       0.9878216 0.7083271 0.60627705 1.1189768
000010 6a 72 6d 3f c8 94 3e 3f 81 cf 6f 3f e9 9a 58 3f
       0.92752707 0.7444577 0.93676 0.84611374
000020 81 ca 96 3f f4 95 85 3f 63 e2 b2 3f cc e0 81 3f
       1.1780549 1.0436387 1.3975338 1.0146728
000030 cc 8e 31 3f 99 50 87 3f b1 f5 73 3f 68 8e 90 3f
       0.69358516 1.0571471 0.9529677 1.1293459
000040 af 29 95 3f 5f f9 53 3f 12 6e 85 3f ec 0e 63 3f
       1.1653346 0.82802385 1.0424216 0.88694644
000050 88 a4 8d 3f 11 72 74 3f a5 62 8e 3f 55 76 8e 3f
       1.1065836 0.9548655 1.1123854 1.1129862
000060 03 df 4b 3f d5 0a 91 3f 0a e3 2d 3f 9c 0f 8b 3f
       0.79637164 1.1331431 0.6792456 1.0864139
000070 b4 2a 72 3f 47 63 78 3f 00 77 56 3f 62 3a 71 3f
       0.9459641 0.97026485 0.8377533 0.9422971

batch2.bias f4 [32]
000000 33 3f 96 be dc 22 15 be ef 0a f4 be f0 d1 33 3d
       -0.29345092 -0.14564079 -0.47664592 0.043901384
000010 04 37 22 3d 3b 95 25 be 2e 44 ab be ad 57 ba be
       0.03960325 -0.16170208 -0.33450454 -0.36395016
000020 db 83 f7 3c 17 c2 35 3e af 7f ac 3d 01 d5 05 be
       0.03021424 0.1774982 0.08422791 -0.13069536
000030 af 34 d2 bd bb 5f 3f 3e 2b fd ee bc bb a7 75 3e
       -0.10263955 0.18688862 -0.029173454 0.23989765
000040 4e bb 3b bc 92 95 40 be c8 ea c5 be 17 d4 96 be
       -0.011458231 -0.18807057 -0.38655686 -0.29458687
000050 b0 df 84 3e 98 c2 ea bd 3d 8c 19 bd a9 87 0c be
       0.2595191 -0.11462897 -0.037487257 -0.13723625
000060 c7 7b db bd 48 2b 3d 3d fc 0f 62 be 37 5f e7 3d
       -0.10716968 0.046183854 -0.2207641 0.11297458
000070 72 a9 c5 3c b3 79 35 3c 23 df 1f be 98 2f 74 bc
       0.02412865 0.011076379 -0.15612464 -0.014903925

batch2.running_mean f4 [32]
000000 ca fd ab 40 43 10 8f c0 68 bc 69 3f 40 c9 5e 40
       5.37473 -4.470735 0.9130311 3.4810333
000010 37 c3 40 c0 12 74 10 c1 b6 30 ad 40 a7 8b 9c 40
       -3.011915 -9.0283375 5.412196 4.8920474
000020 bb 9a ce 40 fe 88 1c c1 82 ad 11 40 0a e7 b4 40
       6.456388 -9.783445 2.276215 5.653203
000030 dd b9 81 c0 d9 14 79 be b2 59 c3 c0 0a 4b 58 c0
       -4.0539384 -0.24324359 -6.104699 -3.37958
000040 50 47 07 40 1b 0a 4d 40 8e 5f 8a 40 ee cc a7 40
       2.1137276 3.2037418 4.3241644 5.243766
000050 ae 45 81 c0 2e 30 b1 40 fb 54 1f c1 76 f6 6b 40
       -4.039756 5.5371313 -9.958247 3.6869178
000060 ae 83 9a c0 b9 57 6c 40 c4 01 68 40 17 fc 40 c1
       -4.828574 3.6928542 3.6251078 -12.061545
000070 8d 8f 83 c0 2a 4c 6a c0 ed cf 9d c0 fa 96 64 c0
       -4.1112733 -3.6608987 -4.9316316 -3.5717149

batch2.running_var f4 [32]
000000 a9 96 90 41 09 c2 2c 42 09 8d 1e 41 89 72 02 42
       18.073565 43.189487 9.909432 32.61185
000010 47 85 19 42 ec 70 08 42 db 4a 76 42 8b 66 a5 41
       38.380154 34.110275 61.5731 20.67507
000020 9f af 34 42 f6 0d e2 41 e1 27 05 42 5c 4b 3b 41
       45.171505 28.256817 33.288944 11.705898
000030 4c 45 3c 42 73 69 ea 41 e9 79 01 42 33 c0 6e 42
       47.067673 29.301489 32.369053 59.687695
000040 a1 e4 bd 41 5a c9 f0 41 28 e2 3b 42 62 e6 01 42
       23.736635 30.098316 46.970856 32.474983
000050 14 b4 36 42 03 2e 05 42 9f 6e da 41 27 e4 cc 41
       45.675858 33.294933 27.304014 25.611403
000060 2b da 21 42 97 fa 01 42 27 24 d1 41 61 bd 3b 42
       40.463055 32.494717 26.142653 46.93494
000070 c3 7d cb 41 96 92 c5 41 85 14 b3 41 15 d7 f5 41
       25.436407 24.696575 22.38502 30.73002

fc1.weight f4 [50, 3136]
000000 5e 16 1a 3e 95 d2 fb 3d 3d d9 d3 3d 8d ab c6 3d
       0.15047595 0.12296025 0.10344169 0.097006895
000010 24 6e be 3d 92 74 97 3d a0 fe a0 3d fe a0 7d 3d
       0.092983514 0.07395281 0.07861066 0.061921112
000020 3f 3f cb 3d 82 ed ab 3d 6b 26 ef 3d 05 d4 c3 3d
       0.099241726 0.083949104 0.116772495 0.09561924
000030 ed e7 ad 3d 71 fd aa 3d db c9 a5 3d 88 00 c8 3d
       0.08491502 0.08349121 0.080951415 0.09765726
000040 d7 42 f7 3d 45 17 d4 3d c3 e8 02 3e dc c1 f6 3d
       0.120732956 0.10356001 0.12784104 0.120486945
000050 f0 33 f2 3d 4d e8 17 3e 4e 26 07 3e a9 09 04 3e
       0.118263125 0.1483471 0.13198206 0.1289431
000060 8f 47 fb 3d 4f ef e7 3d 38 46 0a 3e 38 29 f2 3d
       0.12269508 0.11324941 0.13503349 0.11824268
000070 35 df ee 3d 0d 60 bb 3d df 59 a2 3d 6d 48 5b 3d
       0.11663667 0.091491796 0.07927298 0.053535867
000080 82 32 4c 3d bf a3 78 3d 69 8c 0f 3d 1b 2f ed 3c
       0.049852856 0.060703035 0.035046015 0.028953126
000090 8a 02 5c 3d 23 f6 69 3d 1c b1 49 3d f6 dc b6 3d
       0.05371336 0.0571195 0.04924117 0.08928864
0000a0 56 d8 d9 3d 81 51 0b 3e 73 ac 08 3e 37 b1 10 3e
       0.10636966 0.1360531 0.13347034 0.14130102
0000b0 c0 3a 0e 3e da 4a 04 3e 1a 72 02 3e 54 7e 04 3e
       0.13889599 0.12919179 0.12738839 0.12938815
0000c0 ea 7a dc 3d e1 6b e6 3d 5e 13 01 3e d6 f2 da 3d
       0.107656315 0.11251045 0.12605044 0.106908485
0000d0 a1 9f ce 3d 04 df b8 3d ba b5 bb 3d 3e 10 b9 3d
       0.100890405 0.09026912 0.09165521 0.09036301
0000e0 09 f5 d9 3d f8 f8 01 3e 5f 9c 0c 3e e2 1c 02 3e
       0.1064244 0.1269263 0.13731526 0.1270633
0000f0 29 64 1d 3e 50 72 13 3e cf a5 1d 3e 5a 1a 49 3e
       0.1537024 0.14399076 0.15395282 0.19638959
000100 9f 53 47 3e 53 64 36 3e 69 43 2f 3e ea 45 3c 3e
       0.19465493 0.17811708 0.17115559 0.18386045
000110 f0 83 34 3e 3a ed 26 3e 44 74 33 3e 89 cf 16 3e
       0.17628455 0.16301432 0.1752482 0.14727606
000120 e0 15 18 3e 42 a4 f6 3d d0 79 b3 3d b7 e7 b9 3d
       0.14852095 0.120430484 0.08763468 0.09077399
000130 70 35 94 3d 25 8b 61 3d 00 62 a4 3c 54 52 fa 3c
       0.07236755 0.05506434 0.020066261 0.030556835
000140 dc f5 d4 3b 4a 62 1b 3d c6 7d 1d 3d 00 3d c7 3c
       0.0064990353 0.037935533 0.038450025 0.02432108
000150 80 aa 7d 3c 17 60 05 3d e2 da ef 3c 1b c2 2d 3d
       0.015482545 0.03256234 0.029279176 0.04242144
000160 8f 18 df 3c d5 5f 61 3d e2 00 a0 3d fd 98 ad 3d
       0.02723339 0.055023033 0.078126684 0.08476446
000170 bd 0b a7 3d d1 29 87 3d b5 bf 49 3d b1 39 94 3d
       0.08156536 0.06599773 0.04925509 0.07237566
000180 1d b9 fc 3d 8f 6f f0 3d c7 6f d4 bd fd 1b d1 bd
       0.12339995 0.11740028 -0.10372882 -0.102104165
000190 5a 48 88 bd 11 32 b8 bd d1 88 84 bd 8b a7 b4 bd
       -0.06654425 -0.089939244 -0.06471408 -0.08821019
0001a0 94 d2 9f bd 8e 60 3a bd fc a9 dd bc cb bd 15 bc
       -0.078038365 -0.045502238 -0.027058594 -0.009139488
0001b0 9d 7b 7a bc f8 8a e6 39 3e 2d 48 3b 30 f3 f1 3c
       -0.015288261 0.00043972558 0.0030544545 0.029534906
0001c0 03 7e 9c 3c 30 f1 1c 3c 0c aa 05 3c 98 08 e2 bc
       0.019103056 0.009578988 0.008158218 -0.027591988
0001d0 9a 13 18 bd cd b7 84 bd 66 ca 3e bd 51 f8 8b bd
       -0.03712807 -0.0648037 -0.04657974 -0.06834472
0001e0 19 fc 5e bd cd 4d 21 bd ab 0f 71 bd 4c 2a 0f bd
       -0.054439638 -0.039380837 -0.058852833 -0.034952447
0001f0 71 29 85 bb 02 71 59 3c a1 55 93 3b 0e 02 a2 3c
       -0.004063778 0.013271572 0.0044962917 0.01977637
000200 c0 fb 24 bc f8 ea 72 3b 9e 73 90 ba 5f 87 9c bc
       -0.0100697875 0.0037066322 -0.0011020785 -0.019107519
000210 db 2c ed bc 91 cc 8a bd 4a 97 8f bd fa 54 9b bd
       -0.028952053 -0.06777299 -0.07011278 -0.07584567
000220 af 87 8b bd 17 4f 63 bd 28 5b 97 bd f3 8f 14 bd
       -0.06812989 -0.055495348 -0.073904335 -0.036270093
000230 f4 e0 8a bc 97 a8 6e bc 41 e5 0e bb 43 9d ba 3c
       -0.01695297 -0.014566562 -0.0021804126 0.022780066
000240 b6 2f 0f bc 18 35 b0 3b 21 d1 03 bd f2 f5 70 bc
       -0.0087394025 0.005377423 -0.032181863 -0.014707075
000250 ce d8 e5 ba a1 ec ad 3c ac 7c d3 bb cd e0 fd 3c
       -0.0017535926 0.021230998 -0.006454071 0.030990982
000260 0e e4 24 3d 85 96 0a 3d 21 63 73 3d aa 4d 19 3d
       0.040256552 0.033834953 0.05942071 0.03742758
000270 8f d9 35 3d 04 97 52 3d 04 b0 7d 3d 6b 0a 72 3d
       0.044396933 0.05141355 0.06193544 0.059091967
000280 e8 84 21 3d 7c db 73 3d a0 e5 9d 3d 60 e5 d5 3d
       0.03943339 0.05953549 0.07709813 0.104441404
000290 d9 aa ce 3d 02 35 95 3d 18 a1 c8 3d df 29 cc 3d
       0.1009118 0.07285501 0.09796351 0.09968924
0002a0 1d e5 a7 3d c1 87 96 3d 86 36 60 3d 18 ac c6 3c
       0.08197997 0.07350112 0.054739498 0.024251983
0002b0 e1 b6 79 3c e5 7b e6 3c 24 c4 06 bc fe 23 6e bc
       0.015241356 0.02813525 -0.0082254745 -0.014534948
0002c0 bd 45 00 bd 85 ca e5 bc 87 1d 32 bd fa aa c8 bc
       -0.031316508 -0.02805067 -0.04348519 -0.02449559
0002d0 a8 74 26 bd ef b1 03 bd 94 a2 ad bb 73 33 67 bc
       -0.040638596 -0.032152113 -0.005298922 -0.014111388
0002e0 3a 70 15 bd f6 98 2f bd eb b7 93 bd 00 91 33 bd
       -0.03648398 -0.042870484 -0.07212814 -0.043839455
0002f0 0d 8e 6e bd 2b a8 a3 bd 4c 58 9f bd 62 e5 8e bd
       -0.05824094 -0.0799106 -0.07780513 -0.06977345
000300 f2 67 7e bd 52 41 b5 bd df 20 9d bd 4e e6 bf bd
       -0.06211085 -0.088503495 -0.07672285 -0.09370099
000310 a0 1d 20 3d d2 2b 15 3d a7 46 62 3c df e2 24 bb
       0.039090753 0.036418743 0.01381079 -0.002515964
000320 b5 c9 42 bc f9 19 c6 bc 9f 70 72 bc 2f d9 4b bc
       -0.011888911 -0.024182307 -0.014797359 -0.012441917
000330 e1 18 b0 bc f6 e3 a4 ba aa d3 b0 bc 75 b0 92 bc
       -0.021496238 -0.0012580145 -0.021585304 -0.017906407
000340 35 5b d0 bc b7 30 5f bc 4f 0c 52 bb 1e 8b 06 bd
       -0.025434116 -0.013622454 -0.0032050794 -0.032847516
000350 09 ec 02 bc 6a d1 56 3b 62 e3 b5 bc 11 7c 6c bc
       -0.0079908455 0.003277863 -0.022203151 -0.014433877
000360 24 65 2a b9 b5 11 a5 3c ee 9f a8 3c c5 78 ea 3b
       -0.00016250141 0.020150045 0.020584073 0.00715551
000370 76 90 02 3d 5a 84 a9 3c 83 1c 11 3d ed f2 87 3d
       0.03187605 0.020692993 0.03542758 0.06638131
000380 25 81 98 3d d3 f7 8f 3d fc cf 80 3d 7d f5 7a 3d
       0.07446507 0.070296906 0.0628967 0.061269272
000390 d2 46 05 3d 1a 7a 00 3d ab 99 4b 3d 32 7e 87 3c
       0.032538243 0.031366445 0.049707096 0.016539667
0003a0 59 8d 38 3d a4 67 0e 3d fe 0a 5f 3d ec 83 16 3d
       0.045056675 0.03476681 0.054453842 0.036746904
0003b0 b9 0e 45 3d a1 3d 32 3d b2 1b e6 3c 8b 27 31 3d
       0.048109744 0.043515805 0.028089378 0.0432506
0003c0 34 a1 d0 3c 0d 5c 08 3d 31 7d bb b8 63 91 8f 3c
       0.025467493 0.03329091 -8.9401736e-05 0.01752538
0003d0 cc 39 ac bb 7e 74 22 3b 37 0e 81 3a 5a 6d 8c bc
       -0.0052559134 0.0024788673 0.0009846155 -0.017141987
0003e0 87 32 82 bc b8 66 f3 bc 7e 10 ee bb 4f ce 79 bc
       -0.015893234 -0.029712066 -0.0072651496 -0.015246942
0003f0 b9 4d 03 bc 81 0b b7 3a c3 4a c7 bb 19 bf c9 bb
       -0.008014136 0.001396522 -0.0060819103 -0.006156814

fc1.bias f4 [50]
000000 be 1b 16 3e 58 e8 f5 3d c4 c8 a0 3d f1 30 96 3d
       0.1465902 0.12007207 0.07850793 0.073335536
000010 01 9b 89 3d 24 84 fb 3c 60 28 1e be 21 7c 75 3d
       0.06719018 0.030702658 -0.1544509 0.05993283
000020 9a 17 90 bd 7b bc 2a be 06 7c 0c 3e cb 84 ae 3d
       -0.07035752 -0.16673462 0.13719186 0.08521422
000030 e3 e0 cb 3d 5b ea 56 bb 25 af 0d be 62 ad 1d be
       0.09955003 -0.0032793495 -0.13836344 -0.15398172
000040 48 74 43 3e e2 e6 5c bd 2f 46 2d bd 7f 46 51 bd
       0.19087327 -0.053931125 -0.04230326 -0.05109262
000050 64 e9 25 be fc f6 1a be 90 30 ca bd be ab 3a 3e
       -0.16202313 -0.1513328 -0.09872544 0.18229577
000060 89 01 38 be dc b2 87 bc c0 d1 6e 3d 5b e9 02 be
       -0.17969336 -0.016564779 0.058305502 -0.1278433
000070 84 68 71 bd b2 a4 01 be 26 80 17 3e 12 35 43 be
       -0.058937564 -0.12660483 0.14794978 -0.19063213
000080 70 87 12 be f6 e4 2a 3d 07 51 ca bd a9 a4 45 3e
       -0.14309478 0.04172226 -0.09878736 0.19301094
000090 8a d0 1d be 68 e0 1d 3e 0f 18 fd bc 29 57 95 bb
       -0.15411583 0.15417635 -0.030895261 -0.0045575094
0000a0 0e 27 95 bd 6b 65 04 be 45 9e 11 3e b1 60 e8 bd
       -0.0728284 -0.12929313 0.14220531 -0.113465674
0000b0 bb d7 06 3e b7 28 b9 3d 7d 37 7c 3d 45 15 6d 3c
       0.13168232 0.09040969 0.061576355 0.014470403
0000c0 32 ab 81 3d c5 bf 43 be
       0.06331481 -0.19116123
