Plots_MA/LAYER_influence_real_data_curves/data/D_I_IST_G=1_FC/feature=D:I_soll_X_GAMMA=1.0_GAMMA_reduction1.0_num_pool=2_[False, False, False, True, True, True]_17_07_2022__06_17_06/best_model/model_fc.pt (torch, 2207 bytes, 4 tensors)

fc2.weight f4 [3, 50]
0.20542413 -0.30133784 0.80395186 0.83626646 0.12751512 0.5044154 -0.257251 -0.33811378
0.4136966 -0.31540984 0.30267987 0.024844505 0.07766751 -0.339929 -0.047296695 0.24397917
0.21863014 0.4768855 -0.58910316 -0.13369703 -0.29579622 0.4103846 -0.028481996 -0.20809333
-0.41566432 -0.39097953 -0.0664359 -0.3617739 -0.029053716 -0.3492897 0.2861907 -0.6003963
-0.28147766 -0.80541193 0.04005972 -0.22293517 -0.24133126 0.4723658 -0.11838435 -0.5222253
0.4752539 -0.05246692 0.0091890255 -0.1417046 0.09709984 0.1765592 0.23884471 0.21892792
0.27155828 -0.34437227 -0.2556609 0.07475426 -0.5531806 -0.20415185 -0.10230432 -0.4098396
0.11037518 0.21344778 -0.21528816 0.08826875 -0.07005537 -0.05478585 -0.083221465 0.076969795
0.09913207 -0.20954947 0.0075489976 -0.49341458 0.42543817 0.043151516 0.23612612 -0.17500079
0.049297143 0.09779712 0.07774814 0.26924887 0.007324821 0.17884146 0.09950982 0.21156123
-0.09501129 0.18664926 0.32364026 0.17504786 0.019038863 0.31593096 0.13891938 -0.1607753
0.123791106 0.21390025 -0.2177272 0.023807906 0.030130526 0.26883644 -4.4617915e-05 -0.098583855
-0.070358105 -0.21759692 -0.18819676 0.056734566 0.027016131 -0.3644273 0.71670425 0.4777398
0.14561602 0.36762744 -0.25036377 -0.52318263 0.07322971 -0.271149 0.26527008 0.0063159307
0.033204447 -0.4583457 -0.18628095 0.10333863 0.117022924 0.32031116 -0.5181311 -0.20167422
-0.18240432 0.24146387 0.060846098 -0.38165933 -0.36903086 -0.36089376 -0.07551539 -0.307148
0.09103345 -0.1614467 0.213114 -0.3947292 -0.48426038 -0.57411796 0.0813065 -0.35485816
-0.31917202 0.11531538 -0.08013362 -0.37079602 0.4739309 -0.22991867 0.18286383 -0.3510075
-0.060961317 0.24884874 0.25812745 0.28122747 0.2660442 -0.3702039
00000000: b45a 523e f448 9abe cacf 4d3f 8f15 563f
00000010: 5393 023e 5e21 013f 67b6 83be 401d adbe
00000020: 0ad0 d33e 667d a1be dbf8 9a3e b486 cb3c
00000030: 2510 9f3d 2d0b aebe 2eba 41bd add5 793e
00000040: 94e0 5f3e 562a f43e 77cf 16bf e0e7 08be
00000050: 9a72 97be ee1d d23e 1353 e9bc 6b16 55be
00000060: f4d1 d4be 782e c8be 8c0f 88bd 6e3a b9be
00000070: 0f02 eebc 19d6 b2be 9687 923e 92b3 19bf
00000080: d71d 90be 7a2f 4ebf a915 243d 1e49 64be
00000090: 8b1f 77be eed9 f13e 7e73 f2bd 8fb0 05bf
000000a0: 7b54 f33e 8ee7 56bd 918d 163c 031b 11be
000000b0: 48dc c63d efcb 343e b593 743e a42e 603e
000000c0: b009 8b3e 9051 b0be fce5 82be c318 993d
000000d0: 3e9d 0dbf 2f0d 51be ed84 d1bd 7fd6 d1be
000000e0: 620c e23d 0e92 5a3e 8074 5cbe 3fc6 b43d
000000f0: 3179 8fbd 2167 60bd 0470 aabd 57a2 9d3d
00000100: c105 cb3d 2394 56be 955d f73b d6a0 fcbe
00000110: 08d3 d93e a5bf 303d 0ccb 713e 6833 33be
00000120: cdeb 493d db49 c83d 6b3a 9f3d fdda 893e
00000130: 0d05 f03b 3722 373e cecb cb3d 82a3 583e
00000140: 4795 c2bd fc20 3f3e 2db4 a53e bf3f 333e
00000150: 64f7 9b3c b4c1 a13e e240 0e3e 48a2 24be
00000160: 3186 fd3d ab08 5b3e e1f3 5ebe cc08 c33c
00000170: 4bd4 f63c eea4 893e 1f24 3bb8 55e6 c9bd
00000180: e917 90bd bad1 5ebe a7b6 40be 8162 683d
00000190: ef50 dd3c 3796 babe ee79 373f 509a f43e
000001a0: 5e1c 153e aa39 bc3e ae2f 80be 4cef 05bf
000001b0: 75f9 953d 0bd4 8abe 7bd1 873e def5 ce3b
000001c0: 6301 083d 4aac eabe 6fc0 3ebe 34a3 d33d
000001d0: b7a9 ef3d d3ff a33e 3da4 04bf b083 4ebe
000001e0: 33c8 3abe 4e42 773e c239 793d da68 c3be
000001f0: 9df1 bcbe 11c7 b8be d0a7 9abd 8142 9dbe
00000200: bf6f ba3d 4952 25be 8e3a 5a3e f219 cabe
00000210: faf0 f7be 65f9 12bf 0684 a63d f8af b5be
00000220: 846a a3be 782a ec3d 181d a4bd fad8 bdbe
00000230: 12a7 f23e cd6f 6bbe a840 3b3e 41b7 b3be
00000240: 93b2 79bd 34d2 7e3e 4829 843e 0cfd 8f3e
00000250: f236 883e 5e8b bdbe

fc2.bias f4 [3]
-0.42021537 0.12036364 -0.37894616
00000000: 7826 d7be 3681 f63d 3b05 c2be

fc3.weight f4 [2, 3]
-0.53490555 0.45306668 -0.51975095 0.411331 0.2757217 0.2836171
00000000: 92ef 08bf 5bf8 e73e 660e 05bf fa99 d23e
00000010: 652b 8d3e 4336 913e

fc3.bias f4 [2]
0.15838951 0.054251965
00000000: dc30 223e 4f37 5e3d
