Plots_MA/LAYER_influence_real_data_curves/data/D_I_IST_G=1_CNN/feature=D:I_soll_X_GAMMA=1.0_GAMMA_reduction1.0_num_pool=2_[True, True, True, False, False, False]_17_07_2022__03_26_23/best_model/model_fc.pt (torch, 2207 bytes, 4 tensors)

fc2.weight f4 [3, 50]
00000000: 7da5 48be 03fe 0e3f 6361 5abe 6174 133e
00000010: 6c2c ba3e 5571 a73e 0e3e 96bd ebf8 883e
00000020: d0da 4bbe c5e6 ce3c 0c10 003f 31c8 3abe
00000030: 7acb d43d a62c 22be 7a20 4f3f 6c06 923d
00000040: fd6e d1bc c8e7 3fbe e9dd 7a3e 460a 763c
00000050: 3256 1c3e 59c0 ad3e 41b9 a2ba 1617 043e
00000060: 6c6d 873d aeea e6be ac83 c53b a1bb a83d
00000070: bbb5 17be e017 883d 21ee 283f d256 ba3e
00000080: 0a33 f03e 1845 463f f5f8 66be 3a45 adbe
00000090: 6215 58be 3600 b03e 1921 14bc daec 7d3f
000000a0: b025 7dbc 6a22 eabd 1bd0 3d3f d4b5 3bbe
000000b0: 05bb 093d 4eac 183f 867b 29be af2e cc3e
000000c0: b707 ce3e 317f 5abe 76d0 143e a651 19bd
000000d0: 2c9e 7c3e 65f9 1e3d e14f 0b3e 7490 373e
000000e0: b65f 70be 246e 0a3e 13c2 0cbd fcb5 693e
000000f0: dc14 063e cab1 3c3e cb61 a3be ed0c fa3f
00000100: e7a4 67be dcd9 10be d346 d73f dba0 febd
00000110: 77da 89be 21d2 003e 7be1 073e b289 963d
00000120: cc6a 0ac0 7479 b73d 3d7c 48be a631 a0bd
00000130: 6df7 283e 9bfb 47bd 045c 803e 77df 8d3d
00000140: e164 edbe c488 3540 be24 36bf 9c1d 25bf
00000150: d142 b63d 9629 b13e 2e93 42be 5bfd b6be
00000160: c795 4b3e d9fe 99bd 601b 323e 9c4c ebbd
00000170: 5610 2dbf fb69 8c3e b6af 69be 7855 a0be
00000180: 45f0 f13f 10ee afbf a553 9abe 315d 81be
00000190: 450a 71bf 56aa 803f f31d 21be 455d 17be
000001a0: 74af a23d 88a2 963e 18d9 46be 0cfd 8e3e
000001b0: 34af bf3e 9c6f 0d3f 1411 4e39 80d1 90be
000001c0: c951 eebe 12cc 01be daa5 03bf 7680 803f
000001d0: 3f4b 29be 40e1 db3d 0617 f03e 929d d6be
000001e0: 9f1c 07be ef8c a23e fd78 183e 5482 9d3b
000001f0: 9842 b23e 0a60 f23b 67f7 443f 88fc f03e
00000200: 7765 053f 2b6b 46bf 3d64 18bf 02b4 38be
00000210: e899 60bf b2ec 12bf 45c2 80bf 288a 833b
00000220: 8795 12be b221 34bd be5f bd3e 4203 fbbe
00000230: d15d d43e c86d 88be 723d 12bf 211a 043e
00000240: 8e6b e7be f245 d3bd cad8 16be e7f9 0abe
00000250: 344a 20bf 4900 c9be
-0.19594379 0.5585634 -0.21326213 0.14399864 0.36362016 0.32703653 -0.07336055 0.2675241
-0.19907689 0.025256524 0.50024486 -0.1824043 0.103903726 -0.15837345 0.8090893 0.07130131
-0.025565619 -0.18740761 0.24498715 0.015017098 0.15267256 0.33935812 -0.0012414829 0.12899432
0.066126674 -0.4510092 0.0060276594 0.082389124 -0.14815418 0.06645179 0.65988356 0.36394364
0.4691394 0.7744918 -0.22555907 -0.33841878 -0.21101907 0.3437516 -0.009041094 0.9918953
-0.01545088 -0.11432345 0.7414567 -0.1833108 0.03362562 0.59637916 -0.16551027 0.39879367
0.4024026 -0.21337582 0.14532647 -0.03743138 0.24669713 0.03881206 0.1360469 0.17926198
-0.23474011 0.13518578 -0.03436477 0.22823328 0.13093895 0.18427196 -0.31910548 1.9535195
-0.22621499 -0.14145607 1.6818489 -0.124330245 -0.26924488 0.12580158 0.13269608 0.07350482
-2.1627684 0.08958712 -0.19578643 -0.0782197 0.16500635 -0.048823934 0.25070202 0.06927388
-0.46366027 2.8364725 -0.71149814 -0.64498305 0.08899463 0.3460204 -0.19001457 -0.3574017
0.19881354 -0.075193115 0.17393255 -0.114892215 -0.6760305 0.27424607 -0.22820935 -0.31315207
1.890145 -1.3744526 -0.3014194 -0.25266412 -0.94156295 1.0051982 -0.15734081 -0.14781673
0.07943621 0.29420877 -0.19418752 0.27927434 0.37438357 0.5524843 0.00019652053 -0.28284836
-0.46546772 -0.12675503 -0.51424944 1.0039203 -0.1653261 0.107363224 0.46892565 -0.41917092
-0.13194512 0.3174815 0.14889903 0.004806796 0.34816432 0.0073967027 0.76940006 0.47067666
0.5210795 -0.77507275 -0.5952795 -0.18037418 -0.8773484 -0.5739242 -1.0059286 0.0040142722
-0.14314853 -0.043977447 0.36987108 -0.49025923 0.41477826 -0.26646256 -0.5712501 0.12900592
-0.45199245 -0.103160754 -0.14731136 -0.13571893 -0.62613225 -0.3925803

fc2.bias f4 [3]
00000000: aa46 a8bb 06b7 88bf 0681 9dbe
-0.005135377 -1.0680854 -0.307625

fc3.weight f4 [2, 3]
00000000: ee15 933e a9aa 1fbd c100 bfbe 4290 af3e
00000010: 7f5c eebe a490 0dbf
0.2872767 -0.038981114 -0.37305263 0.34289747 -0.46554944 -0.5529883

fc3.bias f4 [2]
00000000: f759 31bf 9789 5dbc
-0.692779 -0.0135215735
