Plots_MA/LAYER_influence_real_data_curves/data/D_I_IST_G=1_CNN/feature=D:I_soll_X_GAMMA=1.0_GAMMA_reduction1.0_num_pool=2_[True, True, True, False, False, False]_17_07_2022__03_26_23/best_model/model_cnn.pt (torch, 762095 bytes, 16 tensors)

conv1.weight f4 [64, 1, 100]
0	0xbe2fb475	-0.17158683
1	0xbe0f25c8	-0.13979256
2	0xbe28a165	-0.16467817
3	0xbe2eccb1	-0.17070271
4	0xbe3eec3e	-0.18644807
5	0xbe88d4a8	-0.26724744
6	0xbe6ae639	-0.22939385
7	0xbe4fa531	-0.2027786
8	0xbe1eb813	-0.15499906
9	0xbe399df1	-0.18126656
10	0xbe7344bb	-0.23756687
11	0xbe6dbf44	-0.23217493
12	0xbe556f55	-0.20843251
13	0xbdb8c51e	-0.09021972
14	0xbde5b6b7	-0.11216491
15	0xbe88bb7f	-0.26705548
16	0xbe6d7f10	-0.23193002
17	0xbe11caf0	-0.14237571
18	0xbe5abdc2	-0.2136145
19	0xbe54d5cb	-0.2078468
20	0xbe859e51	-0.26097348
21	0xbe42ae9d	-0.19011922
22	0xbe0d7ce9	-0.1381718
23	0xbda8988e	-0.082322225
24	0xbe4c8306	-0.19971856
25	0xbe5da477	-0.2164477
26	0xbe262524	-0.16225106
27	0xbe2b5cfe	-0.16734692
28	0xbe20ff20	-0.15722322
29	0xbe888698	-0.26665187
30	0xbdc57a8e	-0.09642516
31	0xbe2ff5a1	-0.17183544
32	0xbe389ca7	-0.18028508
33	0xbe5336f6	-0.20626435
34	0xbe88c988	-0.26716256
35	0xbe54a4fe	-0.20766065
36	0xbe86d406	-0.26333636
37	0xbe00a7d5	-0.12564023
38	0xbe65f957	-0.22458397
39	0xbe883314	-0.2660147
40	0xbe630960	-0.22171545
41	0xbe065080	-0.13116646
42	0xbe684a7a	-0.2268466
43	0xbe7de35a	-0.24793759
44	0xbe579121	-0.21051456
45	0xbd9c6dd7	-0.07638138
46	0xbde6730f	-0.112524144
47	0xbe13bdd2	-0.1442788
48	0xbe47c6bf	-0.1950941
49	0xbe56323f	-0.20917605
50	0xbe19ef11	-0.15032603
51	0xbdc6944f	-0.09696256
52	0xbe7a7363	-0.24458079
53	0xbdb7b3ed	-0.08969865
54	0xbe888bb9	-0.266691
55	0xbe86cad7	-0.2632663
56	0xbe89625f	-0.26832864
57	0xbe0c4b4a	-0.13700595
58	0xbe260593	-0.16213064
59	0xbe14110c	-0.14459628
60	0xbe7bda24	-0.24594933
61	0xbe6c8bbe	-0.23100182
62	0xbe045d25	-0.12926157
63	0xbdc9a5b8	-0.098460615
64	0xbe81d62f	-0.25358722
65	0xbe289e0a	-0.16466537
66	0xbe335fb3	-0.17516975
67	0xbe440512	-0.19142559
68	0xbe0d0395	-0.13770898
69	0xbe804fd1	-0.25060895
70	0xbdfebaff	-0.124380104
71	0xbe57d5e7	-0.21077691
72	0xbdd29a83	-0.10283377
73	0xbe45e229	-0.19324555
74	0xbdd082cd	-0.10181198
75	0xbe77fdbb	-0.24217884
76	0xbe87b79c	-0.2650727
77	0xbd99222f	-0.07477223
78	0xbe537cea	-0.2065312
79	0xbe2ee1b1	-0.17078282
80	0xbdc9de38	-0.09856838
81	0xbda3bc49	-0.07994897
82	0xbe1b5635	-0.15169604
83	0xbe8bd086	-0.27307528
84	0xbe76aff7	-0.24090563
85	0xbddd9b9f	-0.10820698
86	0xbe0e8cd8	-0.13920915
87	0xbdf22cd2	-0.11824955
88	0xbe598202	-0.21241
89	0xbe8caf4a	-0.27477485
90	0xbe46f876	-0.19430718
91	0xbe04b536	-0.12959751
92	0xbdd810f3	-0.10550108
93	0xbe7e29ef	-0.24820684
94	0xbe67a848	-0.22622788
95	0xbdbb8735	-0.09156648
96	0xbdc062f7	-0.09393876
97	0xbd9eeb24	-0.07759693
98	0xbde2d275	-0.11075298
99	0xbe236bc7	-0.15959083
100	0xbe5916b0	-0.21200061
101	0xbe928ac6	-0.286215
102	0xbe8364e4	-0.2566291
103	0xbea404c9	-0.320349
104	0xbe1b0ce4	-0.15141636
105	0xbe2279b2	-0.15866736
106	0xbe3a76ab	-0.1820933
107	0xbe7a0d7a	-0.24419203
108	0xbea36989	-0.31916454
109	0xbe14b4fd	-0.14522167
110	0xbe531d4a	-0.20616642
111	0xbe576dd8	-0.21037996
112	0xbe884af7	-0.26619694
113	0xbea13dfd	-0.31492606
114	0xbe73641d	-0.23768659
115	0xbe8512b2	-0.25990826
116	0xbe17ed96	-0.14836726
117	0xbe509557	-0.20369469
118	0xbe5931f7	-0.21210466
119	0xbe332798	-0.17495573
120	0xbe9da8b7	-0.30792782
121	0xbe394589	-0.18092932
122	0xbe7ac0d6	-0.24487624
123	0xbeb056b1	-0.3444114
124	0xbe447375	-0.19184668
125	0xbea311c9	-0.31849506
126	0xbe43ad3f	-0.19109057
127	0xbe332f9e	-0.17498633
128	0xbe8617e1	-0.26190093
129	0xbe93f62b	-0.2889875
130	0xbe70bc7b	-0.235094
131	0xbe2da56c	-0.16957635
132	0xbe4cc4a2	-0.19996884
133	0xbe362cb8	-0.17790496
134	0xbe835342	-0.25649458
135	0xbea8a8b8	-0.32941222
136	0xbe56a07b	-0.20959656
137	0xbe78b26b	-0.24286811
138	0xbe68161c	-0.22664684
139	0xbe21e35d	-0.15809388
140	0xbe8b7be2	-0.27242953
141	0xbe23748c	-0.15962428
142	0xbea0c3f2	-0.31399494
143	0xbea1b999	-0.31586912
144	0xbe3b5a52	-0.18296173
145	0xbe306f5c	-0.1722998
146	0xbe92ec1a	-0.28695756
147	0xbe6cf0e4	-0.23138767
148	0xbe735497	-0.23762737
149	0xbe5ab7fb	-0.21359245
150	0xbe87a0ff	-0.26490018
151	0xbeb27f7c	-0.34862888
152	0xbe584b4b	-0.21122472
153	0xbeaed525	-0.3414699
154	0xbea296e4	-0.31755745
155	0xbea70517	-0.3262107
156	0xbe54db7c	-0.20786852
157	0xbe50697b	-0.20352738
158	0xbe9abd8b	-0.30222735
159	0xbe1e9bf8	-0.15489185
160	0xbea1fbda	-0.3163746
161	0xbe2f2fe3	-0.17108111
162	0xbe4e371b	-0.20138209
163	0xbe88de99	-0.2673233
164	0xbe244dcc	-0.16045302
165	0xbe2901ad	-0.16504546
166	0xbe234309	-0.1594354
167	0xbea58c64	-0.32333672
168	0xbe8f7d87	-0.28025457
169	0xbe9e9d0b	-0.3097919
170	0xbe1e8584	-0.1548062
171	0xbe5d798b	-0.21628396
172	0xbe964e7d	-0.29356757
173	0xbe81e464	-0.2536956
174	0xbe2ad0d8	-0.1668123
175	0xbe0f0e55	-0.13970311
176	0xbe6ec5d4	-0.23317653
177	0xbea90ea7	-0.3301899
178	0xbe91091c	-0.28327262
179	0xbe267207	-0.16254435
180	0xbe5f355d	-0.217977
181	0xbe29076c	-0.16506737
182	0xbe17feb4	-0.14843255
183	0xbe8a655c	-0.27030456
184	0xbe31ddc0	-0.17369747
185	0xbe75fb85	-0.24021728
186	0xbe8e3ffe	-0.27783197
187	0xbe9a2939	-0.30109575
188	0xbe538c4e	-0.2065899
189	0xbe5451d2	-0.20734337
190	0xbe25110d	-0.16119786
191	0xbe01f67e	-0.12691686
192	0xbe9ef49c	-0.31045997
193	0xbe7e9b05	-0.24863823
194	0xbe829a30	-0.2550826
195	0xbe323bf8	-0.17405689
196	0xbe32a988	-0.17447484
197	0xbe0793fb	-0.13240044
198	0xbe231905	-0.15927513
199	0xbe22fc39	-0.15916528
200	0xbe5ca3f7	-0.21546923
201	0xbe5131f3	-0.2042921
202	0xbe5fcf9c	-0.2185654
203	0xbe405607	-0.18782817
204	0xbe3dc52d	-0.18532248
205	0xbd88fccd	-0.06688843
206	0xbe3e88f2	-0.18606928
207	0xbd4c11d6	-0.049821697
208	0xbd53a49d	-0.05167066
209	0xbd96ea93	-0.0736896
210	0xbd9b9a9a	-0.07597847
211	0xbd84b536	-0.06479876
212	0xbdf73be7	-0.12071972
213	0xbe4ed2fa	-0.20197669
214	0xbd788f0e	-0.060683303
215	0xbd806f1b	-0.06271192
216	0xbd87b913	-0.06627097
217	0xbe52013e	-0.20508286
218	0xbe1866a9	-0.14882912
219	0xbd8e0f43	-0.06936505
220	0xbe0d2f79	-0.1378764
221	0xbe121fa1	-0.14269878
222	0xbe406b60	-0.1879096
223	0xbdacc722	-0.08436419
224	0xbdbae9a7	-0.09126597
225	0xbe200348	-0.15626252
226	0xbd7b9907	-0.061425235
227	0xbe46d67d	-0.19417758
228	0xbda7e6cd	-0.08198319
229	0xbe0e423a	-0.13892451
230	0xbe33af3a	-0.17547312
231	0xbdf4c347	-0.11951309
232	0xbe646f4e	-0.22308084
233	0xbd57fa7a	-0.052729107
234	0xbe1f1300	-0.15534592
235	0xbe3f84a9	-0.1870295
236	0xbe00cfde	-0.12579295
237	0xbd9d83e5	-0.076911725
238	0xbd74cb4b	-0.059764188
239	0xbd8d81ad	-0.06909499
240	0xbe1df9ee	-0.15427372
241	0xbde6d9bc	-0.11271998
242	0xbd31e734	-0.043433383
243	0xbda62bc9	-0.0811382
244	0xbd10d22a	-0.035356678
245	0xbdf358b9	-0.11882157
246	0xbe6cf51c	-0.23140377
247	0xbdd8b9d3	-0.10582318
248	0xbe2692e8	-0.16266978
249	0xbdf397b0	-0.118941665
250	0xbdc51759	-0.09623594
251	0xbda25239	-0.07925839
252	0xbe3cccb1	-0.18437459
253	0xbe58e375	-0.21180518
254	0xbd3bd895	-0.045860846
255	0xbde441ff	-0.111454

conv1.bias f4 [64]
0	0xbdd732cf	-0.10507738
1	0xbead1df1	-0.33811906
2	0xbe81a1a0	-0.25318623
3	0xbcfa52b1	-0.030557008
4	0xbf12d4dd	-0.57356054
5	0xbe2a7eb6	-0.16649899
6	0xbe766607	-0.24062358
7	0xbe1f8400	-0.15577698
8	0xbeb4bbbe	-0.35299486
9	0xbf1de122	-0.6167165
10	0xbd77bc90	-0.06048256
11	0xbe607ecb	-0.21923368
12	0xbead29a2	-0.33820826
13	0xbeefaa8c	-0.46809804
14	0xbe906177	-0.2819936
15	0xbde6fa57	-0.11278217
16	0xbe9a564f	-0.30143973
17	0xbe53dc15	-0.20689423
18	0xbc8dcff0	-0.017311066
19	0xbe8efe41	-0.27928355
20	0xbf023cd7	-0.50874084
21	0xbef3d036	-0.4761979
22	0xbe32fb5e	-0.17478701
23	0xbe8b6046	-0.27221888
24	0xbef6816a	-0.4814561
25	0xbed6ff6f	-0.41991755
26	0xbeb1eca5	-0.34750858
27	0xbcfc4397	-0.030793948
28	0xbef53da6	-0.47898597
29	0xbe7dec7c	-0.24797243
30	0xbeb7ffb0	-0.35937262
31	0xbed38bc2	-0.41317564
32	0xbec73c5c	-0.38913238
33	0xbeecd369	-0.46255043
34	0xbd4b9dce	-0.04971104
35	0xbf0c1a8c	-0.5472801
36	0xbe4c7dd7	-0.19969879
37	0x3c531d4c	0.012885403
38	0xbeacdc2f	-0.33761737
39	0xbe8ba448	-0.27273774
40	0xbc054889	-0.0081349695
41	0xbe8cccdc	-0.27500045
42	0xbecbf564	-0.39835656
43	0xbefb4b9e	-0.4908113
44	0xbf118a98	-0.568521
45	0xbe4c3276	-0.19941124
46	0xbe003e1e	-0.12523696
47	0xbef4a780	-0.47784042
48	0xbd7ecb51	-0.062205616
49	0xbeedbeae	-0.4643454
50	0xbe5db3d1	-0.21650626
51	0xbe58448c	-0.21119899
52	0xbeee777a	-0.46575528
53	0xbf0647f3	-0.52453536
54	0xbea74224	-0.3266765
55	0xbb3c56fa	-0.0028738366
56	0xbf1508eb	-0.5821673
57	0xbd9c0b09	-0.07619292
58	0x3d15d0f1	0.036576215
59	0xbf0182a0	-0.5058994
60	0xbec33ee5	-0.38133922
61	0xbe05f199	-0.13080443
62	0xbf08790c	-0.533097
63	0xbf13c314	-0.5771954

conv2.weight f4 [32, 64, 10]
0	0xbcf0bcde	-0.029386934
1	0x3c32ea36	0.010920098
2	0x3c9beb92	0.019033227
3	0xbd2522d0	-0.040316403
4	0xbbf47a12	-0.007460841
5	0xbd8056ef	-0.06266581
6	0xbd9bc456	-0.076058075
7	0xbe0d12de	-0.13776729
8	0xbe28f471	-0.16499497
9	0xbe6efdf5	-0.23339064
10	0xbea77767	-0.32708284
11	0xbe9fe7c3	-0.31231508
12	0xbeac0085	-0.33594146
13	0xbec076e9	-0.3759072
14	0xbec23681	-0.37932208
15	0xbecce0ba	-0.40015203
16	0xbed3a798	-0.413388
17	0xbecea58d	-0.4036068
18	0xbee59d42	-0.4484654
19	0xbed6af22	-0.4193049
20	0xbe8d862a	-0.27641422
21	0xbe946212	-0.28981072
22	0xbea1db00	-0.31612396
23	0xbeb49d65	-0.35276332
24	0xbea3338a	-0.3187526
25	0xbeaf7279	-0.34267023
26	0xbecd9f4f	-0.40160605
27	0xbee325e5	-0.4436485
28	0xbee02e2b	-0.43785223
29	0xbec63110	-0.38709307
30	0xbe19c03f	-0.15014742
31	0xbe319429	-0.17341675
32	0xbe13ecca	-0.14445797
33	0xbdca1794	-0.098677784
34	0xbdb770e6	-0.089570805
35	0xbe07329d	-0.13202901
36	0xbe0c752b	-0.13716571
37	0xbe03553c	-0.12825483
38	0xbdf50f7b	-0.11965843
39	0xbda61f6a	-0.081114605
40	0x3cf54b97	0.02994327
41	0x3cd8a147	0.02644409
42	0x3d664ed2	0.056227513
43	0x3ca5663c	0.02019035
44	0x3dbf2833	0.09333839
45	0x3d20ac66	0.039226912
46	0x3d339580	0.043843746
47	0xbb2da06a	-0.002649332
48	0xbcb47a63	-0.022031015
49	0x3cad9feb	0.021194419
50	0xbea8d5e6	-0.32975692
51	0xbea4730d	-0.32119027
52	0xbe9797c7	-0.29607984
53	0xbe8dc9af	-0.27692935
54	0xbe5af2a6	-0.21381626
55	0xbe4e456e	-0.20143673
56	0xbe58a8e8	-0.21158183
57	0xbe40ed0f	-0.1884043
58	0xbe36c7fc	-0.17849725
59	0xbe43629e	-0.19080588
60	0xbd525ec3	-0.051359903
61	0xbd235f3b	-0.03988574
62	0xbc83191b	-0.016003182
63	0xbd0a6a1c	-0.0337926
64	0xbd8167ea	-0.06318648
65	0xbc815c21	-0.015791
66	0xbd7105a3	-0.058843266
67	0xbd2d2018	-0.042266935
68	0xbd8cb3ed	-0.068702556
69	0xbcc78dbc	-0.024359576
70	0x3ca6fc0b	0.020383855
71	0x3cb6d104	0.022316463
72	0xbd0598dd	-0.032616485
73	0xbd283a3d	-0.041071165
74	0xbd33cfc5	-0.043899316
75	0x3bd35b4f	0.006450094
76	0x3cf8f501	0.030390264
77	0xbcec23b4	-0.028825618
78	0xbcacdc49	-0.021101134
79	0xbcddbb86	-0.027066957
80	0x3be331e6	0.0069334386
81	0x3c02d78c	0.007985961
82	0xbd3840c4	-0.04498364
83	0xbcf99671	-0.030467244
84	0xbd9b5468	-0.075844586
85	0xbdacc46c	-0.08435902
86	0xbdb3e180	-0.08783245
87	0xbdcd1643	-0.10014012
88	0xbdcb222a	-0.09918626
89	0xbd06e00a	-0.032928504
90	0x3d1315e8	0.035909563
91	0x3d96b264	0.07358244
92	0x3d9dec25	0.077110566
93	0x3d1ea46c	0.038731024
94	0x3cfa4b20	0.0305534
95	0x3cd22c68	0.02565594
96	0x3d89c25a	0.06726523
97	0x3d0e70fe	0.034775726
98	0xbc01ecbc	-0.007929977
99	0xbd53ba50	-0.051691353
100	0xbdbe839a	-0.09302445
101	0xbda6869f	-0.08131146
102	0xbdecbdce	-0.1155964
103	0xbdd2f0de	-0.10299848
104	0xbde6d120	-0.11270356
105	0xbdf2703d	-0.11837814
106	0xbdd8dc70	-0.1058892
107	0xbd995a29	-0.074879
108	0xbdb15d1a	-0.08660336
109	0xbddaae50	-0.10677779
110	0xbeecc9ed	-0.46247807
111	0xbef286bf	-0.47368428
112	0xbee92e78	-0.45543265
113	0xbefb85ac	-0.4912542
114	0xbef0ede2	-0.4705649
115	0xbed9a825	-0.42511097
116	0xbef8c321	-0.48586372
117	0xbef01693	-0.46892223
118	0xbef3d240	-0.47621346
119	0xbee7e979	-0.45295313
120	0xbd6249fe	-0.055246346
121	0xbd8d00e3	-0.06884935
122	0xbda5e62d	-0.08100543
123	0xbc94da29	-0.018170433
124	0xbd3ce5b9	-0.046117518
125	0xbdab7b24	-0.083730966
126	0xbd83c908	-0.06434828
127	0xbd479eca	-0.048735417
128	0xbd7b926d	-0.06141894
129	0xbd4e47fe	-0.050361626
130	0xbd467b20	-0.048457265
131	0xbda3e3ff	-0.08002471
132	0xbd47b50c	-0.048756644
133	0xbcc4f238	-0.02404128
134	0xbce1c133	-0.027557945
135	0xbdabe857	-0.08393925
136	0xbd97df0c	-0.0741559
137	0xbd8c8d65	-0.06862906
138	0xbd39c52d	-0.045354057
139	0xbd8a0b82	-0.06740476
140	0xbee3fc13	-0.44528255
141	0xbee18dba	-0.4405344
142	0xbedf8704	-0.43657696
143	0xbee665f5	-0.44999662
144	0xbee42c99	-0.44565275
145	0xbeec486b	-0.46149
146	0xbed5f974	-0.4179188
147	0xbede4de0	-0.4341879
148	0xbecc2351	-0.39870694
149	0xbeebfc94	-0.4609114
150	0xbd477d40	-0.048703432
151	0xbd39917c	-0.04530476
152	0x3c2fc230	0.01072745
153	0xbd32fe38	-0.043699473
154	0xbd4e3b09	-0.05034927
155	0xba375c09	-0.00069946103
156	0xbcc097d2	-0.023509894
157	0xbcd68a81	-0.02618909
158	0xbc448fc1	-0.011997164
159	0xbd90db26	-0.07073049
160	0xbe53e10e	-0.2069132
161	0xbe6bf427	-0.23042355
162	0xbe815f2a	-0.25267917
163	0xbe84731f	-0.2586908
164	0xbe9c7918	-0.30561137
165	0xbea169b3	-0.31525955
166	0xbea80e03	-0.3282319
167	0xbeab2a94	-0.33430922
168	0xbebe8705	-0.37212387
169	0xbecf3f37	-0.40477917
170	0xbecdbc24	-0.40182602
171	0xbeecae10	-0.4622655
172	0xbede6726	-0.4343807
173	0xbed69922	-0.41913706
174	0xbeeaf682	-0.45891196
175	0xbee0c4f6	-0.4390027
176	0xbeebbfb0	-0.46044683
177	0xbed4d797	-0.41570732
178	0xbee38682	-0.4443856
179	0xbec8959e	-0.3917665
180	0xbec0c929	-0.37653473
181	0xbed29be9	-0.41134575
182	0xbed3aec3	-0.4134427
183	0xbee505c5	-0.44730964
184	0xbedc2b0d	-0.43001595
185	0xbef85634	-0.48503268
186	0xbee5798b	-0.44819292
187	0xbed5f4f5	-0.4178845
188	0xbed19a3a	-0.40937978
189	0xbeeac15a	-0.4585064
190	0xbd54a5c3	-0.051915895
191	0xbd54bd3b	-0.051938277
192	0x3b86cd0b	0.0041137985
193	0xbd75999f	-0.059960958
194	0xba87b3da	-0.0010353283
195	0xbd77ce94	-0.060499743
196	0xbd549218	-0.05189714
197	0x3b6e762e	0.0036386359
198	0xbc301dc2	-0.010749282
199	0xbd214c3f	-0.039379355
200	0xbd84eb5f	-0.06490206
201	0xbdbeeb77	-0.09322255
202	0xbd420b75	-0.047374208
203	0xbd4509b6	-0.048104964
204	0xbda075ca	-0.078349665
205	0xbd0b8062	-0.034057982
206	0xbd899a7f	-0.06718921
207	0xbcd29d65	-0.025709817
208	0xbdb1e4fd	-0.08686254
209	0xbd91e026	-0.07122831
210	0x3d81d253	0.06338944
211	0x3c3d616d	0.011558873
212	0x3c98e60f	0.018664388
213	0x3c8cf9c0	0.017208934
214	0x3d8f9872	0.070114985
215	0x3d93d092	0.07217516
216	0x3d6b00e4	0.057373896
217	0x3d87c2b6	0.06628935
218	0x3d612452	0.05496628
219	0x3d824135	0.063600935
220	0xbd1166b1	-0.035498325
221	0xbda8f1d5	-0.08249251
222	0xbd9d3b03	-0.07677271
223	0xbcec6e2f	-0.028861133
224	0xbd9f3a69	-0.07774813
225	0xbdb18674	-0.08668223
226	0xbcd7b75f	-0.026332555
227	0xbd1ae1fb	-0.037813168
228	0xbd65fc20	-0.05614865
229	0xbd920ef5	-0.07131759
230	0x3d83eebd	0.0644202
231	0x3d09517e	0.033524983
232	0x3d968083	0.073487304
233	0x3d855645	0.06510595
234	0x3d4cad8b	0.04997019
235	0x3d34182c	0.043968365
236	0x3d57c659	0.052679393
237	0x3d491fb4	0.0491025
238	0x3cde6046	0.027145516
239	0x3da6efe7	0.081512265
240	0xbd7135a8	-0.05888906
241	0xbd9b143c	-0.07572219
242	0xbc94d3a9	-0.018167334
243	0xbcc88bc7	-0.024480714
244	0xbd1420a2	-0.036163934
245	0xbd368cb9	-0.044567797
246	0xbda9267e	-0.08259295
247	0xbd32fc15	-0.043697435
248	0xbce1a0ea	-0.02754255
249	0xbd26a191	-0.040681425
250	0xbe3f69f2	-0.18692759
251	0xbe3839de	-0.17990825
252	0xbe657c11	-0.22410609
253	0xbe6fa100	-0.2340126
254	0xbe3bb97e	-0.18332478
255	0xbe6816ab	-0.22664897

conv2.bias f4 [32]
0	0x3d2a8f46	0.041640542
1	0x3d8313ee	0.06400286
2	0x3b21ec40	0.0024707466
3	0xbd4812e7	-0.04884615
4	0xbd4c159c	-0.049825296
5	0x3d918af9	0.07106585
6	0xbdc55cc6	-0.09636836
7	0xbd99c2f0	-0.075078845
8	0x3d169b68	0.0367693
9	0x3d6bfda6	0.057614945
10	0x3c2eeb5d	0.010676232
11	0x3d16074f	0.036628064
12	0xbd97d089	-0.07412822
13	0xbca24525	-0.019808361
14	0x3d85857a	0.06519599
15	0xbd8d460b	-0.06898125
16	0x3d91d5fd	0.07120893
17	0xbda7c6ef	-0.081922404
18	0xbc58ccaf	-0.013232394
19	0xbd9f7cf7	-0.07787507
20	0xbd1b1731	-0.037863914
21	0xbd1f6792	-0.03891713
22	0x3c0de8fb	0.008661504
23	0xbd97452c	-0.0738624
24	0xbbc09dae	-0.005878172
25	0xbd7775b3	-0.06041498
26	0xbda1f896	-0.07908742
27	0x3dba621e	0.091007456
28	0x3a83c133	0.0010052085
29	0x3dcc85fe	0.099864945
30	0x3d1061f5	0.03524967
31	0x3dabfff8	0.083984315

batch1.weight f4 [32]
0	0x3eeea70e	0.46611828
1	0x3edc21a7	0.42994425
2	0x3edd0655	0.43168893
3	0x3eaba12d	0.33521405
4	0x3ecd48b2	0.40094525
5	0x3f0434ad	0.51642877
6	0x3eef4cdb	0.46738324
7	0x3e70243d	0.23451324
8	0x3edd48e9	0.4321969
9	0x3e2db507	0.16963588
10	0x3e814a11	0.2525182
11	0x3edccae0	0.4312353
12	0x3eb8eaf2	0.3611675
13	0x3ece226a	0.4026063
14	0x3eaadac6	0.33370036
15	0x3e9a4ee0	0.30138302
16	0x3dadac45	0.084801234
17	0x3e976099	0.29565886
18	0x3eccb644	0.39982808
19	0x3eaf9018	0.34289622
20	0x3eeb8e4b	0.46006998
21	0x3eeedfd2	0.46655136
22	0x3e830b2e	0.25594467
23	0x3e185e70	0.14879775
24	0x3edbe208	0.42945886
25	0x3ed11ebc	0.4084376
26	0x3ea6c5e1	0.32572845
27	0x3f087c1a	0.53314364
28	0x3ea477b7	0.32122585
29	0x3ee83854	0.45355475
30	0x3e950424	0.29104722
31	0x3e4ce73c	0.20010084

batch1.bias f4 [32]
0	0xbf057c11	-0.52142435
1	0xbf08a2c5	-0.53373367
2	0xbf07c264	-0.5303099
3	0xbf0d25b9	-0.55135685
4	0xbf0cb305	-0.5496066
5	0xbeecb4c0	-0.4623165
6	0xbeeafd97	-0.458966
7	0xbf27d269	-0.65555435
8	0xbf0ccf77	-0.55004066
9	0xbdde0fdc	-0.10842869
10	0xbef8a395	-0.48562303
11	0xbef07149	-0.4696143
12	0xbef8535f	-0.48501107
13	0xbec108ee	-0.37702125
14	0xbf22bde4	-0.63571
15	0xbf2a0d43	-0.66426486
16	0xbf3cf885	-0.7381671
17	0xbf29eadc	-0.6637399
18	0xbef8b5c5	-0.4857618
19	0xbf0c9dcc	-0.5492828
20	0xbedf4a18	-0.43611217
21	0xbee011f3	-0.43763694
22	0xbf23a365	-0.63921195
23	0xbf3fff8d	-0.74999315
24	0xbef3a278	-0.4758489
25	0xbf1c5e0b	-0.61081
26	0xbf214f92	-0.6301204
27	0xbef4a5e6	-0.4778282
28	0xbf2010ff	-0.62525934
29	0xbef7e708	-0.4841845
30	0xbf010f48	-0.5041394
31	0xbf3d67fe	-0.73986804

batch1.running_mean f4 [32]
0	0xc481513d	-1034.5387
1	0xc3c274f2	-388.91364
2	0xc3c7b10c	-399.38318
3	0xc3d6f7dc	-429.9364
4	0xc3d81bda	-432.2176
5	0xc3c18101	-387.00784
6	0xc3c385b5	-391.0446
7	0x3f0a5566	0.5403656
8	0xc4400645	-768.09796
9	0x450746ee	2164.433
10	0xc38e2097	-284.2546
11	0xc39b649e	-310.78607
12	0xc39b960c	-311.17224
13	0xc3b66a0c	-364.8285
14	0xc37c225c	-252.13422
15	0xc2c287dc	-97.26535
16	0x43b869e7	368.82736
17	0xc3477b32	-199.48123
18	0xc3ad4944	-346.5724
19	0xc3a3db77	-327.71457
20	0xc38d9b40	-283.2129
21	0xc39e5606	-316.67206
22	0xc3903108	-288.38306
23	0xc44996b3	-806.3547
24	0xc392136a	-292.15167
25	0xc3a78e39	-335.1111
26	0xc40df6b4	-567.85474
27	0xc3850990	-266.0747
28	0xc2b669c0	-91.20654
29	0xc34c9e57	-204.61852
30	0xc41d8b8c	-630.1804
31	0xc32172f4	-161.44904

batch1.running_var f4 [32]
0	0x4a0d4e1a	2.3151425e+06
1	0x4802f1d7	134087.36
2	0x4821cb36	165676.84
3	0x4804840f	135696.23
4	0x485ddffe	227199.97
5	0x48875e6d	277235.4
6	0x489b4d7d	318059.9
7	0x4807548b	138578.17
8	0x49c97ad1	1.6505221e+06
9	0x4a42986e	3.1882515e+06
10	0x4a68c2a8	3.813546e+06
11	0x481a76e2	158171.53
12	0x48070109	138244.14
13	0x48777621	253400.52
14	0x477fb9b3	65465.7
15	0x48434e95	199994.33
16	0x47df3e80	114301.0
17	0x483482cd	184843.2
18	0x4859053e	222228.97
19	0x47bd2164	96834.78
20	0x48168f04	154172.06
21	0x484ec0d0	211715.25
22	0x4811834a	149005.16
23	0x49c1a08b	1.5861934e+06
24	0x4868e156	238469.34
25	0x47ba593c	95410.47
26	0x4892eb90	300892.5
27	0x47e6e8a5	118225.29
28	0x4756f4f0	55028.938
29	0x4797ead5	77781.664
30	0x4889e024	282369.12
31	0x47fc2845	129104.54

conv3.weight f4 [32, 32, 5]
0	0x3ce420cb	0.027847668
1	0x3d6ad677	0.057333436
2	0xbcfbddec	-0.030745469
3	0x3dbe3de8	0.092891514
4	0x3c6498c4	0.013952438
5	0xbbbd56a1	-0.0057781492
6	0xbd8439fd	-0.06456373
7	0xbd1e4ca7	-0.03864732
8	0x3c980642	0.018557671
9	0x3cb3b0b4	0.021934845
10	0x3c19bad1	0.009382919
11	0x3c15144c	0.009099077
12	0x3cd2cb38	0.025731668
13	0xbbfb8538	-0.007675793
14	0x3c5835a3	0.013196382
15	0x3d41b265	0.04728927
16	0xbc0cfddb	-0.008605446
17	0xbcdcd3d9	-0.026956486
18	0x3d81e4b9	0.063424535
19	0x3ceff814	0.029293098
20	0x3d428ac9	0.047495637
21	0xbbce6819	-0.0062990305
22	0x3d6c3832	0.05767078
23	0xbbafb00e	-0.0053615635
24	0x3dc7f97b	0.097643815
25	0x3c4de14e	0.012565924
26	0xbd15ba04	-0.03655435
27	0xbd267660	-0.040640235
28	0x3d85bfa0	0.0653069
29	0xbcabd6f7	-0.020976527
30	0x3d0aa844	0.033851877
31	0xbcdd15ed	-0.026987994
32	0x3c14c15c	0.009079304
33	0x3d960fc9	0.073272295
34	0x3c5c6944	0.013452832
35	0x3ca40e32	0.0200263
36	0xbd228f8b	-0.039687674
37	0xbcae04f1	-0.02124259
38	0x3cbfccb9	0.023413049
39	0x3ca9e2ec	0.020738088
40	0xbe094437	-0.13404928
41	0xbdee2ef6	-0.11630051
42	0xbe0efcc4	-0.1396361
43	0xbe0c936a	-0.13728109
44	0xbe144713	-0.14480238
45	0x3e56686b	0.2093827
46	0x3b2fac11	0.002680544
47	0xbcfae173	-0.03062508
48	0xbe02d9b2	-0.12778357
49	0xbdb482eb	-0.08814033
50	0x3c535014	0.01289751
51	0xbdac55da	-0.084148124
52	0xbcfe7a14	-0.03106407
53	0x3d6be2e8	0.05758944
54	0xbd02c1af	-0.031922992
55	0x3caf6bdd	0.021413738
56	0xbcb2fb0f	-0.02184823
57	0x3d68dac2	0.05684925
58	0xbc4222ec	-0.011849146
59	0xbcfe480b	-0.031040212
60	0xbdc01126	-0.09378271
61	0x3c4d071e	0.012513904
62	0x3d88b347	0.066748194
63	0xbd82d5aa	-0.063884094
64	0xbd2aec16	-0.041729055
65	0x3d5bc038	0.05365011
66	0xbdd16033	-0.10223427
67	0xbc9976d8	-0.018733427
68	0xbcf50737	-0.029910667
69	0x3c501f39	0.012702757
70	0xbdc27894	-0.09495655
71	0xbceccd2c	-0.028906427
72	0x3caf549d	0.021402651
73	0xbd1499df	-0.036279555
74	0xbd057b83	-0.032588493
75	0xbd6a23f3	-0.05716319
76	0x3cf31688	0.02967383
77	0x3d36f68c	0.04466872
78	0x3d6756cc	0.05647926
79	0x3d98e8da	0.07466288
80	0x3cb76e28	0.022391394
81	0x3c236599	0.009972953
82	0x3d3e36b3	0.046438884
83	0x3d194eab	0.03742854
84	0x3c229214	0.009922523
85	0xbd1de69b	-0.03855
86	0xbd1ac0dc	-0.03778158
87	0x3b3f7d69	0.0029219037
88	0x3b9780a6	0.0046234904
89	0x3cd406a9	0.025882082
90	0x3d06ddae	0.032926254
91	0xbcdb7d3f	-0.02679312
92	0xbb80f47b	-0.0039353943
93	0xbdab96d9	-0.08378381
94	0xbd6e0cb5	-0.058117587
95	0x3be7c1dd	0.007072671
96	0xbd1eca51	-0.038767163
97	0xbc92072b	-0.017825684
98	0xbc7164cf	-0.014733507
99	0xbd66ce88	-0.056349307
100	0xbc91c120	-0.017792284
101	0x3d8dc453	0.069222115
102	0xbcfd94b4	-0.030954696
103	0x3d303329	0.04301754
104	0xbca697b4	-0.02033601
105	0xbc96f518	-0.018427417
106	0xbbd86a6e	-0.0066044843
107	0xbd0c806e	-0.034302168
108	0xbc15b124	-0.009136472
109	0xbc75f33e	-0.015011607
110	0x3d57a87f	0.052650925
111	0x3b0b8690	0.0021289922
112	0x3d0eeb83	0.03489257
113	0x3c72569b	0.014791156
114	0x3c52b02e	0.012859387
115	0x3e368873	0.17825489
116	0x3e423528	0.1896559
117	0x3e17e18f	0.14832138
118	0x3e03902a	0.12847963
119	0x3e0515d3	0.12996607
120	0xbd37d11c	-0.044877157
121	0x3d5b6ffc	0.053573593
122	0x3bf64ad2	0.0075162435
123	0xbca828f0	-0.020527333
124	0x3d6d6769	0.057959948
125	0x3dcafd18	0.09911555
126	0x3d265733	0.040610503
127	0x3cdd4ac3	0.027013188
128	0xbb87db38	-0.004146006
129	0x3ce4abae	0.027913895
130	0xbcf30f2d	-0.029670322
131	0xbd1013d3	-0.035175156
132	0xbd8a48bd	-0.06752155
133	0xbddde28e	-0.108342275
134	0xbdf58b4e	-0.11989461
135	0x3cca22c0	0.024674773
136	0x3c6b5912	0.014364498
137	0x3d1576c3	0.036490213
138	0xbc8a8bad	-0.016912306
139	0xbe018659	-0.12648906
140	0xbd64c104	-0.055848137
141	0x3d0b10d7	0.033951607
142	0xbcdae24b	-0.026719233
143	0x3d270e74	0.040785268
144	0xbda01d03	-0.078180335
145	0xbda860c1	-0.08221579
146	0x3b5cda99	0.003369963
147	0xbd909889	-0.07060344
148	0x3c45f6f5	0.012082805
149	0xbd8a41a6	-0.06750803
150	0xbce1ae9e	-0.027549084
151	0xbd843235	-0.06454889
152	0xbd37d521	-0.04488099
153	0xbcaf2fb1	-0.021385046
154	0xbd62743a	-0.055286624
155	0xbd6fae37	-0.058515754
156	0x3db031ba	0.086032346
157	0x3d716fbf	0.05894446
158	0xbc3723d5	-0.011177977
159	0xb951f224	-0.00020021998
160	0x3b6b6826	0.0035920232
161	0xbd22fe4c	-0.039793298
162	0xbbab2286	-0.0052226214
163	0xbd892c5a	-0.066979125
164	0xbb393378	-0.0028259438
165	0x3d28b30f	0.04118639
166	0x3d47011e	0.04858505
167	0x3da56cb7	0.08077376
168	0x3db5dc17	0.088798694
169	0x3db47eae	0.08813225
170	0xbc1d7ae2	-0.009611817
171	0x3de15a38	0.11003536
172	0x3df89cba	0.12139268
173	0xbc1afbf0	-0.009459481
174	0x3dbeeb22	0.09322192
175	0x3c525a2f	0.012838884
176	0x3a871c8b	0.0010308189
177	0x3d9dcab8	0.07704681
178	0xb703bdd9	-7.852411e-06
179	0x3d0d8d1b	0.034558397
180	0x3cdb2a52	0.026753578
181	0xbcc8b65e	-0.024501022
182	0xbd9490a0	-0.072541475
183	0xbc56e2e4	-0.013115618
184	0x3a0d76a2	0.0005396401
185	0xbdc9e503	-0.09858134
186	0xbcf39493	-0.029733932
187	0xbb756ca5	-0.003744879
188	0xbca2ccbc	-0.019873016
189	0xb96d042b	-0.00022603634
190	0xbd18e4db	-0.03732763
191	0xbc528d40	-0.012851059
192	0xbc218552	-0.009858446
193	0xbdb5d81b	-0.088791095
194	0xbd8db204	-0.069187194
195	0x3d86665c	0.06562492
196	0x3cdc0e47	0.026862277
197	0xbd031f48	-0.032012254
198	0xbd2c22dc	-0.042025432
199	0x3d20a941	0.039223913
200	0xbdc96882	-0.098343864
201	0xbd266389	-0.040622268
202	0x3d2342e4	0.039858714
203	0xbd065420	-0.03279507
204	0xbdb093b5	-0.08621923
205	0xbbb156bc	-0.005411951
206	0xbc84903c	-0.016182058
207	0x3d7d9774	0.061912015
208	0xbd5ae640	-0.05344224
209	0x3c545edb	0.012962068
210	0x3c328811	0.010896699
211	0xbceef77f	-0.02917075
212	0x3d02a19a	0.031892397
213	0xbc98ec50	-0.01866737
214	0x3ba8a32f	0.005146406
215	0xbd42883d	-0.04749321
216	0x3da7309e	0.0816357
217	0x3ca1e0b7	0.019760473
218	0xbd5b4f49	-0.05354241
219	0x3b9fa772	0.004872256
220	0x3da1c32e	0.07898556
221	0xbc92c00d	-0.017913843
222	0x3c022292	0.0079428125
223	0x3d5c2bc8	0.05375269
224	0x3c6f23ca	0.014595935
225	0xbca89fc0	-0.020583987
226	0xbde4ef75	-0.11178485
227	0xbcf30b06	-0.029668342
228	0xbd49b5ce	-0.049245648
229	0xbccbf8fe	-0.024899002
230	0x3d95e5d1	0.073192246
231	0x3d762552	0.060094185
232	0x3dd6e9de	0.104938254
233	0x3cf298f1	0.029613944
234	0x3db957a5	0.0904992
235	0x3ca4c48b	0.02011325
236	0xbd8bcf6e	-0.068266734
237	0x3d7e4e87	0.06208661
238	0xbd04c602	-0.032415397
239	0x3c93778f	0.018001346
240	0x3b1b5504	0.0023701796
241	0xbcce3c89	-0.02517535
242	0xbdf095cd	-0.11747322
243	0xbd483f91	-0.048888747
244	0xbc3be10b	-0.011467229
245	0xbd8aa8a6	-0.067704484
246	0xbb8b422b	-0.004249831
247	0xbdfa6968	-0.12227136
248	0xbb8039eb	-0.0039131544
249	0x3b806f49	0.003919516
250	0x3cb5c98a	0.022190828
251	0x3d21d51b	0.039509874
252	0x3d188faf	0.037246402
253	0xbbb970b0	-0.0056591853
254	0xbd00a2a3	-0.031405102
255	0x3d13dad0	0.036097348

conv3.bias f4 [32]
0	0x3f4b9f7d	0.79540235
1	0xbac907d8	-0.0015337421
2	0xbf326f82	-0.697014
3	0x3c422efe	0.011852024
4	0x3f7c4110	0.9853678
5	0xbb95d113	-0.0045720427
6	0xbd962817	-0.07331865
7	0xbeb4ffe3	-0.35351476
8	0xbe65b000	-0.2243042
9	0x3f3f5ca4	0.74750733
10	0x3f21cc5a	0.6320244
11	0xbd021290	-0.031755984
12	0x3e42b1f9	0.19013204
13	0xbdc2a7ff	-0.09504699
14	0x3f1c027e	0.609413
15	0x3d8c383c	0.06846663
16	0x3e3d99ed	0.1851575
17	0xbf471f29	-0.7778192
18	0x3b9b840b	0.0047459654
19	0xbee32fd0	-0.44372416
20	0xbf476f48	-0.77904177
21	0xbd013329	-0.03154293
22	0xbc185523	-0.009297642
23	0x3c13fa93	0.0090319095
24	0xbc559fbe	-0.013038574
25	0xbdb9e131	-0.09076155
26	0x3f6d2e98	0.9264922
27	0x3efe2760	0.49639416
28	0xbc3ca420	-0.01151374
29	0x3ed95c98	0.42453456
30	0x39d69540	0.0004092846
31	0x3f0a3cef	0.5399923

batch2.weight f4 [32]
0	0x3fe4afa6	1.7866104
1	0x3e779301	0.24177171
2	0x3e9c47b8	0.30523467
3	0x3ea3c956	0.31989545
4	0x3e9ffaa3	0.31245908
5	0x3ea4609e	0.32104963
6	0x3d99a42e	0.07502018
7	0x3e326116	0.17419848
8	0x3ea5a799	0.3235443
9	0x3e67f3a1	0.22651531
10	0x3f050989	0.51967674
11	0x3db0e491	0.086373456
12	0x3ec9bc4f	0.3940148
13	0x3f06a3c0	0.5259361
14	0xbcedbfd0	-0.029022127
15	0x3e23846d	0.15968485
16	0x3eb538c4	0.3539487
17	0x3e875925	0.264352
18	0x3e560c85	0.20903213
19	0x3e116128	0.14197218
20	0x3f279146	0.65456045
21	0x40417935	3.023023
22	0x3ed61cf4	0.41818964
23	0x3f04512b	0.5168635
24	0x3e660e37	0.2246636
25	0x3e6629cd	0.22476883
26	0x3e05f52b	0.13081805
27	0x3e264ea5	0.16240938
28	0x3f91956e	1.1373727
29	0x3e9b8d4b	0.30381235
30	0x3fcc4bf9	1.5960685
31	0x3e0d0310	0.137707

batch2.bias f4 [32]
0	0x3fa720de	1.3056905
1	0xbf7a1e8a	-0.9770285
2	0xbee02838	-0.43780684
3	0xbf0e2ea9	-0.5553995
4	0xbed065b8	-0.40702605
5	0xbf8a43b2	-1.0801909
6	0xbe98bdb5	-0.29832235
7	0xbf25ae91	-0.6471949
8	0xbe9b3fde	-0.30322164
9	0xbf46f97e	-0.77724445
10	0xbd857c32	-0.06517829
11	0xbf163e8d	-0.58689195
12	0xbf106db2	-0.5641738
13	0x3ef6ad34	0.48179018
14	0xbf3ee8e3	-0.74574107
15	0xbf3ed2f8	-0.7454066
16	0xbf5f70bd	-0.872814
17	0xbf0506cc	-0.51963496
18	0xbe0ce7d1	-0.13760306
19	0xbf456707	-0.7711033
20	0xbeb42d8c	-0.35191
21	0x3f88fede	1.0702779
22	0xbe9b90cc	-0.3038391
23	0xbe91919a	-0.28431398
24	0xbf60979f	-0.87731355
25	0xbf44e0d4	-0.7690556
26	0xbf4691e1	-0.77566344
27	0xbf34c146	-0.7060741
28	0xbf086dac	-0.53292346
29	0xbf2a6671	-0.66562563
30	0x3ecec5f8	0.40385413
31	0xbefbc69b	-0.4917496

batch2.running_mean f4 [32]
0	0x3f4b47dc	0.79406524
1	0xbaca2290	-0.0015421677
2	0xbf326f0b	-0.6970069
3	0x3c4282cd	0.011872006
4	0x3f7c4991	0.98549753
5	0xbb959e9c	-0.004566027
6	0xbd96315d	-0.07333634
7	0xbeb50100	-0.35352325
8	0xbe65c7cb	-0.22439496
9	0x3f3f5dc8	0.74752474
10	0x3f215abb	0.6302907
11	0xbd0254eb	-0.031819265
12	0x3e42b0fd	0.19012828
13	0xbdc701fc	-0.09717175
14	0x3f1c04a7	0.609446
15	0x3d8c089f	0.06837582
16	0x3e3da021	0.18518116
17	0xbf471f49	-0.7778211
18	0x3b9b5b08	0.0047410764
19	0xbee335a4	-0.44376862
20	0xbf47bce6	-0.7802261
21	0xbd2260bc	-0.039643034
22	0xbc43d54a	-0.011952708
23	0x3c142220	0.009041339
24	0xbc571269	-0.013126948
25	0xbdb9e5f1	-0.09077061
26	0x3f6d2b3d	0.926441
27	0x3efe27bd	0.49639693
28	0xbabb43b1	-0.0014287141
29	0x3ed95da0	0.42454243
30	0x3cc4b988	0.02401425
31	0x3f0a3bf8	0.53997755

batch2.running_var f4 [32]
0	0x38151db0	3.5552017e-05
1	0x32991a8d	1.7823618e-08
2	0x30d63c81	1.5587746e-09
3	0x32d1e20e	2.44336e-08
4	0x353c4878	7.0140914e-07
5	0x30e62232	1.6744421e-09
6	0x331a8ca1	3.598382e-08
7	0x335655bf	4.9903743e-08
8	0x33d58327	9.942442e-08
9	0x339bd453	7.2563715e-08
10	0x37bc539a	2.2450276e-05
11	0x34853ff5	2.4819715e-07
12	0x31ab1ba5	4.979898e-09
13	0x37760486	1.4663796e-05
14	0x33581fbe	5.032029e-08
15	0x353d94e6	7.062466e-07
16	0x331320cb	3.425593e-08
17	0x310e411c	2.070073e-09
18	0x32706a73	1.3994042e-08
19	0x347c6a5a	2.350802e-07
20	0x370c62f4	8.36769e-06
21	0x3933b3b2	0.00017137712
22	0x380337b9	3.128473e-05
23	0x326515ff	1.3334556e-08
24	0x359d320c	1.1711977e-06
25	0x331f2a2c	3.7058427e-08
26	0x340e24ec	1.3238213e-07
27	0x33e8b9c3	1.0837132e-07
28	0x3992b2d0	0.00027980516
29	0x31e6c3a3	6.7161223e-09
30	0x3ac8b0eb	0.0015311515
31	0x32cae1aa	2.3618515e-08

fc1.weight f4 [50, 3136]
0	0x3eb0cc41	0.34530833
1	0x3ed280b6	0.41113824
2	0x3ec21f44	0.3791448
3	0x3ec8e89b	0.39239964
4	0x3ecfba43	0.40571794
5	0x3ebe8c80	0.37216568
6	0x3eb44629	0.35209778
7	0x3ea350c5	0.3189756
8	0x3ea98e79	0.3311651
9	0x3e9ba541	0.30399516
10	0x3ea6d1d1	0.32581952
11	0x3e935c0c	0.28781164
12	0x3e8ae9e0	0.27131557
13	0x3e864c3b	0.26230034
14	0x3e8d87b5	0.276426
15	0x3ea32d8b	0.31870684
16	0x3e99dcb1	0.30051187
17	0x3e30a445	0.17250164
18	0x3dc7f6ed	0.09763894
19	0x3d87314f	0.06601202
20	0x3cd6e37a	0.026231516
21	0x3d7635b4	0.06010981
22	0x3c647917	0.013944886
23	0x3d4064c7	0.04697111
24	0x3d47fb6f	0.04882377
25	0x3d38f5b1	0.045156185
26	0x3dbab59d	0.09116671
27	0x3e0d1eb9	0.13781251
28	0x3e374370	0.17896819
29	0x3e06c45d	0.13160844
30	0x3dda827a	0.10669418
31	0x3d8d297c	0.06892678
32	0x3ca4770b	0.020076295
33	0x3ca5238a	0.020158548
34	0x3d0ec466	0.03485527
35	0x3d997f0f	0.07494938
36	0x3e0ce36d	0.13758631
37	0x3e30b008	0.1725465
38	0x3e17083a	0.14749232
39	0x3e0c7ee3	0.13720278
40	0x3dc7ed2a	0.09762032
41	0x3debdd2a	0.11516793
42	0x3dd97866	0.10618667
43	0x3d62f492	0.05540902
44	0x3d7885e4	0.060674563
45	0x3dd1455c	0.102183074
46	0x3e055a28	0.13022673
47	0x3e107ec0	0.14110851
48	0x3dc67780	0.096907616
49	0x3d9d7841	0.07688952
50	0x3dc54f40	0.09634256
51	0x3dd4ebe4	0.10396555
52	0x3dff5e5d	0.1246917
53	0x3dd68619	0.10474796
54	0x3dc5cb60	0.09657931
55	0x3da1939b	0.07889482
56	0x3d94b280	0.07260609
57	0x3dcc3817	0.09971636
58	0x3e37135d	0.1787848
59	0x3e4000ac	0.18750256
60	0x3e519fd6	0.20471129
61	0x3e2151d2	0.15753868
62	0x3e2c6b96	0.16837916
63	0x3e734b32	0.23759153
64	0x3e71881b	0.23587076
65	0x3e3a7cc0	0.18211651
66	0x3e2658f1	0.16244866
67	0x3e1abab0	0.15110278
68	0x3dd31ab7	0.1030783
69	0x3d938199	0.07202453
70	0x3dca7221	0.098850496
71	0x3e0a784f	0.13522457
72	0x3e822d6c	0.2542528
73	0x3ea54691	0.322804
74	0x3e9ab7fc	0.30218494
75	0x3e988686	0.29790133
76	0x3e920a10	0.28523302
77	0x3e84d669	0.25944832
78	0x3e5871b2	0.21137121
79	0x3e7df0dc	0.24798912
80	0x3e56de08	0.20983136
81	0x3e55b8c2	0.20871261
82	0x3e1e9901	0.15488054
83	0x3d3da8ff	0.046303745
84	0x3cb758b6	0.022381168
85	0x3d8cadc4	0.06869081
86	0x3dee4633	0.11634483
87	0x3e25bc09	0.16185011
88	0x3e333772	0.1750162
89	0x3e244653	0.16042452
90	0x3e343135	0.17596896
91	0x3e58e1db	0.21179907
92	0x3e74414b	0.23853032
93	0x3e79b005	0.24383552
94	0x3e741a51	0.23838164
95	0x3e7b284e	0.24527094
96	0x3e899314	0.26870024
97	0x3eadacdb	0.3392094
98	0xbe87cd84	-0.26523983
99	0xbe6ccb5a	-0.23124447
100	0xbe22dbf2	-0.15904215
101	0xbe503c98	-0.20335615
102	0xbe3f52e1	-0.1868396
103	0xbe51420b	-0.2043535
104	0xbe4a6add	-0.19767328
105	0xbe3bb355	-0.18330128
106	0xbe3a3776	-0.18185219
107	0xbe3b7e6c	-0.18309945
108	0xbe3dae45	-0.1852351
109	0xbe32c9a3	-0.17459731
110	0xbe49637d	-0.19666858
111	0xbe2d5865	-0.16928251
112	0xbe159f25	-0.1461149
113	0xbdff13f2	-0.12454976
114	0xbde467e1	-0.11152626
115	0xbde31136	-0.11087267
116	0xbda422fc	-0.08014485
117	0xbd98939f	-0.074500315
118	0xbd24aab7	-0.04020187
119	0xbd82201d	-0.06353781
120	0xbd21ec4b	-0.039531987
121	0xbc4b5457	-0.012410245
122	0xbd1f53a7	-0.038898136
123	0xbd3ec531	-0.046574775
124	0xbd2bf935	-0.04198571
125	0xbd025981	-0.03182364
126	0xbd436772	-0.047706075
127	0xbd550fe6	-0.052017115
128	0xbdf5b458	-0.119972885
129	0xbdf17068	-0.11789018
130	0xbde5fad5	-0.11229483
131	0xbe154bbf	-0.14579676
132	0xbe1e6887	-0.15469562
133	0xbe3ce50d	-0.18446751
134	0xbe34e330	-0.1766479
135	0xbe31e8b8	-0.17373931
136	0xbe2d85b4	-0.16945535
137	0xbe1e8ef2	-0.15484217
138	0xbe33f4b0	-0.1757381
139	0xbe2a184b	-0.1661083
140	0xbe351b9e	-0.17686316
141	0xbe519f4c	-0.20470923
142	0xbe566dff	-0.20940398
143	0xbe3a3cd0	-0.1818726
144	0xbe490903	-0.19632344
145	0xbe1f9345	-0.15583523
146	0xbe2a53cf	-0.16633533
147	0xbe247ba2	-0.16062787
148	0xbe33fd8e	-0.17577192
149	0xbe20d2cd	-0.15705414
150	0xbe2dd6e5	-0.16976507
151	0xbdfa4b5c	-0.12221405
152	0xbdd16f10	-0.102262616
153	0xbdd358e0	-0.10319686
154	0xbd920e28	-0.07131606
155	0xbda5f30d	-0.08102999
156	0xbd9dd438	-0.07706493
157	0xbd223fd0	-0.039611638
158	0xbc2cbba9	-0.010542789
159	0xbc52758b	-0.012845407
160	0xbd6a3560	-0.05717981
161	0xbd45aa7d	-0.048258293
162	0xbd6886e9	-0.056769285
163	0xbd36fc94	-0.04467447
164	0xbd8fb94d	-0.07017765
165	0xbdbcd550	-0.09220374
166	0xbd0a1a40	-0.03371644
167	0xbc6086d9	-0.013704025
168	0xb9d25a8a	-0.00040121778
169	0x3c945e12	0.018111262
170	0x3d08c1c1	0.033387903
171	0x3cd8c170	0.026459426
172	0x3d36cf4c	0.044631287
173	0x3d82dad2	0.06389393
174	0x3d3d0a4c	0.046152398
175	0x3d45acd0	0.04826051
176	0x3d60c5df	0.054876205
177	0x3db3130b	0.087438665
178	0x3da21250	0.07913649
179	0x3dcf7582	0.10129835
180	0x3d6bbcb5	0.057553012
181	0x3d0b4555	0.034001667
182	0x3cc1e8a4	0.023670502
183	0xbc87e725	-0.01658971
184	0xbd73922a	-0.059465565
185	0xbd9c47d8	-0.076308906
186	0xbe05ed9e	-0.13078925
187	0xbe0fb7f0	-0.1403501
188	0xbe3e02fa	-0.18555823
189	0xbe7473ac	-0.2387225
190	0xbe8524bc	-0.2600459
191	0xbe9164d2	-0.28397232
192	0xbe9e98a6	-0.30975837
193	0xbeae1e7f	-0.34007642
194	0xbeabee1d	-0.33580104
195	0xbe92840d	-0.28616372
196	0xbdcfc8c3	-0.10145714
197	0xbe5ad4ac	-0.2137019
198	0xbe47f00a	-0.19525161
199	0xbe2f66b2	-0.17129019
200	0xbe06e265	-0.131723
201	0xbdf44bf9	-0.11928553
202	0xbdad4dfd	-0.08462141
203	0xbd7da125	-0.061921258
204	0xbd7bfc3f	-0.061519857
205	0xbd4f15cd	-0.0505579
206	0xbda4b80f	-0.08042919
207	0xbdc7c42d	-0.097542144
208	0xbdf1b254	-0.118015915
209	0xbdc467b5	-0.09590093
210	0xbdc0be1d	-0.09411261
211	0xbdd27110	-0.10275471
212	0xbd9e0a82	-0.07716848
213	0xbd669ce9	-0.056301985
214	0xbda38426	-0.0798419
215	0xbd8b621b	-0.068058215
216	0xbd4d82d1	-0.050173584
217	0xbcc5db96	-0.024152558
218	0xbcb19dd7	-0.02168171
219	0xbd22875f	-0.03967988
220	0xbc630fcf	-0.0138587495
221	0xbce84c12	-0.028356586
222	0xbcf102f6	-0.029420357
223	0xbc4ef003	-0.012630465
224	0xbc89b919	-0.016811894
225	0xbc5431a4	-0.012951288
226	0xbc252bb7	-0.010081223
227	0x3b69b2b9	0.0035659506
228	0xbc7264aa	-0.014794508
229	0xbb3cf53b	-0.0028832692
230	0x3cc64170	0.024201125
231	0xbcd3adb1	-0.025839658
232	0xbc8caac3	-0.01717127
233	0xbcfa6feb	-0.030570945
234	0xbb942f2a	-0.004522224
235	0xba5efabd	-0.0008505991
236	0x3d1156ed	0.03548329
237	0x3d4c6945	0.04990508
238	0x3ca50f6d	0.020148957
239	0x3d1875ce	0.037221722
240	0x3d0ba85e	0.034096114
241	0x3d5cb89d	0.053887
242	0x3ca08077	0.019592507
243	0x3d11fe28	0.035642773
244	0x3cd2c9a9	0.025730925
245	0x3d5a7396	0.053332888
246	0x3d6dcf08	0.05805877
247	0x3d482ce7	0.048870947
248	0x3d5d045c	0.053959236
249	0x3d1fb1f9	0.038988087
250	0x3d754441	0.059879545
251	0x3d7c50cf	0.061600503
252	0x3d96ef3c	0.07369849
253	0x3daa6c1f	0.08321404
254	0x3d8a7965	0.067614354
255	0x3d7cd63b	0.061727744

fc1.bias f4 [50]
0	0xbdc31802	-0.095260635
1	0x3e312b7a	0.17301741
2	0xbdf92bf4	-0.121665865
3	0x3cddc4b9	0.027071344
4	0x3cbf6937	0.0233656
5	0x3d9693ab	0.07352384
6	0x3b3364f0	0.0027373396
7	0x3e072056	0.13195929
8	0x3d108526	0.03528323
9	0x3deee7db	0.11665317
10	0x3d041014	0.032241896
11	0x3dd9fa3c	0.106434315
12	0x3e196fab	0.14984004
13	0xbe9eeb38	-0.31038833
14	0xbee0ebfa	-0.43930036
15	0x3db9f2fa	0.09079547
16	0xbe9fe703	-0.31230935
17	0xbe43282a	-0.1905829
18	0x3de5a350	0.1121279
19	0xbd2d4189	-0.042298827
20	0x3e07630e	0.1322138
21	0x3df8f894	0.121567875
22	0x3eaaad63	0.3333541
23	0xbd12e870	-0.0358662
24	0x3df5a20b	0.11993798
25	0x3d23e796	0.04001578
26	0xbe583586	-0.21114168
27	0xbe6344f0	-0.22194266
28	0xbe64c672	-0.22341326
29	0xbc9814ad	-0.018564546
30	0xbe83c315	-0.25734773
31	0xbec3328e	-0.38124508
32	0xbc896484	-0.016771562
33	0x3e44db9b	0.19224398
34	0xbe516c7b	-0.20451538
35	0xbe630087	-0.2216817
36	0xbe04de57	-0.12975441
37	0x3e310a9c	0.17289203
38	0xbe071144	-0.1319018
39	0xbefb4af8	-0.49080634
40	0xbe3ce903	-0.18448262
41	0x3e37da0b	0.1795427
42	0x3e0d8b8c	0.13822764
43	0x3d318c2b	0.043346565
44	0x3e0dded2	0.1385453
45	0x3e3edbf8	0.18638599
46	0xbea0a1c3	-0.31373414
47	0x3e903752	0.28167206
48	0xbe38aa34	-0.18033677
49	0xbc6b3e5a	-0.0143581275
