Plots_MA/GAMMA_influence_real_data_distribution/data/feature=D_P_mech._X_GAMMA=0.0_GAMMA_reduction1.0_num_pool=2_[True, True, False, True, True, True]_17_07_2022__12_39_55/best_model/model_fc.pt (torch, 2207 bytes, 4 tensors)

fc2.weight f4 [3, 50]
-0.1594453 -0.16980512 -0.020510493 0.11292495 0.03152199 0.13255203 0.14144129 -0.0627135
-0.1802386 -0.17790274 -0.058055338 0.17998065 -0.08900236 -0.09993457 0.008382422 0.029089604
0.072981276 -0.11053821 -0.13547677 -0.007831768 -0.067818455 0.037270367 -0.097861074 -0.042447943
-0.07807262 0.101621486 0.12999274 -0.1236922 -0.13205695 -0.10682236 -0.039528117 0.028198577
-0.016654748 -0.13009278 1.2305102 0.07338747 -0.044735543 -0.04777461 -0.106554694 -0.01816542
-0.020808792 -0.03271008 0.009046692 -0.07688219 -0.118403465 -0.01596374 -0.07256961 0.06674673
-0.053066496 -0.0589488 -0.17617695 -0.24809317 -0.03602867 -0.06606273 0.0326003 0.20851254
-0.046832494 -0.04122098 0.0066663297 0.048544183 -0.08947148 0.14004306 -0.083246864 -0.0533941
0.17768925 0.16176912 -0.022682562 0.08098851 -0.10812988 0.040155154 -0.0071422956 0.06470148
0.04441582 0.09364593 -0.07851475 0.059551083 0.0055342712 -0.06864717 0.036785953 -0.16983819
-0.14799419 -0.15255703 -0.07196163 -0.009128411 -1.5358769 -0.058002427 -0.005777424 -0.09347774
0.117658004 0.066127405 0.070164464 0.06989308 0.033245612 -0.15511328 -0.20065786 -0.10125321
-0.14090686 0.019851997 0.0034595907 -0.08421445 -0.023528833 0.25995353 -0.044329073 0.03554384
0.02930485 -0.27923432 0.077414036 0.04004457 0.058441877 0.091024004 0.09260728 -0.16081856
0.07339631 0.03032144 -0.17488222 0.007221701 0.081579484 -0.102941506 0.079321265 0.027149698
0.0152626345 -0.093451634 -0.035193723 -0.028993815 -0.019437429 0.002244078 -0.035222683 0.048076037
-0.030679125 -0.021599159 0.04134139 -0.0090109 0.01179178 -0.019035855 2.296238 0.098714724
0.039658885 -0.022368994 -0.08003406 -0.07621427 0.034333028 0.033814713 -0.0727148 0.0051504713
0.025239749 0.09874275 -0.018180784 -0.02627127 -0.032473926 -0.02409344
00000000: a145 23be 65e1 2dbe 9f05 a8bc 3245 e73d
00000010: 341d 013d b8bb 073e fcd5 103e ef6f 80bd
00000020: 7890 38be 232c 36be 6fcb 6dbd d94c 383e
00000030: df46 b6bd 7faa ccbd 6d56 093c 524d ee3c
00000040: 3577 953d db61 e2bd 6cba 0abe d150 00bc
00000050: 67e4 8abd d0a8 183d 636b c8bd e5dd 2dbd
00000060: 8ae4 9fbd ed1e d03d d11c 053e 5652 fdbd
00000070: f039 07be aec5 dabd 3ce8 21bd b400 e73c
00000080: 8a6f 88bc 0b37 05be 5c81 9d3f 2b4c 963d
00000090: 9e3c 37bd 4faf 43bd 5939 dabd a6cf 94bc
000000a0: 3377 aabc 01fb 05bd 9438 143c 6974 9dbd
000000b0: 847d f2bd 64c6 82bc 609f 94bd 82b2 883d
000000c0: 415c 59bd 4c74 71bd bb67 34be 230c 7ebe
000000d0: cc92 13bd e64b 87bd e487 053d 5084 553e
000000e0: 6ed3 3fbd 55d7 28bd 3a71 da3b 44d6 463d
000000f0: d33c b7bd 7367 0f3e 557d aabd c6b3 5abd
00000100: 2cf4 353e cea6 253e c8d0 b9bc 4edd a53d
00000110: 3373 ddbd bb79 243d eb09 eabb 3682 843d
00000120: 5ded 353d 70c9 bf3d 57cc a0bd d6eb 733d
00000130: d558 b53b e396 8cbd deac 163d 10ea 2dbe
00000140: ca8b 17be e937 1cbe 9e60 93bd 558f 15bc
00000150: 9d97 c4bf f493 6dbd 8c50 bdbb 4271 bfbd
00000160: aef6 f03d ce6d 873d 63b2 8f3d 1a24 8f3d
00000170: 8d2c 083d 04d6 1ebe 4179 4dbe d85d cfbd
00000180: e349 10be a8a0 a23c 4dba 623b a078 acbd
00000190: 8abf c0bc a118 853e 6792 35bd 6b96 113d
000001a0: ba10 f03c cdf7 8ebe 408b 9e3d c605 243d
000001b0: c060 6f3d cb6a ba3d e3a8 bd3d 9fad 24be
000001c0: ce50 963d ab64 f83c 5314 33be 05a4 ec3b
000001d0: 2513 a73d ffd2 d2bd 3073 a23d 0b69 de3c
000001e0: 2110 7a3c 9263 bfbd 4b27 10bd 7084 edbc
000001f0: 3e3b 9fbc 6211 133b a945 10bd 61eb 443d
00000200: ca52 fbbc b8f0 b0bc 9755 293d 74a2 13bc
00000210: 4f32 413c 15f1 9bbc 90f5 1240 f22a ca3d
00000220: 5b71 223d 2e3f b7bc e6e8 a3bd 3a16 9cbd
00000230: caa0 0c3d 4c81 0a3d 7feb 94bd 49c5 a83b
00000240: 97c3 ce3c a439 ca3d deef 94bc d936 d7bc
00000250: 6103 05bd 9b5f c5bc

fc2.bias f4 [3]
-0.87696975 1.1765773 -1.6536347
00000000: 1781 60bf 169a 963f 4daa d3bf

fc3.weight f4 [2, 3]
0.07370536 -0.3063451 -0.58753157 0.07988915 -0.3591324 0.038205363
00000000: d6f2 963d 44d9 9cbe 7868 16bf ec9c a33d
00000010: 34e0 b7be 3a7d 1c3d

fc3.bias f4 [2]
1.7040087 -1.5567716
00000000: f51c da3f 4b44 c7bf
