Plots_MA/GAMMA_influence_real_data_distribution/data/feature=D_P_mech._X_GAMMA=0.0_GAMMA_reduction1.0_num_pool=2_[True, True, False, True, True, True]_17_07_2022__12_39_55/best_model/model_cnn.pt (torch, 762095 bytes, 16 tensors)

conv1.weight f4 [64, 1, 100]
0	0x3c134792	0.008989232
1	0x3d07ec79	0.033184502
2	0x3c08ba61	0.008345217
3	0x3bb98f46	0.0056628315
4	0xbc4b25f2	-0.012399184
5	0xbdba5402	-0.090980545
6	0xbd652ff1	-0.055953924
7	0xbd1292b3	-0.035784435
8	0x3c6930d5	0.014232834
9	0xbc0c6626	-0.008569276
10	0xbd8cae53	-0.06869187
11	0xbd721a55	-0.059107143
12	0xbd190e58	-0.037367195
13	0x3d94d22a	0.07266648
14	0x3d5c5cb0	0.05379933
15	0xbdc9f245	-0.09860662
16	0xbd892902	-0.06697275
17	0x3cc42b69	0.02394648
18	0xbd41b1ac	-0.04728858
19	0xbd341022	-0.043960698
20	0xbdc137da	-0.09434481
21	0xbcbdce98	-0.0231698
22	0x3cafa6a9	0.021441774
23	0x3d9afd16	0.075678036
24	0xbd246963	-0.040139567
25	0xbd589088	-0.05287221
26	0x3bb1dbab	0.005427798
27	0xbba66075	-0.0050774165
28	0xba8145f3	-0.0009862765
29	0xbdd8dc85	-0.10588936
30	0x3d848c1b	0.064720355
31	0xbc701c6b	-0.014655213
32	0xbcb542ee	-0.022126641
33	0xbd3a31a5	-0.0454575
34	0xbdd7969c	-0.10526773
35	0xbd3ff557	-0.046864834
36	0xbdd6c42d	-0.10486636
37	0x3ce21dc8	0.027602091
38	0xbd86905d	-0.06570504
39	0xbdd56b7d	-0.104208924
40	0xbd8386ed	-0.064222194
41	0x3ccf5a79	0.025311695
42	0xbd8de43b	-0.06928297
43	0xbdb95a38	-0.09050411
44	0xbd57bb8b	-0.05266909
45	0x3da4705f	0.080292456
46	0x3d2b4ac1	0.041819338
47	0x3c2d19e3	0.010565254
48	0xbd1e9e7b	-0.038725358
49	0xbd5e4785	-0.054267425
50	0x3befd42d	0.0073189945
51	0x3d6ebbf7	0.058284726
52	0xbdb91b52	-0.09038414
53	0x3d83b494	0.06430927
54	0xbde04326	-0.109503075
55	0xbdd3f1bb	-0.10348841
56	0xbdde8138	-0.1086449
57	0x3c9f5abe	0.019452449
58	0xbc0f5155	-0.008747418
59	0x3c3f3654	0.011670668
60	0xbdb09719	-0.086225696
61	0xbd962ed0	-0.073331475
62	0x3cef89bb	0.02924048
63	0x3d6e16ff	0.0581274
64	0xbdc69ceb	-0.096978985
65	0xbbf69cb2	-0.0075260038
66	0xbc9d6d20	-0.019217074
67	0xbd173d08	-0.03692344
68	0x3cb2f8f5	0.021847228
69	0xbdb5948f	-0.08866226
70	0x3ce81d07	0.028334154
71	0xbd74c372	-0.059756704
72	0x3d3f6750	0.046729386
73	0xbd3bac46	-0.04581859
74	0x3d497d9c	0.049192056
75	0xbdb39c0a	-0.087699965
76	0xbde40dbe	-0.111354336
77	0x3d979eab	0.074033104
78	0xbd7060dd	-0.058686126
79	0xbcc3863b	-0.023867717
80	0xbd4a2cac	-0.04935901
81	0xbd0839a7	-0.033258107
82	0xbdd0133e	-0.1015992
83	0xbe5d0a77	-0.21586023
84	0xbe3cf40b	-0.1845247
85	0xbd771fe9	-0.060333166
86	0xbdba075d	-0.09083436
87	0xbd8bbc24	-0.06822994
88	0xbe23eaef	-0.16007589
89	0xbe5c6dbc	-0.21526235
90	0xbe0dd943	-0.1385241
91	0xbda8fe0c	-0.082515806
92	0xbd57ddfb	-0.05270193
93	0xbe41766e	-0.18892834
94	0xbe2fae96	-0.17156443
95	0xbd1ff972	-0.03905625
96	0xbd25a16b	-0.040437143
97	0xbcd095fa	-0.02546214
98	0xbd513c04	-0.051082626
99	0xbdc3e711	-0.09565557
100	0x3d4a66bf	0.049414393
101	0xbbbbdfe0	-0.005733475
102	0x3cdcf282	0.026971105
103	0xbcfd455f	-0.030916868
104	0x3e02f2bf	0.12787913
105	0x3e000aab	0.1250407
106	0x3de42ea5	0.11141709
107	0x3d363c9d	0.0444914
108	0xbc8fdb1b	-0.017560532
109	0x3e1333c5	0.14375217
110	0x3dabff46	0.08398299
111	0x3d698167	0.057008173
112	0x3d093584	0.033498302
113	0xbc84f40b	-0.01622965
114	0x3d30a195	0.043122847
115	0x3d277928	0.040887028
116	0x3e0ef0d2	0.13959053
117	0x3db9259d	0.09040377
118	0x3dab5ce6	0.08367328
119	0x3dd35a03	0.10319903
120	0xbcc2a5e5	-0.023760745
121	0x3dc0964c	0.09403667
122	0x3ccbc7d1	0.024875553
123	0xbd8c3e0d	-0.06847773
124	0x3daae3a2	0.08344199
125	0xbd3cce8e	-0.046095423
126	0x3da6c1aa	0.08142407
127	0x3dc7cd25	0.09755925
128	0x3c405c16	0.011740705
129	0x3bd396aa	0.0064571695
130	0x3d11a9a9	0.03556219
131	0x3db69f46	0.08917098
132	0x3d802b4c	0.06258258
133	0x3db680dc	0.08911297
134	0x3bca5cd4	0.0061756168
135	0xbd8402fe	-0.06445883
136	0x3d5c2431	0.053745452
137	0x3c9d4715	0.019198934
138	0x3cf78aa9	0.030217486
139	0x3dc9bab1	0.09850062
140	0xbc8ef552	-0.017450962
141	0x3db81565	0.08988456
142	0xbd62c408	-0.05536273
143	0xbd85fd76	-0.065424845
144	0x3d8679f2	0.06566228
145	0x3d95b9b8	0.07310814
146	0xbd1e38a3	-0.03862823
147	0x3c6d2a8f	0.014475479
148	0x3bdf49af	0.0068142037
149	0x3ce8657a	0.0283687
150	0xbcd295c5	-0.025706181
151	0xbdd4e6a6	-0.10395555
152	0x3c9da793	0.019244945
153	0xbdd9271d	-0.106031634
154	0xbda5e2f0	-0.080999255
155	0xbdbc4761	-0.09193302
156	0x3cc8b084	0.024498232
157	0x3ce13974	0.027493216
158	0xbd939770	-0.07206619
159	0x3d8f1d89	0.06988055
160	0xbdb0e9cf	-0.086383455
161	0x3d5c5a6e	0.053797178
162	0x3ccc18b5	0.024914125
163	0xbd2d75ec	-0.042348787
164	0x3d6b837b	0.057498436
165	0x3d4dcdbb	0.050245028
166	0x3d67658f	0.05649334
167	0xbdd99e7d	-0.10625932
168	0xbd885ff3	-0.06658926
169	0xbdc9aacf	-0.09847032
170	0x3d5590b4	0.052139953
171	0xbc01bb92	-0.007918255
172	0xbda43c9f	-0.08019375
173	0xbd39aa43	-0.04532839
174	0x3d12ec27	0.035869744
175	0x3d73c61d	0.059515107
176	0xbd088f7e	-0.03333997
177	0xbe02df66	-0.12780532
178	0xbda8d447	-0.08243614
179	0x3d026f5f	0.031844493
180	0xbcbe5c4f	-0.023237376
181	0x3cd9c517	0.026583238
182	0x3d2408f5	0.040047605
183	0xbd993a4d	-0.07481823
184	0x3c78efff	0.015193938
185	0xbd5addac	-0.05343406
186	0xbdbfbcc8	-0.09362179
187	0xbde92bda	-0.11385317
188	0xbd02cc55	-0.031933147
189	0xbcde3e91	-0.027129443
190	0x3c78e894	0.01519217
191	0x3d3cc4a8	0.046085984
192	0xbe02da1a	-0.12778512
193	0xbd93e865	-0.0722206
194	0xbda97696	-0.082745716
195	0xbc19d6f5	-0.009389629
196	0xbc194785	-0.0093554305
197	0x3d00d652	0.03145439
198	0x3c23750b	0.009976636
199	0x3c080064	0.008300874
200	0xbd9b6b68	-0.075888455
201	0xbd87a4e5	-0.06623248
202	0xbda41908	-0.08012587
203	0xbd49f1ad	-0.049302746
204	0xbd49a5a0	-0.049230218
205	0x3d8f16b5	0.06986753
206	0xbd46c290	-0.048525393
207	0x3dafad48	0.08577973
208	0x3dacd1af	0.084384315
209	0x3d7f60cd	0.062348176
210	0x3d704a8d	0.058664847
211	0x3d9170eb	0.071016155
212	0x3c864493	0.01639012
213	0xbd8812bb	-0.066441976
214	0x3d990860	0.074723005
215	0x3d953adb	0.072866164
216	0x3d8b6092	0.06805529
217	0xbd8ef9c0	-0.0698123
218	0xbc4e80b3	-0.0126039265
219	0x3d84cc3f	0.06484269
220	0xbb4ff500	-0.0031731725
221	0xbbe7a94d	-0.007069743
222	0xbd5ae11d	-0.05343734
223	0x3d4d1720	0.05007088
224	0x3d34a563	0.044103038
225	0xbcb2cd07	-0.02182628
226	0x3d97277a	0.073805764
227	0xbd70f810	-0.05883032
228	0x3d550cfd	0.05201434
229	0xbb8990e7	-0.004198182
230	0xbd258203	-0.040407192
231	0x3c7d888d	0.015474451
232	0xbdb2bd17	-0.08727472
233	0x3da736bd	0.081647374
234	0xbcad2c80	-0.021139383
235	0xbd52c9cd	-0.051461983
236	0x3c20bff3	0.009811389
237	0x3d6bb33d	0.05754398
238	0x3d984bda	0.074363425
239	0x3d877082	0.06613256
240	0xbc96d2ed	-0.018411124
241	0x3cb9ef5a	0.02269714
242	0x3dbbfccb	0.09179076
243	0x3d5c0ad3	0.05372126
244	0x3dcc0ec7	0.09963756
245	0x3c8dd400	0.017313004
246	0xbdc4bd98	-0.09606475
247	0x3cf30193	0.029663837
248	0xbcd00553	-0.025393164
249	0x3c928093	0.017883575
250	0x3d1fd337	0.03901979
251	0x3d6723fa	0.056430794
252	0xbd42301a	-0.047409154
253	0xbd9802db	-0.0742242
254	0x3dbb8eb7	0.0915808
255	0x3ccf3da7	0.025297953

conv1.bias f4 [64]
0	0xbe10b81f	-0.14132737
1	0x3efb5384	0.49087155
2	0xbd7ac893	-0.06122644
3	0x3d7148a0	0.05890715
4	0xbcdd51cd	-0.027016545
5	0xbd8341eb	-0.06409057
6	0x3e7b3274	0.24530965
7	0x3f05f1ee	0.5232228
8	0xbe5be1a8	-0.214728
9	0xbceeb8da	-0.029140878
10	0x3de12bf9	0.10994715
11	0xbda395aa	-0.079875305
12	0xbe71f61f	-0.23629044
13	0xbe00c27a	-0.12574187
14	0xbc8b7200	-0.017022133
15	0x3e0fa30e	0.14027044
16	0xbd92a847	-0.071610026
17	0x3d8faae6	0.07015018
18	0x3e944bb4	0.28964007
19	0xbe4bb352	-0.19892624
20	0x3ed71d38	0.4201448
21	0xbd92e4d7	-0.07172554
22	0xbe001ae1	-0.12510253
23	0xbcce62f3	-0.025193667
24	0xbd6bc813	-0.057563853
25	0xbe7cdb6c	-0.24693078
26	0xbe841ed4	-0.2580477
27	0xbe24d8e2	-0.16098359
28	0xbe40f45c	-0.18843216
29	0xbe5eb97d	-0.21750446
30	0x3ef60c19	0.48056105
31	0xbd9e645c	-0.07733986
32	0xbd86c240	-0.06580019
33	0xbdbf07e0	-0.09327674
34	0x3ee3507a	0.44397336
35	0xbd5b5b23	-0.05355371
36	0xbcbcc86d	-0.02304479
37	0x3f55fa68	0.83585215
38	0xbd73adf7	-0.059492078
39	0xbd67ad6a	-0.056561865
40	0xbe615db6	-0.22008404
41	0xbe44863f	-0.19191836
42	0x3edfc29b	0.4370316
43	0xbdcaa903	-0.09895518
44	0xbe653cf7	-0.22386537
45	0xbd8f9277	-0.07010358
46	0x3f0dcdcd	0.5539215
47	0xbd45d390	-0.048297465
48	0x3e4ab66a	0.19796148
49	0xbda3d613	-0.07999816
50	0x3ed99f37	0.42504284
51	0xbd916b60	-0.07100558
52	0xbc98cf13	-0.018653428
53	0xbccf65b3	-0.025317049
54	0x3e15d9a2	0.14633802
55	0x3f0a2952	0.539693
56	0xbda22ce5	-0.07918719
57	0xbdc80fa0	-0.09768605
58	0xbe6833ad	-0.22675963
59	0xbe80c60d	-0.251511
60	0xbd292b6d	-0.04130118
61	0xbde8198b	-0.11332997
62	0xbdc130a0	-0.094331026
63	0xbdabc57f	-0.08387279

conv2.weight f4 [32, 64, 10]
0	0x3cd90ede	0.026496347
1	0x3d9fdd30	0.0780586
2	0xbc79a5ae	-0.015237255
3	0x3d24bcab	0.04021899
4	0x3db71ac7	0.08940654
5	0xbd761f6e	-0.060088567
6	0x3d680942	0.056649454
7	0x3cd94532	0.026522253
8	0xbd877413	-0.06613936
9	0x3d4f92d5	0.05067714
10	0x3c954221	0.01822001
11	0x3da53a4d	0.080677606
12	0x3d491e93	0.049101423
13	0x3d72e02a	0.05929581
14	0x3d058690	0.032599032
15	0x3cea1a53	0.028577005
16	0x3cc3dc03	0.02390862
17	0x3d68af5b	0.056807857
18	0x3bc5b150	0.0060331
19	0x3c2316d4	0.009954173
20	0xbd03bb69	-0.03216115
21	0xbc6da0f4	-0.014503706
22	0xbc99fb8d	-0.018796707
23	0xbd184677	-0.037176576
24	0x3cf6bcd6	0.03011934
25	0x3cf535c8	0.029932871
26	0xbca4c954	-0.020115532
27	0xbd0a7bb0	-0.033809364
28	0xbbe07597	-0.0068499553
29	0x3d10d020	0.035354733
30	0xbcf41bc8	-0.029798403
31	0xbd7f6d68	-0.062360197
32	0xbd25d58f	-0.04048687
33	0xbacdeb84	-0.0015710448
34	0x3b83b331	0.004019164
35	0xbd2a9f00	-0.04165554
36	0xbd496637	-0.049169745
37	0xbd2683ab	-0.040652912
38	0xbd088d67	-0.033337977
39	0x3ace41c0	0.0015736148
40	0xbceea248	-0.029130116
41	0xbd032b64	-0.032023802
42	0xbb0261eb	-0.001989479
43	0xbd152df3	-0.036420774
44	0x3d1fd92c	0.03902547
45	0xbc32fc0f	-0.010924353
46	0x3b3951ad	0.0028277442
47	0xbd0d7cc6	-0.03454282
48	0xbcd2bd42	-0.02572501
49	0x3ccf6461	0.02531642
50	0xbc7e2acf	-0.015513136
51	0xbd05be43	-0.03265215
52	0xbce16e4b	-0.027518412
53	0xbccd765a	-0.025080848
54	0x3caed3a0	0.021341145
55	0x3cc58e86	0.024115812
56	0x3b8f555f	0.0043741907
57	0x3cb63f47	0.02224697
58	0x3ce7ff43	0.02831996
59	0x3c4a6eee	0.012355549
60	0x3d4bdac9	0.049769197
61	0x3da7c436	0.08191721
62	0x3ddee048	0.10882622
63	0x3dc0364a	0.09385355
64	0x3d85eefe	0.06539725
65	0x3de8e956	0.1137263
66	0x3d94dc4c	0.07268581
67	0x3db88727	0.09010153
68	0x3d81ed8c	0.063441366
69	0x3dd9feab	0.10644277
70	0x3df309e7	0.11867123
71	0x3d4fe1a9	0.050752316
72	0xbbde7c46	-0.006789717
73	0xbc82f92c	-0.015987955
74	0xbca75881	-0.020427944
75	0x3cc41234	0.023934461
76	0x3d4f49ed	0.05060761
77	0xbb675f07	-0.0035304443
78	0x3b85ea52	0.004086771
79	0xb99c2815	-0.00029784502
80	0xbcc1c42a	-0.023653109
81	0x3d8d638f	0.06903755
82	0x3d459e39	0.048246596
83	0x3d98de07	0.07464223
84	0x3d19edf0	0.03758043
85	0x3d08262e	0.033239536
86	0x3d08e777	0.033423867
87	0x3cc2717d	0.023735756
88	0x3ce72967	0.028217984
89	0x3dc96d9d	0.0983536
90	0xbc79abd6	-0.015238723
91	0x3cb8a268	0.022538379
92	0x3cd66df8	0.026175484
93	0xbc508465	-0.012726878
94	0xbca6e8db	-0.020374706
95	0xbcc9b447	-0.024622096
96	0x3ca866c2	0.020556811
97	0x3d102d61	0.035199527
98	0x3c3e00d5	0.011596878
99	0xbc850d24	-0.016241618
100	0x3d7ec4fd	0.06219958
101	0x3d893407	0.066993766
102	0x3ce207c0	0.027591586
103	0x3d17f037	0.03709432
104	0x3cd5c32a	0.026094038
105	0x3ca04ed5	0.01956884
106	0x3d008c15	0.031383593
107	0x3d80687d	0.062699296
108	0x3d51f126	0.051255368
109	0x3ced7f2a	0.0289913
110	0xbc381a7d	-0.011236784
111	0xbc9f47cd	-0.019443417
112	0x3bd00cc8	0.00634918
113	0xbd09b95c	-0.033624038
114	0xbbc184a3	-0.005905704
115	0x3d1b6775	0.03794046
116	0xbce79164	-0.02826757
117	0xbc4abfc4	-0.012374822
118	0xbcb451e7	-0.02201171
119	0xbb999f27	-0.004688162
120	0xbd3249ad	-0.043527294
121	0xbd6f7a6a	-0.058466353
122	0xbd8fc0c5	-0.0701919
123	0xbba4dfa1	-0.0050315415
124	0xbd0833c1	-0.03325248
125	0xbd8d4c9f	-0.0689938
126	0xbd3df78e	-0.046378665
127	0xbcf3a752	-0.02974287
128	0xbd2901e4	-0.04126157
129	0xbcee5990	-0.029095441
130	0x3d0f4cd5	0.034985382
131	0x3b30406c	0.0026893867
132	0x3d0cbc47	0.034359243
133	0x3d72d649	0.05928639
134	0x3d6583fa	0.056034066
135	0x396094dc	0.00021417759
136	0x3c299ccb	0.010352324
137	0x3c877b82	0.016538385
138	0x3d251812	0.04030616
139	0x3c9b4cc1	0.018957498
140	0xbc9017d2	-0.017589483
141	0xbc6d6ce0	-0.01449129
142	0x3bd78743	0.0065774038
143	0xbbb09115	-0.005388389
144	0x393d052c	0.00018026371
145	0xbc8856f0	-0.016643018
146	0x3cc5c8b1	0.024143549
147	0x3b838437	0.004013564
148	0x3d210c36	0.039318286
149	0xbcc5c319	-0.024140881
150	0xbd9651ac	-0.073397964
151	0xbd95b66b	-0.07310184
152	0xbc9ba98f	-0.01900175
153	0xbd936c8c	-0.07198438
154	0xbda476a7	-0.08030444
155	0xbcf468d6	-0.029835146
156	0xbd492942	-0.049111612
157	0xbcfbe389	-0.030748146
158	0xbd0d4dd3	-0.034498047
159	0xbdb41cf2	-0.087945834
160	0x3c83f732	0.016109083
161	0x3b23f183	0.0025015778
162	0xbc031265	-0.007999991
163	0x3b35e2a4	0.0027753497
164	0xbcf15aad	-0.029462183
165	0xbca59854	-0.020214237
166	0xbc43a487	-0.011941082
167	0x3c459daf	0.0120615205
168	0xbc7f63c1	-0.015587748
169	0xbce7f677	-0.028315766
170	0xbcaedfaa	-0.021346886
171	0xbd860d15	-0.06545464
172	0xbcb17b5f	-0.021665273
173	0xbba93686	-0.0051639704
174	0xbd440c03	-0.047863018
175	0xbcff77ed	-0.031185115
176	0xbd579738	-0.052634448
177	0xbc51a46d	-0.01279555
178	0xbd3d359d	-0.046193708
179	0x3923aa82	0.0001560841
180	0x3d3f74ed	0.04674237
181	0x3d356210	0.044282973
182	0x3d424b7a	0.04743526
183	0x3cdd51c7	0.027016534
184	0x3d7dfab0	0.062006652
185	0x3baaf8d2	0.00521765
186	0x3d4cc48c	0.04999213
187	0x3d623086	0.055222057
188	0x3d788c50	0.060680687
189	0x3bcef4b5	0.0063157924
190	0xbdc5d161	-0.096590765
191	0xbdca6fa1	-0.09884573
192	0xbd373930	-0.044732273
193	0xbde16511	-0.11005605
194	0xbd572979	-0.052529786
195	0xbdef3c20	-0.1168139
196	0xbde1baa9	-0.11021931
197	0xbd65001d	-0.05590831
198	0xbd9bd8b6	-0.07609694
199	0xbdda30ab	-0.10653814
200	0x3d24d697	0.04024371
201	0x3d113c16	0.035457693
202	0x3dad21e3	0.08453729
203	0x3daf1104	0.08548167
204	0x3d63d407	0.055622127
205	0x3dce69ef	0.10078799
206	0x3d89c0cf	0.067262284
207	0x3dde4816	0.10853593
208	0x3d425609	0.04744533
209	0x3d74a2da	0.05972562
210	0x3c5bf57e	0.013425229
211	0xbd1f3548	-0.038869172
212	0xbcfd2160	-0.030899704
213	0xbd022906	-0.031777404
214	0x3cb28e56	0.021796387
215	0x3cc9f203	0.024651533
216	0x3c28f7c5	0.010312979
217	0x3ca0d994	0.019635
218	0x3c1252cd	0.008930874
219	0x3c97f84e	0.018551018
220	0xbdb77953	-0.08958688
221	0xbe0ac693	-0.13552313
222	0xbe00f72c	-0.12594289
223	0xbda2fa0f	-0.07957851
224	0xbe022147	-0.12708007
225	0xbe08fa00	-0.13376617
226	0xbd8e4931	-0.06947554
227	0xbda0e381	-0.07855893
228	0xbdbb0086	-0.09130959
229	0xbdd58bc9	-0.104270525
230	0x3c21fab1	0.00988643
231	0xbcaf6214	-0.021409072
232	0x3c9b6a0a	0.018971462
233	0x3c35886b	0.011079888
234	0xbb62f816	-0.0034632734
235	0xbc15f6d2	-0.009153085
236	0xb8d32bc5	-0.00010069417
237	0xbb49a4dd	-0.0030768432
238	0xbcca100b	-0.024665853
239	0x3cfc407f	0.030792473
240	0xbbc3a6cd	-0.005970812
241	0xbcbeba1c	-0.023282103
242	0x3d120a63	0.035654437
243	0x3cfe9c23	0.031080311
244	0x3ca46a69	0.020070272
245	0x3c474da6	0.012164509
246	0xbccf204f	-0.02528396
247	0x3c63d23e	0.013905106
248	0x3cf612e5	0.030038306
249	0x3c8ea0bf	0.017410634
250	0xbd228aee	-0.039683275
251	0xbcf4dad0	-0.029889494
252	0xbd8c83ec	-0.068610996
253	0xbd8f6b69	-0.07002909
254	0xbc419c75	-0.011817087
255	0xbd45501b	-0.048172098

conv2.bias f4 [32]
0	0xbdfaf496	-0.12253682
1	0x3c97a90c	0.018513225
2	0xbc6660f7	-0.014061204
3	0x3e6fd83d	0.23422332
4	0xbe4c8048	-0.1997081
5	0xbc951515	-0.01819853
6	0x3d1c1fba	0.038116194
7	0x3cafac4b	0.02144446
8	0xbd8c4176	-0.06848423
9	0xbd4bf331	-0.049792472
10	0x3c3a13aa	0.011357227
11	0xbd240867	-0.040047076
12	0xbd8fc0d9	-0.07019205
13	0x3cb46c7a	0.022024382
14	0xbc8e8a5f	-0.017399965
15	0x3d716bea	0.058940805
16	0x3de0c1fe	0.10974501
17	0xbd41dd78	-0.04733035
18	0x3c8d2754	0.017230667
19	0xbcc6f505	-0.024286756
20	0xbd87b513	-0.06626334
21	0x3ce471e9	0.027886348
22	0x3c205f6e	0.009788377
23	0x3e0ccb2c	0.13749379
24	0x3e069888	0.13144124
25	0xbd131306	-0.035906814
26	0xbdf9662a	-0.121776894
27	0x3cf1d774	0.029521681
28	0xbc8a41d6	-0.016877096
29	0xbd3b5cd8	-0.04574284
30	0x3daff0fa	0.085908845
31	0xbcd3ddc1	-0.025862576

batch1.weight f4 [32]
0	0x3f9caf7e	1.2241056
1	0x3f6194c1	0.88117605
2	0x3f4bb419	0.7957168
3	0x3f6ee3b1	0.9331618
4	0x3f8717bb	1.0554117
5	0x3f88fa5f	1.0701407
6	0x3f5aa4a3	0.85407466
7	0x3f256ff7	0.6462397
8	0x3f877439	1.0582343
9	0x3f766afc	0.96256995
10	0x3f8842c2	1.0645373
11	0x3f8a094e	1.078409
12	0x3f830bfd	1.0238034
13	0x3f5d6bb5	0.8649247
14	0x3f609d5e	0.87740123
15	0x3f8d407a	1.1035302
16	0x3f618f6f	0.8810949
17	0x3f38f5a1	0.722498
18	0x3f6d4170	0.92677975
19	0x3f7a97c1	0.9788781
20	0x3f91609c	1.1357608
21	0x3f80e291	1.0069143
22	0x3f76375a	0.9617821
23	0x3f830768	1.0236635
24	0x3f61d59e	0.8821658
25	0x3f8bd7a2	1.0925181
26	0x3f6529c1	0.89516836
27	0x3f7429aa	0.95376074
28	0x3f7a4854	0.97766614
29	0x3f83e29e	1.0303533
30	0x3f8c5eca	1.0966427
31	0x3f1505aa	0.5821177

batch1.bias f4 [32]
0	0xbcfd9388	-0.030954137
1	0xbcdbeb41	-0.026845576
2	0xbd617ff3	-0.055053663
3	0xbd8bbc97	-0.0682308
4	0xbe0e9672	-0.13924578
5	0xbe6a2ae4	-0.22867924
6	0x3d20eb09	0.039286647
7	0x3e6e4827	0.23269711
8	0xbe03b47b	-0.12861817
9	0x3d5953e1	0.05305851
10	0xbdfb0f84	-0.12258819
11	0xbddbd089	-0.10733134
12	0x3d8b2227	0.067936234
13	0xbeb439e9	-0.35200432
14	0xbe6f324b	-0.23359029
15	0xbd573b1f	-0.052546617
16	0x3b7742da	0.0037729056
17	0xbea2801e	-0.3173837
18	0xbc8f614b	-0.017502448
19	0xbe38959f	-0.18025826
20	0xbda75abe	-0.081716046
21	0xbe2f0122	-0.17090276
22	0xbe30e399	-0.17274322
23	0xbe2413fd	-0.1602325
24	0xbe07f0ef	-0.13275503
25	0xbce9be48	-0.028533116
26	0x3d9cc1ae	0.07654129
27	0xbe7536a8	-0.23946631
28	0x3e64eb55	0.22355397
29	0xbe267e86	-0.16259202
30	0xbe5c616e	-0.21521541
31	0xbf00be5f	-0.50290483

batch1.running_mean f4 [32]
0	0x3d5e9bae	0.054347686
1	0xc006176f	-2.0951803
2	0xbdb706d8	-0.08936852
3	0xc00ebb45	-2.23018
4	0x4003a981	2.0572207
5	0x3f50e2a7	0.81595844
6	0x3f24b36f	0.64336294
7	0xbec2816b	-0.37989363
8	0x3fb7edbf	1.4369429
9	0xbf121be7	-0.57073826
10	0xbfae0ed7	-1.3598279
11	0xbf797168	-0.9743867
12	0xbf71f24d	-0.94510347
13	0x3fe9efcb	1.8276304
14	0xc0587a5c	-3.3824682
15	0xbea237a7	-0.31683084
16	0xc00b43e6	-2.1760192
17	0x400554fc	2.083312
18	0xbf8885f9	-1.0665885
19	0x3fd7dfcb	1.6865171
20	0x3ec505c4	0.3848096
21	0xbf371b25	-0.71525794
22	0xbd8617ba	-0.06547494
23	0x400fe251	2.2481883
24	0xbf968081	-1.1757966
25	0xbee98fa2	-0.45617396
26	0xbfbb7d85	-1.464768
27	0xbf9d196c	-1.2273383
28	0x3f9e69cf	1.237604
29	0xbf2bd7ae	-0.67125976
30	0x3faa5eeb	1.3310217
31	0xbfc5c263	-1.5449947

batch1.running_var f4 [32]
0	0x3f5e705a	0.86890185
1	0x3f0a2d61	0.5397549
2	0x3f52e87f	0.8238601
3	0x3eede26c	0.4646181
4	0x3f8bd968	1.0925722
5	0x3f26d425	0.65167457
6	0x3f6fee14	0.93722653
7	0x3f33385c	0.7000787
8	0x3fa181ec	1.2617774
9	0x3f161741	0.5862923
10	0x3fd404e4	1.6563993
11	0x3fb04eaa	1.3774006
12	0x3f2e7894	0.6815274
13	0x3f338e23	0.7013876
14	0x3f31c5d9	0.69442517
15	0x3fb23f60	1.392559
16	0x3f074233	0.52835387
17	0x3f89c544	1.0763326
18	0x3f23f16f	0.64040273
19	0x3ffb37b4	1.9626374
20	0x3f8d5f3c	1.1044688
21	0x3fa7c9af	1.3108424
22	0x3fa1014d	1.2578522
23	0x3faf08c5	1.3674551
24	0x3f01549c	0.5051973
25	0x3fd35d03	1.651276
26	0x3f193aaf	0.5985517
27	0x3f844c18	1.0335722
28	0x3f9bf4f4	1.2184129
29	0x3f99edeb	1.2025732
30	0x3fa2c04a	1.2714932
31	0x3f08b660	0.5340328

conv3.weight f4 [32, 32, 5]
0	0x3e25cca1	0.16191341
1	0x3e54b749	0.20773043
2	0x3dfa48ee	0.122209415
3	0x3e7ea502	0.24867633
4	0x3e208677	0.15676294
5	0x3ae8cd60	0.0017761402
6	0xbdb762b8	-0.08954376
7	0xbd322c17	-0.04349908
8	0x3b9c4594	0.0047690365
9	0xbba31793	-0.0049771755
10	0xbd497516	-0.049183927
11	0xbd7d4675	-0.06183477
12	0xbd49da74	-0.0492806
13	0xbdaee21b	-0.0853922
14	0xbdb01ccc	-0.085992426
15	0x3d372275	0.044710595
16	0x3c65a7ea	0.014017085
17	0xbcc918b7	-0.024547918
18	0x3bc780d1	0.006088354
19	0xbd25cb91	-0.04047734
20	0x3ddcfd3b	0.107904874
21	0x3d8777b7	0.06614631
22	0x3e148b88	0.14506352
23	0x3dae6fc2	0.0851741
24	0x3e3b24b4	0.1827572
25	0x3e36800e	0.17822286
26	0x3e26eb0f	0.16300605
27	0x3e42ab71	0.19010712
28	0x3e9b2de3	0.30308446
29	0x3e4ac979	0.19803418
30	0x3dd0dd5d	0.10198472
31	0x3d577514	0.05260189
32	0x3def36d7	0.11680382
33	0x3e3f0766	0.18655166
34	0x3dced93e	0.101000294
35	0x3dbbb7b4	0.09165898
36	0x3d8cc8df	0.068742506
37	0x3dbafdb3	0.091304205
38	0x3e199f20	0.15002108
39	0x3e00dc1c	0.12583965
40	0x3e105a6b	0.14096992
41	0x3e25ac55	0.1617902
42	0x3e331472	0.17488268
43	0x3e49d97e	0.19711873
44	0x3e3b0ad9	0.18265857
45	0xbdb3090b	-0.08741959
46	0xbe3a4b94	-0.18192893
47	0xbe5144a4	-0.2043634
48	0xbe93dbc9	-0.2887862
49	0xbe9c2dd8	-0.30503726
50	0x3e6c8d75	0.23100837
51	0x3e88bc10	0.2670598
52	0x3e7750bc	0.24151891
53	0x3e9c785c	0.30560577
54	0x3e79c4b5	0.24391444
55	0x3e8625ab	0.26200613
56	0x3e63a754	0.222318
57	0x3e9cdcee	0.30637306
58	0x3e75db74	0.24009496
59	0x3e493a48	0.19651139
60	0xbe88e80c	-0.26739538
61	0xbe41e068	-0.1893326
62	0xbe3ac4a0	-0.18239069
63	0xbeb35a5c	-0.35029876
64	0xbebcb6d6	-0.36858243
65	0x3e8be23d	0.27321044
66	0x3e069bd4	0.13145381
67	0x3e535d22	0.20640996
68	0x3e478b32	0.19486693
69	0x3e5f47ff	0.21804808
70	0x3ddb6bf4	0.1071395
71	0x3e3c59d2	0.18393639
72	0x3e64b622	0.22335103
73	0x3e278fba	0.16363421
74	0x3e19a985	0.15006073
75	0x3cf6dfc2	0.030135993
76	0x3e00a9e0	0.12564802
77	0x3e01b8cc	0.1266815
78	0x3e068558	0.13136804
79	0x3e0459b9	0.12924851
80	0xbe1b2338	-0.15150154
81	0xbe2b70b5	-0.16742213
82	0xbe281667	-0.16414796
83	0xbe3ac4ae	-0.1823909
84	0xbe61cdc5	-0.22051151
85	0xbc065e4a	-0.008201191
86	0x3cd1aa6a	0.025593955
87	0x3d285355	0.041095097
88	0x3d8463f8	0.0646438
89	0x3da45797	0.08024519
90	0x3d59730a	0.053088225
91	0xbcedce06	-0.029028904
92	0xbcf177c4	-0.029476054
93	0xbe059d05	-0.1304818
94	0xbe11e3a0	-0.14246988
95	0x3e262915	0.16226609
96	0x3dff51a7	0.12466746
97	0x3e19d95a	0.1502432
98	0x3e1376b1	0.14400746
99	0x3d61f104	0.05516149
100	0x3e3409fd	0.17581935
101	0x3e93c0f2	0.28858143
102	0x3e5a992f	0.21347497
103	0x3e94cd64	0.2906295
104	0x3e4c795b	0.19968168
105	0x3e0ebcbf	0.13939188
106	0x3e2b1003	0.16705327
107	0x3e0b2b69	0.13590778
108	0x3e2ba2ee	0.16761371
109	0x3e1c301b	0.15252726
110	0x3ded776a	0.11595042
111	0x3dd7d3a9	0.10538418
112	0x3e0aecbc	0.1356687
113	0x3dfe153d	0.12406395
114	0x3dfdf03c	0.12399337
115	0x3d79bb78	0.0609698
116	0x3de032bc	0.10947177
117	0x3db743be	0.08948468
118	0x3dc54153	0.096316
119	0x3dd7f31f	0.105444185
120	0x3d85648c	0.065133184
121	0x3e41cc54	0.18925601
122	0x3e17be31	0.14818646
123	0x3df2e80e	0.11860667
124	0x3e33207e	0.17492864
125	0x3e12c81c	0.14334148
126	0x3dc92caf	0.09822976
127	0x3da0a7e5	0.07844523
128	0x3d4519b4	0.048120216
129	0x3d644826	0.05573287
130	0x3cf5625a	0.029954124
131	0x3cabfce4	0.020994611
132	0xbc54424a	-0.012955258
133	0xbd9363bb	-0.071967565
134	0xbdf136ac	-0.11778006
135	0x3e905639	0.28190783
136	0x3e99409e	0.29932112
137	0x3eb1b945	0.34711662
138	0x3e9ff92d	0.31244794
139	0x3e508172	0.2036188
140	0x3d8ad4de	0.067788824
141	0x3e34fce3	0.17674594
142	0x3dde286d	0.10847554
143	0x3e3f6405	0.18690498
144	0x3c03c35b	0.008042182
145	0x3e49adad	0.19695158
146	0x3e8e8406	0.278351
147	0x3e3846c9	0.17995752
148	0x3e79a945	0.24380977
149	0x3e052601	0.13002779
150	0x3e3c7b42	0.18406394
151	0x3e1a9728	0.15096724
152	0x3e233dc4	0.1594153
153	0x3e369558	0.17830408
154	0x3e052793	0.13003378
155	0xbd0bc7b9	-0.034126017
156	0x3e019f44	0.12658411
157	0x3dca0415	0.0986406
158	0x3d0180c3	0.031616937
159	0x3d05d69b	0.032675367
160	0x3d2a8286	0.041628383
161	0xbb895bab	-0.004191836
162	0x3cefbbe7	0.029264404
163	0xbd05c578	-0.032659024
164	0x3d13aede	0.03605544
165	0x3de4d8b7	0.111741476
166	0x3da3ef65	0.08004645
167	0x3e1e9a1c	0.15488476
168	0x3e2625ae	0.16225311
169	0x3e194a39	0.1496972
170	0xbd7fdc26	-0.06246581
171	0x3d6fbd24	0.058529988
172	0x3d9fe642	0.0780759
173	0xbd46fa53	-0.04857857
174	0x3d6eac50	0.0582698
175	0x3be6c7a4	0.007042842
176	0xbd20d742	-0.039267786
177	0x3d2005d9	0.039068077
178	0xbc159aa0	-0.009131104
179	0xbcfd8b41	-0.03095019
180	0xbe4be2d9	-0.19910754
181	0xbe80343e	-0.25039858
182	0xbe95c6bf	-0.29253194
183	0xbe68abb3	-0.22721748
184	0xbe52d885	-0.20590408
185	0xbd7b3398	-0.0613285
186	0x3c582989	0.0131934965
187	0x3d317e7c	0.043333516
188	0x3d027900	0.031853676
189	0x3d8283bc	0.063727826
190	0x3d726170	0.059174955
191	0x3da1d3ea	0.079017475
192	0x3d76cf0f	0.06025606
193	0xbcacba0f	-0.021084813
194	0xbb73245a	-0.0037100525
195	0xbc2c5769	-0.010518887
196	0xbd47faa7	-0.048823025
197	0xbdd8f5d9	-0.10593767
198	0xbde7df7f	-0.11321925
199	0xbcee2726	-0.029071402
200	0xbcf9c481	-0.030489208
201	0xbba5d6f0	-0.005061023
202	0x3df4085b	0.11915656
203	0x3d5ee55e	0.05441796
204	0x3c66968d	0.01407398
205	0xbe22d0e8	-0.15900004
206	0xbe2b915f	-0.16754673
207	0xbd1d1186	-0.03834679
208	0xbe1a365d	-0.150598
209	0xbd9cc337	-0.07654422
210	0xbe1ba9f1	-0.15201546
211	0xbe247157	-0.1605886
212	0xbd3b94ce	-0.045796208
213	0xbdbf1d96	-0.09331815
214	0xbcad062e	-0.02112111
215	0xbe0a3c83	-0.13499646
216	0xbc034752	-0.00801261
217	0xbd8e1345	-0.06937269
218	0xbe0f88a8	-0.14016974
219	0xbd9c2ded	-0.07625947
220	0x3dc0301c	0.09384176
221	0xbc60f5fc	-0.013730522
222	0x3c1a6679	0.009423845
223	0x3d5cdf99	0.053924177
224	0x3b841b1f	0.0040315534
225	0x3c119e70	0.008887872
226	0xbda2034b	-0.07910784
227	0x3bb4b24a	0.005514418
228	0xbc3ae3d5	-0.011406858
229	0x3caf3738	0.021388635
230	0x3c15b4e9	0.009137371
231	0xbbd785f9	-0.00657725
232	0x3d19aeec	0.037520334
233	0xbd261384	-0.040545955
234	0x3c289257	0.010288796
235	0x3d09a4f1	0.033604566
236	0xbd4693ec	-0.048480913
237	0x3db0a827	0.086258225
238	0xbb96bd05	-0.0046001696
239	0x3d54fa08	0.05199626
240	0x3e26da1d	0.16294141
241	0x3dd9da1f	0.106373064
242	0x3d250e61	0.040296916
243	0x3de1f3b6	0.11032812
244	0x3e10b000	0.14129639
245	0xbe66aa7d	-0.22525974
246	0xbe1b6957	-0.15176903
247	0xbe863906	-0.2621538
248	0xbe09157e	-0.13387105
249	0xbe00a258	-0.12561929
250	0x3d88d9ba	0.06682153
251	0x3d9dfcac	0.07714209
252	0x3d93e32e	0.072210655
253	0x3ccb52f2	0.024819825
254	0xbccdad97	-0.025107188
255	0xbe6871bd	-0.22699638

conv3.bias f4 [32]
0	0x3d15e695	0.036596853
1	0x3d58da6f	0.05294269
2	0x3c2f4b6b	0.010699133
3	0x3df6a837	0.12043803
4	0xbae5977c	-0.0017516459
5	0x3d52e418	0.05148706
6	0x3d7b4cc0	0.06135249
7	0xbca08dbe	-0.019598838
8	0xbc7a1d2d	-0.015265745
9	0x3d3a9ded	0.045560766
10	0x3d80bd47	0.06286102
11	0x3ce0a1f8	0.027420983
12	0xbd31ddb5	-0.043424327
13	0x3d79c73d	0.060981024
14	0xbd22bf97	-0.039733496
15	0x3c0ba23f	0.008522569
16	0x3ccf3ea7	0.02529843
17	0xbc7b0687	-0.01532138
18	0xba4c8404	-0.0007801654
19	0xbc535683	-0.012899044
20	0x3d43fb83	0.047847282
21	0x3d56bb2a	0.052424587
22	0xbd411609	-0.047140155
23	0x3d59b900	0.053154945
24	0x3d8c9700	0.068647385
25	0x3d64e803	0.055885326
26	0x3d1636d4	0.036673382
27	0x3c15492e	0.009111686
28	0xbc1e83cd	-0.009674978
29	0xbd1559aa	-0.036462463
30	0xbd18d431	-0.037311736
31	0x3d92c3a2	0.0716622

batch2.weight f4 [32]
0	0x3f7999f6	0.9750055
1	0x3f292631	0.660739
2	0x3f6896f1	0.9085532
3	0x3f80d01d	1.0063511
4	0x3ef317c3	0.47479066
5	0x3f5f2c74	0.87177205
6	0x3f5eeacc	0.8707702
7	0x3f90cf6f	1.1313304
8	0x3f3e41fa	0.7431942
9	0x3f89b4c4	1.075829
10	0x3f85d4e2	1.0455592
11	0x3f83c441	1.0294267
12	0x3fae5c21	1.3621866
13	0x3f686583	0.90779895
14	0x3f5066fc	0.8140714
15	0x3f4f6863	0.81018656
16	0x3f86c1d4	1.0527902
17	0x3f85c5b6	1.0450962
18	0x3fa0b332	1.2554686
19	0x3f90bded	1.1307961
20	0x3f6f996c	0.9359348
21	0x3f89817a	1.0742638
22	0x3f90ac85	1.1302649
23	0x3f4460e8	0.7671037
24	0x3f65812b	0.8965022
25	0x3f848209	1.0352184
26	0x3f940d3d	1.156654
27	0x3f85d4f9	1.0455619
28	0x3f8923c5	1.0714041
29	0x3f76fdde	0.9648112
30	0x3f8bd77f	1.0925139
31	0x3f6e36f7	0.9305262

batch2.bias f4 [32]
0	0x3d86c337	0.06580203
1	0xbe9f9f54	-0.31176245
2	0x3d4f7244	0.05064608
3	0x3d94ec17	0.07271593
4	0xbea90e34	-0.3301865
5	0x3d906cbf	0.07051992
6	0xbdd2a34d	-0.102850534
7	0x3de915e5	0.11381129
8	0xbd6267a9	-0.05527464
9	0x3da195dc	0.078899115
10	0xbe4582ff	-0.19288252
11	0x3d95ab3c	0.07308051
12	0xbc34dde2	-0.011039229
13	0x3cbd7340	0.023126245
14	0xbd0f6f9c	-0.03501855
15	0xbd8fec7e	-0.07027529
16	0x3dd23e28	0.102657616
17	0x3d6bc139	0.05755732
18	0x3e803080	0.25037003
19	0x3e0d8c35	0.13823016
20	0x3d3acc4a	0.04560498
21	0x3e4691c2	0.1939154
22	0x3e0506ee	0.12990925
23	0xbea2929b	-0.31752476
24	0xbd472b90	-0.04862553
25	0x3dd3ee4a	0.103481844
26	0x3e19da3b	0.15024655
27	0x3e2ebbf0	0.1706388
28	0x3db17d0d	0.0866643
29	0x3d870b30	0.06593931
30	0x3e336c9f	0.17521904
31	0x3d40df34	0.047087863

batch2.running_mean f4 [32]
0	0x408210d8	4.064556
1	0xbfe04b8c	-1.7523055
2	0x40844023	4.132829
3	0xc0907261	-4.5139623
4	0x408391fc	4.1115704
5	0x4060f94c	3.5152159
6	0xc0aa1933	-5.315576
7	0xc09a745d	-4.8267045
8	0x408ad604	4.338625
9	0xc091e9f9	-4.559811
10	0x40ecf563	7.4049544
11	0xc09ac63f	-4.8367
12	0x40b96b09	5.794316
13	0x4097b01f	4.740249
14	0x4074d751	3.8256419
15	0x40741947	3.8140428
16	0x408be5c7	4.371799
17	0x407c8155	3.9453938
18	0xc08e3ea8	-4.4451485
19	0xc09a6e84	-4.8259907
20	0x406480f0	3.5703697
21	0x4070bcd3	3.761525
22	0xc09331ef	-4.5998454
23	0x408c1b38	4.3783226
24	0xc0a557d0	-5.1669693
25	0x40a4a3eb	5.1450095
26	0xc0aafffb	-5.3437476
27	0x40713a3e	3.7691798
28	0xc0ac1752	-5.3778467
29	0x405f9c9a	3.4939332
30	0x40755696	3.8334098
31	0x40881e8b	4.2537284

batch2.running_var f4 [32]
0	0x4310a702	144.65237
1	0x421adb67	38.71426
2	0x42ff032c	127.506195
3	0x42f72bd0	123.58557
4	0x42d7f067	107.969536
5	0x43038ff7	131.56236
6	0x43949352	297.15094
7	0x43075db2	135.366
8	0x42eca63b	118.32467
9	0x42dec474	111.3837
10	0x432d5299	173.32265
11	0x42df26f9	111.57612
12	0x42a7bf2e	83.8734
13	0x4300cadf	128.79247
14	0x42ed7abe	118.73973
15	0x43234099	163.25233
16	0x42f40c58	122.02411
17	0x42ef3396	119.60075
18	0x43041bcf	132.10863
19	0x430f7cae	143.48703
20	0x42fd77e7	126.734184
21	0x43086611	136.3987
22	0x431726fc	151.15228
23	0x42763591	61.55231
24	0x436f4d1d	239.30122
25	0x430df7cf	141.968
26	0x430aa24b	138.63396
27	0x43040e5b	132.05608
28	0x430ba857	139.65758
29	0x4304569a	132.33829
30	0x4305ce39	133.80556
31	0x42eb68c3	117.70461

fc1.weight f4 [50, 3136]
0	0xbeebdadb	-0.4606541
1	0xbed0d559	-0.4078777
2	0xbeca5b5e	-0.39522833
3	0xbeac5d40	-0.33664894
4	0xbe931ad2	-0.287314
5	0xbe8476f2	-0.25871998
6	0xbe667f10	-0.22509408
7	0xbe603bab	-0.21897762
8	0xbe2dbbd8	-0.16966188
9	0xbe3cc069	-0.18432774
10	0xbe19ac8f	-0.15007232
11	0xbe22557b	-0.1585292
12	0xbe1f447d	-0.1555347
13	0xbe174ada	-0.14774647
14	0xbe2328cd	-0.15933533
15	0xbe1f7747	-0.15572844
16	0xbe234111	-0.1594279
17	0xbe593eb0	-0.2121532
18	0xbe59c0a3	-0.21264891
19	0xbe6e9553	-0.2329915
20	0xbe6f195b	-0.23349516
21	0xbe504c13	-0.2034152
22	0xbe6baced	-0.23015185
23	0xbe6e971e	-0.23299834
24	0xbe61ff53	-0.22070055
25	0xbe530485	-0.20607193
26	0xbe234981	-0.15946008
27	0xbe23fc5d	-0.16014238
28	0xbe1ddad1	-0.15415503
29	0xbe2c6d8b	-0.16838662
30	0xbe2f696c	-0.17130059
31	0xbe3e7745	-0.18600185
32	0xbe35b86c	-0.17746133
33	0xbe2020a4	-0.15637451
34	0xbe2eb353	-0.17060594
35	0xbe27a3d5	-0.1637109
36	0xbe040b03	-0.12894826
37	0xbe00f39f	-0.12592934
38	0xbe108ccf	-0.14116214
39	0xbdfa216c	-0.12213406
40	0xbe0ab116	-0.13544115
41	0xbe0ea642	-0.1393061
42	0xbe20c570	-0.15700316
43	0xbe39c708	-0.1814233
44	0xbe5265f7	-0.20546709
45	0xbe6944f4	-0.2278021
46	0xbe6a66da	-0.22890797
47	0xbe572dad	-0.21013518
48	0xbe4bf85f	-0.19918965
49	0xbe300b21	-0.17191745
50	0xbe189d13	-0.14903669
51	0xbe20ccb8	-0.15703094
52	0xbe20a135	-0.15686496
53	0xbe356c03	-0.17716984
54	0xbe3b52c8	-0.18293297
55	0xbe45538d	-0.19270153
56	0xbe364e49	-0.17803301
57	0xbe2508c5	-0.16116627
58	0xbe1e6533	-0.15468292
59	0xbe2c9625	-0.1685415
60	0xbe1c0629	-0.15236725
61	0xbe30ce9e	-0.17266318
62	0xbe347d3c	-0.17625898
63	0xbe15ab69	-0.14616169
64	0xbe1f1ef8	-0.15539157
65	0xbe36f3ef	-0.17866491
66	0xbe4855bd	-0.19563957
67	0xbe3c27a2	-0.18374494
68	0xbe3e029d	-0.18555684
69	0xbe423af7	-0.18967806
70	0xbe2500d3	-0.16113596
71	0xbe2feef1	-0.17180993
72	0xbe2311a1	-0.15924694
73	0xbe2e3b48	-0.17014802
74	0xbe38e328	-0.18055403
75	0xbe1feacf	-0.15616916
76	0xbe120638	-0.14260185
77	0xbe0728e1	-0.13199188
78	0xbe1830d8	-0.14862382
79	0xbdfa4359	-0.12219877
80	0xbe136dc2	-0.14397338
81	0xbde92f7f	-0.11386012
82	0xbdf1489f	-0.117814295
83	0xbe04b53c	-0.1295976
84	0xbe168f44	-0.14703089
85	0xbe0ee44f	-0.1395428
86	0xbe1976d8	-0.14986742
87	0xbe12793f	-0.14304064
88	0xbe39d4ed	-0.18147631
89	0xbe45af06	-0.19305047
90	0xbe584e04	-0.2112351
91	0xbe6ca283	-0.23108868
92	0xbe812ef2	-0.2523113
93	0xbe941fa1	-0.2893038
94	0xbead7876	-0.33880967
95	0xbebd86d5	-0.3701693
96	0xbebc4123	-0.36768445
97	0xbedb7abf	-0.42867085
98	0xbc383738	-0.011243634
99	0x3d1708d0	0.03687364
100	0x3d8f8757	0.07008236
101	0x3d1bf2f7	0.038073506
102	0x3d87a6b1	0.06623591
103	0x3d46611d	0.04843246
104	0x3d3d9886	0.046288036
105	0x3d52f864	0.051506415
106	0x3d1cf59f	0.03832018
107	0x3d051ec8	0.03250006
108	0x3c760d7e	0.015017865
109	0x3c8d7709	0.017268674
110	0x3b638e4d	0.003472227
111	0x3cf4f2e3	0.029900974
112	0x3cd6bc5d	0.026212865
113	0x3cc00cac	0.023443542
114	0x3d035973	0.032067727
115	0x3c4c634c	0.012474846
116	0x3ca79677	0.02045749
117	0x3b971d68	0.00461166
118	0x3cb247e5	0.021762798
119	0xbad00f2c	-0.0015873662
120	0x3c1ce11f	0.009575157
121	0x3cf9aa8a	0.030476827
122	0x3bc2e7d5	0.0059480467
123	0x3c145b70	0.0090550035
124	0x3cae7fc0	0.02130115
125	0x3cdab652	0.026698265
126	0x3c3aa5a1	0.011392028
127	0x3cb7627a	0.022385824
128	0xbba0937e	-0.004900395
129	0x3c170ec6	0.009219831
130	0x3c65e831	0.0140324095
131	0xbbe35114	-0.0069371555
132	0x3b3dbce5	0.0028951701
133	0xbcb00107	-0.021484865
134	0xbc7ecfe8	-0.015552498
135	0xbc2a5794	-0.010396857
136	0xbb54536b	-0.0032398354
137	0xbb5c4234	-0.0033608796
138	0xbd00dc11	-0.03145987
139	0xbae2a6b3	-0.0017292112
140	0x3a208830	0.0006123809
141	0xbc1e0315	-0.0096442895
142	0x3b2de639	0.0026534928
143	0x3c8e83c3	0.017396813
144	0xbbe044c2	-0.006844134
145	0x3c8b6c40	0.017019391
146	0xbc316d12	-0.010829227
147	0x3bdfeac5	0.0068334066
148	0xb9de417b	-0.00042391926
149	0x3b9279f3	0.004470104
150	0xbce576a9	-0.028010683
151	0x3aa76729	0.0012771833
152	0x3b3f0fef	0.0029153784
153	0xbc8a6ed6	-0.016898554
154	0x38a8fc2b	8.057834e-05
155	0xbcdb5d46	-0.026777875
156	0xbca0de43	-0.019637233
157	0xbc9afc6a	-0.018919189
158	0xbc0d1ecf	-0.008613302
159	0xbc42973d	-0.011876878
160	0xbd2bcb25	-0.04194178
161	0xbd160b9a	-0.036632158
162	0xbd217f9d	-0.039428342
163	0xbc8e120c	-0.01734259
164	0xbc8cd422	-0.017190997
165	0xbd2bf3eb	-0.041980665
166	0xbc91f69c	-0.017817788
167	0xbcb26198	-0.021775052
168	0xbcf38aa2	-0.029729191
169	0xbcd9f4e8	-0.026606038
170	0xbd182385	-0.03714325
171	0xbd679f6b	-0.056548517
172	0xbd58e14c	-0.052949235
173	0xbd0378c3	-0.03209759
174	0xbd72aa43	-0.059244405
175	0xbd66b9a0	-0.05632937
176	0xbd6b23ab	-0.057407063
177	0xbcec8858	-0.028873608
178	0xbcfc316a	-0.030785281
179	0xbc3568a7	-0.011072314
180	0xbd012872	-0.031532712
181	0xbcbac29b	-0.022797873
182	0x3b54aacb	0.0032450433
183	0x3b6a035f	0.0035707576
184	0xbc1ba0f7	-0.009498826
185	0x3b3cf192	0.002883051
186	0xbcc38769	-0.02386828
187	0xbbb59e1d	-0.00554253
188	0xbc82fc79	-0.015989529
189	0xbc9c3d8d	-0.019072318
190	0xbb57bcd2	-0.0032918942
191	0x3b8b4ffa	0.0042514773
192	0x3bae11fc	0.0053122025
193	0xbc8b0960	-0.016972244
194	0xbc456342	-0.012047591
195	0x3cd9a082	0.026565794
196	0xbf06c442	-0.52643216
197	0xbed193c8	-0.4093306
198	0xbeb37335	-0.35048833
199	0xbe9dacb4	-0.30795825
200	0xbe8a3c8d	-0.26999322
201	0xbe7e368b	-0.24825494
202	0xbe5f7c52	-0.21824768
203	0xbe45756f	-0.19283079
204	0xbe3d30ea	-0.1847569
205	0xbe1fd68f	-0.15609191
206	0xbe2ebb42	-0.1706362
207	0xbe25a12b	-0.16174762
208	0xbe21e879	-0.15811338
209	0xbe1536eb	-0.14571731
210	0xbe11bc37	-0.14231955
211	0xbe374c09	-0.17900099
212	0xbe2f21c4	-0.17102724
213	0xbe43259a	-0.19057313
214	0xbe6b032a	-0.22950426
215	0xbe6c0ed9	-0.23052539
216	0xbe60d990	-0.21957994
217	0xbe50de3c	-0.20397276
218	0xbe585ddc	-0.21129555
219	0xbe6fbfbc	-0.23412985
220	0xbe4d1673	-0.20028095
221	0xbe41c949	-0.1892444
222	0xbe269dc3	-0.16271119
223	0xbe0bf019	-0.13665809
224	0xbe0b715b	-0.1361746
225	0xbe1c44ce	-0.15260622
226	0xbe30cfbb	-0.17266743
227	0xbe383035	-0.1798714
228	0xbe5db040	-0.21649265
229	0xbe5a4aec	-0.21317643
230	0xbe3a134c	-0.18171424
231	0xbe5323f8	-0.2061919
232	0xbe36b51e	-0.17842528
233	0xbe34f4cd	-0.17671509
234	0xbe22388d	-0.15841885
235	0xbe3451d4	-0.1760934
236	0xbe26e89b	-0.1629967
237	0xbe33ce64	-0.175592
238	0xbe58968a	-0.21151176
239	0xbe673623	-0.22579245
240	0xbe7ffcdf	-0.24998806
241	0xbe77250c	-0.24135226
242	0xbe845377	-0.2584493
243	0xbe5906cc	-0.21193999
244	0xbe4bc9bb	-0.19901173
245	0xbe30f0d6	-0.17279372
246	0xbe275364	-0.16340405
247	0xbe255dfc	-0.16149133
248	0xbe15f5b0	-0.14644504
249	0xbe2da45e	-0.16957232
250	0xbe2036a0	-0.15645838
251	0xbe31686c	-0.1732499
252	0xbe2ae0aa	-0.16687265
253	0xbe24b94a	-0.16086307
254	0xbe2fe510	-0.17177224
255	0xbe39569b	-0.18099444

fc1.bias f4 [50]
0	0xbe4fb97a	-0.20285597
1	0x3e65f38c	0.22456187
2	0xbe46717b	-0.19379227
3	0xbe612c9b	-0.21989672
4	0x3e5889c9	0.21146311
5	0xbe63f623	-0.22261862
6	0x3e38795e	0.18015048
7	0x3e547cce	0.20750734
8	0xbe045979	-0.12924756
9	0x3e41e527	0.18935071
10	0x3e45abe1	0.19303848
11	0x3e63fe9f	0.22265099
12	0x3e4b131d	0.1983151
13	0x3e61dc84	0.22056776
14	0xbe557392	-0.20844868
15	0x3e4cd7c0	0.20004177
16	0x3e3f474d	0.18679543
17	0xbe38f78e	-0.18063185
18	0x3e5d175c	0.21590942
19	0x3e57721d	0.21039625
20	0xbe76c537	-0.24098669
21	0xbe4383f3	-0.19093303
22	0xbe3d4a76	-0.18485436
23	0xbe314089	-0.17309774
24	0xbe3a0db9	-0.18169297
25	0x3e50b30c	0.20380801
26	0xbe571496	-0.21003947
27	0x3e6e0bb9	0.2324666
28	0xbe485cf9	-0.19566716
29	0xbe36759d	-0.17818303
30	0x3e5461e1	0.20740463
31	0xbe5b374a	-0.2140781
32	0x3e5abd15	0.21361192
33	0xbe3c83df	-0.1840968
34	0x3ddd6a30	0.10811269
35	0x3e37811d	0.17920347
36	0x3e3c3897	0.18380962
37	0xbe496ea4	-0.19671112
38	0xbe3f74da	-0.18696919
39	0xbe3e33d4	-0.18574458
40	0x3e597bd9	0.2123865
41	0x3e4af087	0.19818316
42	0xbe4b45c0	-0.19850826
43	0xbe509470	-0.20369124
44	0xbe5ae81e	-0.21377608
45	0x3e5c192a	0.21493974
46	0xbe485f6e	-0.19567654
47	0x3e69a0ed	0.22815295
48	0xbe42f9c5	-0.19040592
49	0xbe48e29d	-0.19617696
