Plots_MA/LAYER_influence_real_data_curves/data/D_I_IST_G=1_FULL/feature=D:I_soll_X_GAMMA=1.0_GAMMA_reduction1.0_num_pool=2_[True, True, False, True, True, True]_17_07_2022__06_37_14/best_model/model_fc.pt (torch, 2207 bytes, 4 tensors)

fc2.weight f4 [3, 50]
0	0x3e7760ca	0.24158016
1	0x3e2a1358	0.16608942
2	0xbf5aae35	-0.8542207
3	0x3ccf9aaf	0.025342314
4	0x3e7dbdee	0.24779484
5	0x3e4b0189	0.19824804
6	0xbe51ff89	-0.20507635
7	0x3f1845a7	0.5948128
8	0x3e947358	0.2899425
9	0xbf16dd44	-0.58931375
10	0x3f0337b9	0.512569
11	0xbeb3030e	-0.34963268
12	0x3f353200	0.7077942
13	0x3d571f70	0.052520216
14	0xbcb44676	-0.022006255
15	0x3e4a266a	0.19741216
16	0x3e66a641	0.22524358
17	0xbe98d814	-0.29852355
18	0xbd994457	-0.07483738
19	0x3f160d22	0.5861379
20	0x3eb16405	0.3464662
21	0xbeb2393b	-0.34809288
22	0x3df5e049	0.120056696
23	0x3f1a8a57	0.6036734
24	0xbf057dc5	-0.52145034
25	0xbe3927d3	-0.18081598
26	0x3ed8f2f8	0.4237287
27	0xbe5c4cea	-0.21513715
28	0xbde34724	-0.11097553
29	0xbe64f432	-0.22358778
30	0x3e995dfb	0.29954514
31	0xbeb93767	-0.3617508
32	0x3f2ec08b	0.6826255
33	0x3e36cc6d	0.1785142
34	0x3e4fa694	0.20278388
35	0x3daa4833	0.08314552
36	0x3ebed6f1	0.37273362
37	0x3fc9eae0	1.5774803
38	0xbe994719	-0.29937056
39	0x3e20263a	0.15639582
40	0x3ea11822	0.31463724
41	0xbdeb6454	-0.114937454
42	0x3bbf0672	0.0058296258
43	0x3fbb2425	1.4620405
44	0x3e203002	0.15643314
45	0xbfb4dcee	-1.4129922
46	0x3ef11bff	0.47091672
47	0xbe1cfed2	-0.15331581
48	0x3df71536	0.120645925
49	0xbe370c72	-0.17875841
50	0xbe940927	-0.28913233
51	0x3c9a27cb	0.018817803
52	0x3eb37ef6	0.350578
53	0x3f1da250	0.61575794
54	0x3e50ed22	0.20402959
55	0x3e34e14c	0.17664069
56	0xbdfe6dcc	-0.12423286
57	0xbea552c7	-0.32289717
58	0x3e50c82d	0.20388861
59	0xbeb5a0a1	-0.35474113
60	0x3e96dee9	0.29466942
61	0xbe727a94	-0.23679572
62	0x3d3da400	0.04629898
63	0x3dbeb3ab	0.09311613
64	0x3eb1128c	0.34584463
65	0x3e19d152	0.15021256
66	0x3d6b3728	0.057425648
67	0xbec506ac	-0.38481653
68	0x3d4784e6	0.048710726
69	0xbf0900cc	-0.5351684
70	0x3e855c2c	0.26046884
71	0x3d605b28	0.054774433
72	0x3d74b3fe	0.059741966
73	0x3e5cd7fd	0.21566768
74	0xbe96fbff	-0.29489133
75	0xbce18158	-0.027527496
76	0xbf105b59	-0.56389385
77	0xbdf8bfca	-0.12145956
78	0xbd34c2e7	-0.044131186
79	0x3d0faea2	0.035078652
80	0x3db132d1	0.086522706
81	0xbeb20e2b	-0.34776434
82	0x3e152784	0.14565855
83	0x3d89650b	0.067087255
84	0x3e525eef	0.20544027
85	0xbe61bb44	-0.22044092
86	0x3e829381	0.25503162
87	0xbebea108	-0.37232232
88	0xbe83cdf9	-0.25743082
89	0x3e0a6348	0.13514435
90	0xbd300cc5	-0.042980928
91	0xbe1d4d41	-0.15361501
92	0x3d71fee9	0.059080992
93	0xbeeec9bf	-0.46638295
94	0x3d6d0bc8	0.057872564
95	0x3f54cf44	0.8312876
96	0x3d957ea6	0.07299547
97	0xbcc932af	-0.0245603
98	0x3d4eb59e	0.050466172
99	0xbdfa3d27	-0.12218695
100	0x3c5d9338	0.013523869
101	0xbb1b54ef	-0.0023701747
102	0xbf15747c	-0.58380866
103	0xbec58331	-0.38576654
104	0x3da4f25f	0.08054041
105	0x3bee0102	0.0072633037
106	0xbde05030	-0.109527946
107	0x3e84c48a	0.25931197
108	0xbde411a2	-0.11136176
109	0xbe5f0196	-0.21777949
110	0x3e664abf	0.22489451
111	0xbddc441a	-0.10755177
112	0x3e7fb461	0.24971153
113	0xbdfe98bc	-0.124314755
114	0xbe20f97e	-0.15720174
115	0x3bf1b81b	0.0073766834
116	0x3d327e2e	0.043577366
117	0xbe1f69df	-0.1556773
118	0xbd56cad6	-0.052439533
119	0x3ea98ee1	0.3311682
120	0x3e240bc9	0.1602012
121	0xbe4b5d62	-0.19859841
122	0x3db83025	0.08993558
123	0x3d820294	0.06348148
124	0xbe44de7a	-0.19225493
125	0xbddc60f7	-0.10760682
126	0x3e9dcff0	0.30822706
127	0xbdcd1e2c	-0.100155205
128	0x3d628ff2	0.05531306
129	0xbcdeb5bf	-0.027186273
130	0x3e0dbced	0.138416
131	0xbdbbb5b8	-0.091655195
132	0x3e27c182	0.16382411
133	0x3dbe0a98	0.09279364
134	0x3d8423d6	0.06452148
135	0xbbe53062	-0.006994293
136	0x3cf733ea	0.030176122
137	0x3f2a6c1e	0.66571224
138	0xbd9366d2	-0.07197346
139	0x3d4d2f1f	0.050093766
140	0x3e2b418f	0.16724227
141	0xbdba24a1	-0.09089018
142	0x3d2b326b	0.04179613
143	0x3f32ab84	0.6979296
144	0xbd4a5dc0	-0.049405813
145	0xbf62bc0d	-0.8856819
146	0x3e6098e8	0.21933329
147	0xbd425e95	-0.04745348
148	0x3d9f500e	0.07778941
149	0xbdc209fc	-0.094745606

fc2.bias f4 [3]
0	0xbe9b5cdb	-0.3034428
1	0xbe1e8ba3	-0.15482955
2	0xbd7946da	-0.060858585

fc3.weight f4 [2, 3]
0	0xbf697a17	-0.9120192
1	0x3e2a256b	0.16615836
2	0xbea7088c	-0.32623708
3	0x3f49d779	0.7884441
4	0x3f100888	0.5626302
5	0x3db88860	0.090103865

fc3.bias f4 [2]
0	0x3dc0d49a	0.094155505
1	0x3df2a8c5	0.118485965
