Plots_MA/LAYER_influence_real_data_curves/data/D_I_IST_G=1_FULL/feature=D:I_soll_X_GAMMA=1.0_GAMMA_reduction1.0_num_pool=2_[True, True, False, True, True, True]_17_07_2022__06_37_14/best_model/model_cnn.pt (torch, 762095 bytes, 16 tensors)

conv1.weight f4 [64, 1, 100]
000000 18 83 ac bd 31 da 7a bd 15 85 b2 bd 35 9f b3 bd
       -0.08423442 -0.06124324 -0.0871679 -0.08770601
000010 a5 3d db bd c2 f9 40 be 86 e3 1c be 06 4d 07 be
       -0.10705117 -0.18845275 -0.15321168 -0.13212976
000020 e5 72 ac bd e5 27 db bd 77 bb 2a be 54 89 22 be
       -0.08420352 -0.10700969 -0.16673075 -0.15872699
000030 df 8b 0b be 57 01 cf bc d0 0f 3c bd 1a ab 4b be
       -0.13627575 -0.025269194 -0.045913517 -0.19889489
000040 89 63 2a be 76 39 99 bd 79 da 16 be 7c 06 13 be
       -0.16639532 -0.07481663 -0.14731778 -0.14357942
000050 71 d1 46 be 28 73 f9 bd 7d 61 9c bd c6 a6 bb bc
       -0.19415833 -0.121801674 -0.07635782 -0.022906672
000060 95 65 0e be 76 cc 1a be bb 42 bf bd bb 0f d1 bd
       -0.13905938 -0.15117058 -0.093389 -0.102080785
000070 b5 09 c6 bd 64 81 4f be 2b e2 02 bd 1a 84 df bd
       -0.0966982 -0.20264202 -0.03195397 -0.10913868
000080 fa 9a ef bd 04 b1 0f be cb 47 4b be b0 04 0e be
       -0.11699481 -0.1403237 -0.19851606 -0.13868976
000090 b0 b4 49 be c9 0e 80 bd 67 1e 20 be 20 73 46 be
       -0.19697833 -0.0625282 -0.15636598 -0.19379854
0000a0 44 5e 1b be f1 04 77 bd 06 79 1d be 0e 01 32 be
       -0.15172678 -0.060307447 -0.15378198 -0.17383215
0000b0 b4 b4 0a be 90 6e 75 39 3c 57 14 bd 71 af 83 bd
       -0.13545495 0.00023406208 -0.036216006 -0.06429947
0000c0 b7 f3 e5 bd 1a d3 00 be 95 67 83 bd cb 24 12 bc
       -0.112281255 -0.12580529 -0.06416241 -0.008919905
0000d0 09 41 1d be 67 29 b3 3b 31 b4 14 be cb 0d 0a be
       -0.1535684 0.005467582 -0.14521863 -0.13481824
0000e0 47 b4 0c be 77 fc 4a bb 7d e8 c6 bc b3 dc 7b 3b
       -0.13740645 -0.0030973235 -0.02428078 0.0038431108
0000f0 84 07 b6 bd 5c 5c 8a bd cd ab 38 3d b7 91 b3 3d
       -0.08888152 -0.067558974 0.045085717 0.08768027
000100 59 49 81 bd 19 71 0a 3d 29 8e 0c 3d fb 15 ed 3c
       -0.06312818 0.033799265 0.034315262 0.028941145
000110 a0 97 be 3d be e8 1a bc 99 86 fe 3d 7f 07 47 3d
       0.09306264 -0.009454904 0.12428016 0.048591133
000120 b6 6b 29 3e d8 46 a3 3d 50 76 33 3e 25 6a 2b 3d
       0.16544995 0.07972497 0.17525601 0.041849274
000130 11 48 da 3c 6a a5 64 3e 35 3b be 3d 8e c8 06 3e
       0.026645692 0.22328725 0.092886366 0.13162443
000140 7a aa 56 3e 02 86 6b 3e b2 59 26 3e 01 1b 3f 3d
       0.20963469 0.23000339 0.16245154 0.046656612
000150 01 a2 aa 3d ee b7 5c 3e 50 b2 3e 3e e0 12 56 3e
       0.08331681 0.21554539 0.18622708 0.20905638
000160 77 1a f3 3d 7a 2f 84 3d bc d0 14 3e ea 57 52 3e
       0.11870282 0.06454368 0.14532751 0.20541349
000170 81 14 70 3e c7 dc c9 3d b9 d8 f5 3d 1c e4 81 3e
       0.23445322 0.09856563 0.12004227 0.25369346
000180 4f 03 82 3e 5a fc 8a 3e a1 5a 7c 3e b7 ac 4f 3e
       0.2539315 0.27145654 0.24643947 0.20280729
000190 4e ba 1d 3e db bc a9 3d 3d 7d fa 3d 36 e7 75 3d
       0.15403101 0.082879744 0.122309186 0.060034953
0001a0 d3 a3 64 3e 67 e1 61 3e af d9 52 3e 15 83 13 3e
       0.22328119 0.2205864 0.20590852 0.14405473
0001b0 d7 e2 9e 3d fc be 7f 3e 9c 6c 3e 3e 36 ce 3d 3e
       0.0775811 0.24975199 0.18596119 0.18535694
0001c0 5c 0a 0f 3e 34 94 bf 3d dd 90 35 3e 9d de 19 3e
       0.13968796 0.093544394 0.17731042 0.15026326
0001d0 be 2c 83 3e 82 0d 50 3e d3 be 4c 3e 80 9b 75 3e
       0.25620073 0.20317653 0.19994669 0.239851
0001e0 cb d3 ea 3d ed 50 70 3e 17 99 2b 3e cd 9c 9a 3d
       0.114661776 0.2346837 0.16757618 0.075494386
0001f0 f9 46 6b 3e 2c e2 c8 3d ad 76 68 3e 53 7a 79 3e
       0.22976293 0.09808764 0.22701521 0.24363069
000200 6f 7f 21 3e f1 e9 06 3e b3 78 38 3e de 61 72 3e
       0.15771268 0.13175179 0.18014793 0.23670146
000210 06 ca 59 3e a4 bc 74 3e d8 65 21 3e b9 8f aa 3d
       0.21268472 0.23900086 0.15761507 0.08328194
000220 d0 d5 4d 3e bc ed 25 3e 23 1c 39 3e 16 26 7f 3e
       0.20101094 0.1620397 0.1807714 0.24916872
000230 47 fa 03 3e 8a a8 77 3e f4 90 91 3d 32 14 82 3d
       0.12888442 0.24185386 0.07107726 0.06351508
000240 e0 cc 46 3e a2 a4 4f 3e a0 54 aa 3d 29 da 0d 3e
       0.19414091 0.20277646 0.08316922 0.13852753
000250 5e c1 06 3e 66 9d 19 3e 68 65 ce 3d b0 9b 8b 3c
       0.13159701 0.15001449 0.100779355 0.017042011
000260 7b d4 16 3e 69 eb 51 3c 1e 35 11 3d 45 4a ce 3c
       0.14729492 0.012812474 0.035451047 0.025181899
000270 2c cb 14 3e 35 c9 14 3e 3f 49 25 3d 4d 98 41 3e
       0.14530629 0.1452988 0.040353056 0.18905754
000280 a4 f2 c6 3c 20 07 28 3e 5f f8 08 3e 74 4e 82 3d
       0.024285622 0.16408968 0.13375996 0.0636262
000290 78 3b 27 3e 6e e7 23 3e c9 5b 29 3e a4 0d 80 bb
       0.1633128 0.16006252 0.1653892 -0.003907876
0002a0 1e b6 11 3d 85 73 c3 3a eb f8 1d 3e 86 e3 bd 3d
       0.03557407 0.0014911747 0.15426986 0.09271912
0002b0 3c 15 5f 3c 7d 85 49 3d 1d ef 07 3e 6f 12 20 3e
       0.0136159025 0.04919957 0.13274808 0.15632032
0002c0 d2 78 71 3d e9 31 1a bd 13 32 bb 3b e3 d6 fb 3d
       0.058953114 -0.037645254 0.0057127564 0.12296846
0002d0 75 e2 88 3d ad 78 e8 3d 6f 54 00 3e 65 3c ee 3b
       0.06683818 0.11351142 0.12532209 0.007270383
0002e0 5f 9e cb 3d db 6b e7 3c 44 a4 00 bc 0b 08 12 bd
       0.09942316 0.028249672 -0.007851664 -0.0356522
0002f0 7e e8 53 3d 70 28 5b 3d 8a 40 c1 3d a7 8b ff 3d
       0.051735394 0.05350536 0.09436138 0.124778084
000300 e7 d4 5b bd bc fe b6 3b 0c 67 11 bc 81 f0 91 3d
       -0.053669836 0.005584566 -0.008874666 0.071259506
000310 b0 51 87 3d 18 8a db 3d 30 0e ac 3d 82 a7 a4 3d
       0.066073775 0.10719699 0.084011436 0.08039762
000320 09 3f 0c 3d 67 a3 33 3d 66 5a fa 3c 57 5b 79 3d
       0.034239803 0.043857004 0.030560683 0.060878124
000330 5c 8b 79 3d f3 f9 37 3e c7 92 7a 3d 3d 87 48 3e
       0.06092392 0.17966442 0.061175134 0.1958284
000340 ed 41 47 3e 3b 65 30 3e 05 cc 2c 3e 7b 10 39 3e
       0.19458742 0.17226116 0.16874702 0.18072693
000350 c7 0c 01 3e c0 17 32 3d 94 22 3d 3e 1e 80 3a 3e
       0.1260253 0.04347968 0.18470222 0.18212935
000360 4b c0 35 3e 54 dd 22 3d 9c c3 c6 3d 57 19 32 3e
       0.17749135 0.039761856 0.09705278 0.17392479
000370 cb 25 d9 3d 9f 87 d1 3d d8 68 64 3d f1 c6 22 3e
       0.106029116 0.10230946 0.05576405 0.15896203
000380 66 f0 1c 3e 62 df b2 3d 5b 6f 3b 3e 3f ff 4d 3d
       0.1532608 0.08734013 0.18304197 0.05029225
000390 ac ab 24 3e 2d 88 d5 3d ec 0c 8c 3d 81 77 fe 3d
       0.16081113 0.10426364 0.06838402 0.12425137
0003a0 5c b7 ad 3c 90 19 43 3e bc 80 b3 3d 38 36 69 3d
       0.021205597 0.1905272 0.087647885 0.056936473
0003b0 62 e0 f2 3d 14 eb 29 3e a6 9f 3a 3e 99 53 32 3e
       0.11859204 0.16593581 0.18224964 0.17414702
0003c0 a3 53 b7 3d 54 e0 05 3e 91 f9 4c 3e c7 49 25 3e
       0.08951499 0.13073856 0.20017077 0.16141425
0003d0 ce f1 53 3e bb b5 ff 3d 78 4d 38 3c db da 0b 3e
       0.2069771 0.12485834 0.011248939 0.13657705
0003e0 91 d7 a6 3d c8 d4 fe 3d 7e be 14 3e dd 07 27 3e
       0.08146585 0.124429286 0.14525792 0.16311593
0003f0 ec e2 71 3d 1b d3 00 3d 33 ce 49 3e 06 e0 05 3e
       0.0590543 0.031451326 0.19707565 0.1307374

conv1.bias f4 [64]
000000 06 57 48 bc ca 4d 1d 3e c3 8f 53 3d 40 86 98 bd
       -0.012227779 0.15361705 0.051650774 -0.07447481
000010 23 3b b1 bd ae 0d 25 be 37 27 0f be b1 18 bd bd
       -0.086538576 -0.161185 -0.13979803 -0.09233225
000020 5d 15 91 bd 0c 32 05 be 11 b1 ab bd 29 61 09 3d
       -0.07084153 -0.13007373 -0.08383382 0.033539925
000030 10 8e 22 3d ac b0 5b bd c9 87 35 3e 8f 9c c9 3d
       0.039686263 -0.053635284 0.17727579 0.09844314
000040 d8 79 bf be fe 05 9d be 82 f2 26 3e 18 d4 be bb
       -0.37397647 -0.30668634 0.16303447 -0.0058236234
000050 f3 3d 15 3d 2f 16 be bd 72 a4 9c be 75 86 0b be
       0.036436033 -0.09281575 -0.30594212 -0.1362551
000060 e5 0b 9e bd 87 ec ae be 21 e4 27 3e 6e b0 77 be
       -0.077171125 -0.3416483 0.16395618 -0.24188396
000070 9d 0c f0 3d c8 4e ad 3d 0e af 6c be a9 b1 00 3e
       0.11721156 0.08462292 -0.23113653 0.12567772
000080 0b 3c 9e be 15 12 84 be fa 34 00 be de ab c9 3d
       -0.30905184 -0.25795045 -0.12520209 0.09847234
000090 b5 68 c9 3d 0e 96 d5 3d 64 6f 7d be 6b 4a b4 be
       0.098344244 0.10429011 -0.24749523 -0.35213026
0000a0 18 1a ac bd 12 a1 4e bc 8a c9 c4 bd e3 c3 c0 bd
       -0.084034145 -0.012611644 -0.09608753 -0.094123624
0000b0 d7 de bc 3c a3 b0 61 be 7e e5 f5 3d be 6e 29 be
       0.023055477 -0.22040038 0.12006663 -0.16546151
0000c0 cd 2d 96 3b d6 79 9d 3d ad 1f 1d 3e e7 18 68 be
       0.0045830966 0.07689254 0.15344115 -0.2266575
0000d0 35 f2 07 bf 0c 03 ff 3c 7d da 34 3d 1e 7d 30 3e
       -0.53103954 0.031129383 0.04415368 0.17235228
0000e0 61 13 35 be 2a a8 78 3e 22 55 82 bd 9f 42 83 be
       -0.17683174 0.242829 -0.06363894 -0.25636765
0000f0 48 51 b8 3d c5 be 67 be f4 87 74 be 67 bc 8b be
       0.08999878 -0.22631367 -0.23879987 -0.27292177

conv2.weight f4 [32, 64, 10]
000000 18 d4 a5 3d 21 28 03 3e 0e 5c 14 3e b4 3f c6 3d
       0.08097094 0.12808277 0.14488241 0.09680119
000010 78 76 12 3e 1d 59 d9 3d 0f 2b ea 3d 76 7b a3 3d
       0.14303005 0.106127 0.11433994 0.07982533
000020 61 95 c8 3d 03 4d c5 3d ff c4 7d 3d 8b e2 d6 3d
       0.09794117 0.096338294 0.06195545 0.104924284
000030 4d c8 c1 3d 41 fa a8 3d 59 67 96 3d 73 ee 8a 3d
       0.094620325 0.08250857 0.07343931 0.06783762
000040 da a4 75 3d 9a d8 b8 3d 50 95 15 3d 6a 9e 20 3d
       0.059971668 0.090256885 0.03651935 0.039213575
000050 58 dd 35 3d d3 53 7d 3d 46 a9 6a 3d 22 3f 1e 3d
       0.044400543 0.06184752 0.057290338 0.038634427
000060 18 6b d8 3d a8 83 d7 3d f9 eb 60 3d cc bf 27 3d
       0.105673015 0.10523158 0.05491254 0.040954396
000070 81 8d 8a 3d 5b b7 e0 3d a8 54 bc 3b 3b d9 ea bc
       0.06765271 0.10972472 0.0057473965 -0.028668037
000080 0c 3f 18 bc 66 20 e9 3c 67 90 04 3d fa 28 74 bc
       -0.009292375 0.028457832 0.032364275 -0.014902348
000090 71 99 c1 bc 76 fc 8d bc 7a bb 44 bc ab a8 c7 3c
       -0.023632737 -0.017332297 -0.0120075885 0.02437242
0000a0 76 60 00 3e 5c 77 fa 3d 58 2b 1c 3e 0d 78 f2 3d
       0.12536797 0.12229797 0.1525091 0.11839304
0000b0 e6 c8 46 3e c4 97 14 3e 1c 95 23 3e 66 5b fd 3d
       0.19412574 0.14511019 0.1597485 0.123709485
0000c0 08 f3 08 3e ed 6f 3e 3e c1 32 ba 3d 3c d8 96 3d
       0.13373959 0.18597384 0.09091712 0.07365462
0000d0 53 80 a0 3d 28 b9 a3 3d 7b 37 01 3e 73 99 02 3e
       0.07836976 0.079943 0.1261882 0.12753849
0000e0 85 15 d9 3d 03 97 fa 3d 4d 90 01 3e 84 2e dc 3d
       0.10599808 0.122358344 0.12652703 0.1075106
0000f0 19 5f 54 3e f7 3a 5f 3e d8 0e 78 3e d9 5e 66 3e
       0.20739402 0.21799837 0.24224412 0.22497119
000100 2b 0e 48 3e d4 74 77 3e 55 0a 4b 3e fb 42 5a 3e
       0.19536655 0.2416566 0.1982816 0.21314614
000110 45 05 3d 3e 30 d9 69 3e e7 e3 dc 3d 30 78 dd 3d
       0.18459041 0.22836757 0.107856564 0.108139396
000120 09 b9 54 3d 7a ac 33 3d 0f f5 24 3d 57 33 b0 3d
       0.051934276 0.04386566 0.04027277 0.08603542
000130 fc 32 e5 3d 41 9f 61 3d 8b 03 82 3d e2 a7 84 3d
       0.11191365 0.055083517 0.06348332 0.064773336
000140 d9 bd 48 bd 2d 5d 34 3c cb c9 75 bc a5 34 f2 3b
       -0.049009178 0.011008543 -0.0150017245 0.0073915296
000150 fe 20 11 bd fd 2c 32 bd 36 17 41 bd 1b 4b 7b bd
       -0.035431854 -0.043499935 -0.047141276 -0.061350923
000160 28 4d 7c bd b1 ce 6f 3b cd c6 92 3c b5 3a 4e 3d
       -0.06159702 0.0036591704 0.017917061 0.050348956
000170 b4 93 4d 3d e1 aa da 3b ed 7c 95 bb 73 17 3f bc
       0.05018969 0.0066732024 -0.0045620115 -0.011663306
000180 06 36 fc 3c 47 4e 30 3d 82 af 8c 3c 88 ae 60 bc
       0.03078748 0.0430434 0.017173532 -0.0137134865
000190 29 0b dd 3c 54 e2 0f 3d 02 5a 1e bb b0 25 e3 3b
       0.02698286 0.035127953 -0.0024162536 0.006931983
0001a0 f3 30 91 bb c9 8e 3f bc 85 3e a1 ba 4d 03 e9 3c
       -0.004430884 -0.0116917575 -0.0012301957 0.028443957
0001b0 96 c6 85 3c 21 18 7b bb 6b da 92 3d 40 79 81 3d
       0.016330045 -0.0038313942 0.07170566 0.06321955
0001c0 7c a5 b5 3d 54 6a 46 3d 0d 5a 9b 3d bb 7e f4 3d
       0.08869454 0.048441246 0.07585535 0.119382344
0001d0 e4 c6 58 3d fa 59 8c 3d c1 22 70 3d aa 6b 9b 3d
       0.052924052 0.06853099 0.058626894 0.07588895
0001e0 bf cb 72 bc cf f0 09 bd 95 d2 4b bd 86 38 1a 3c
       -0.014819085 -0.03367692 -0.049761374 0.00941289
0001f0 61 54 b8 bc 50 d1 83 bd 25 cf 46 bd 04 a2 15 bd
       -0.022501172 -0.064364076 -0.048537392 -0.036531463
000200 2a d4 58 bd 69 a6 37 bd 88 a5 6f 3d 5b 87 d9 3c
       -0.05293671 -0.044836435 0.058507472 0.0265538
000210 9c 5f 6f 3d 9f aa a9 3d f1 39 a1 3d 4a 64 a9 3c
       0.05844079 0.082844965 0.078723796 0.020677704
000220 af 1c ed 3c 1c 5b 04 3d 90 50 5a 3d 5c 03 eb 3c
       0.028944341 0.03231345 0.053299487 0.028688125
000230 81 90 a9 3d ad 60 ae 3d 52 25 d8 3d 07 2b be 3d
       0.08279515 0.08514533 0.10553993 0.092855506
000240 d9 3c c8 3d f8 76 a4 3d b6 8a f6 3d 98 0e cc 3d
       0.09777231 0.08030504 0.12038176 0.09963721
000250 f1 a5 09 3e af 84 90 3d c7 bf 2d 3d 0a d2 3d 3d
       0.13442208 0.070565574 0.04241922 0.046342887
000260 b2 cb d6 3d 85 a6 62 3d 5b 4c 4c 3d d5 5a ce 3d
       0.104880705 0.055334587 0.049877506 0.100759186
000270 24 c2 a5 3d b4 75 a2 3d db 51 c0 3d 89 a2 25 3d
       0.0809367 0.07932606 0.09390613 0.04043821
000280 9f 54 d7 3d 98 74 bb 3d c4 84 a5 3d 0f 0d bb 3d
       0.10514187 0.09153098 0.08081964 0.0913335
000290 6a 13 71 3d ee dd 8a 3d 0d 1a 9b 3d 42 98 cb 3d
       0.058856405 0.06780611 0.07573328 0.0994115
0002a0 1f 48 92 3d fd ca 6f 3d 4c 1a 12 3e 43 1a d5 3d
       0.07142662 0.058543194 0.14267844 0.104054
0002b0 07 01 16 3e 15 49 25 3e 8a d2 f4 3d 3a 65 0a 3e
       0.1464883 0.1614116 0.1195422 0.13515177
0002c0 86 08 e5 3d 5b 2f 1b 3e 54 24 f1 3d 02 a7 27 3e
       0.11183266 0.15154783 0.11774507 0.16372302
0002d0 05 f6 08 3e c0 2b db 3d 35 2c dc 3d 21 4f ab 3d
       0.13375099 0.10701704 0.10750619 0.08364702
0002e0 df 6d f0 3d 34 c8 6f 3d 89 9c cc 3d e8 ff fc 3d
       0.11739706 0.058540538 0.09990794 0.12353498
0002f0 43 0e 01 3e 5e ae 93 3d e6 40 91 3d c0 ba 8d 3d
       0.12603097 0.07210992 0.070924565 0.06920385
000300 2f ce fc 3d 9b bb 6e 3d 37 64 ed 3d 0a dc 52 3d
       0.12344014 0.058284383 0.1159138 0.051479377
000310 34 d1 6b 3d d1 08 e4 3d 3a fb b8 3d f1 8e 73 3d
       0.05757256 0.11134494 0.09032293 0.05946249
000320 e0 51 bc 3b c0 8e d4 bc 70 58 8f 3c 1e 86 73 3c
       0.005747065 -0.025946975 0.017498225 0.014863519
000330 74 c9 91 bc 24 33 c5 3c 05 b0 35 bc 07 8c e4 3c
       -0.017796256 0.024072237 -0.01108933 0.027898801
000340 7a ff 11 bd 03 e9 af bc 22 b3 14 3e 39 d4 b7 3d
       -0.035644032 -0.021473413 0.14521459 0.08976025
000350 00 ad c1 3d bc 98 b8 3d 0f 81 0f 3e ae d2 0e 3e
       0.09456825 0.09013507 0.14014076 0.13947555
000360 2a ae f8 3d f5 a9 01 3e cf 78 e6 3d 9e ef f0 3d
       0.12142594 0.1266249 0.11253511 0.11764453
000370 7d 0e 19 3e 8f cc d0 3d 4b 5b e5 3d 62 0a 23 3e
       0.14946933 0.101952665 0.111990534 0.1592193
000380 d0 e8 e5 3d de 06 da 3d a6 31 2f 3e 54 c3 26 3e
       0.11226046 0.10645841 0.17108783 0.1628545
000390 0c e7 1a 3e aa a5 0f 3e 39 16 e5 3d 05 97 a5 3d
       0.151272 0.1402804 0.11185879 0.08085445
0003a0 1c f7 f8 3d 90 de e9 3d d6 3c cd 3d 3b 15 c3 3d
       0.121565074 0.114194036 0.10021369 0.09525534
0003b0 57 86 d7 3d b5 5f d3 3d 9b bf a9 3d 30 43 0f 3e
       0.1052367 0.10320989 0.08288499 0.13990474
0003c0 99 87 2f 3d 71 81 9f 3c 65 c9 95 3d b7 fc 7e 3d
       0.042853925 0.019470902 0.073138036 0.062252726
0003d0 75 a0 38 3d a5 65 f9 3c b2 4b 5a bc 4e e6 a3 3c
       0.0450749 0.030443976 -0.013323711 0.020007279
0003e0 b8 90 fb 3c 29 b6 50 3c ab 9e a1 3d e8 72 be 3d
       0.030708656 0.012738743 0.07891592 0.092992604
0003f0 9f 42 64 3d 5c ec 63 3d 65 af ea 3d a2 cb a3 3d
       0.055727597 0.05564533 0.11459235 0.07997824

conv2.bias f4 [32]
000000 bf 23 35 bd 0f ed 32 3c 4f 80 7f bd 84 41 01 bc
       -0.044223543 0.010920777 -0.062378224 -0.007889155
000010 40 76 86 bb e6 78 e8 bb f4 2d 94 bd 93 41 e1 3b
       -0.004103452 -0.0070944903 -0.07235327 0.006874272
000020 ae fb 7e 3c 0b 28 bc 3c 7f d4 0b 3d 9a aa 84 3c
       0.015562935 0.022968313 0.0341382 0.01619463
000030 11 45 50 bd 3c 7b e5 bc 0b 21 ca 3c bc f8 a4 3c
       -0.050847117 -0.028012864 0.02467396 0.020138137
000040 7a cc 52 ba 6e 10 46 bd 50 06 46 3b a5 20 37 bd
       -0.00080413336 -0.048355512 0.0030216165 -0.044708867
000050 17 5d 55 bd ed 5a 09 3a cd f3 d8 3c 9f e5 19 3a
       -0.05209073 0.0005239684 0.02648344 0.0005870703
000060 b6 ee ec 3c b7 e3 5f bc 1d d3 9e bc 59 f4 88 3d
       0.02892242 -0.013665131 -0.019387776 0.066872306
000070 16 a1 80 bd 8c 07 44 3d e1 82 2d 3d 91 23 68 3d
       -0.06280725 0.04785876 0.042361144 0.056674544

batch1.weight f4 [32]
000000 b6 84 90 3f 14 19 11 3f da 94 2e 3f d6 d2 62 3f
       1.12905 0.5667889 0.6819588 0.8860296
000010 ab 4c 63 3f 8e 20 71 3f d2 35 64 3f ef 1a 91 3f
       0.8878886 0.941903 0.89144623 1.1336344
000020 63 63 33 3f 0f bd 55 3f 6d 6c 89 3f d2 30 1c 3f
       0.7007353 0.83491606 1.0736214 0.61011994
000030 b6 49 93 3f 74 38 61 3f 2e 1d 6b 3f 3f b4 80 3f
       1.150687 0.87976766 0.918414 1.0055007
000040 40 e8 53 3f f0 6a 4c 3f 5d f4 5b 3f 9c 36 42 3f
       0.8277626 0.79850674 0.85919744 0.7586458
000050 fd d6 6d 3f f8 44 55 3f 65 ea 38 3f 1f 43 63 3f
       0.9290617 0.8330836 0.7223266 0.88774294
000060 51 3e 51 3f dc a4 ad 3f ac c5 ab 3f e6 64 89 3f
       0.8173571 1.3565936 1.34197 1.0733917
000070 69 2d 3d 3f 9d b4 88 3f fd 28 56 3f a9 f1 63 3f
       0.73897415 1.0680119 0.83656293 0.8904062

batch1.bias f4 [32]
000000 c8 12 e9 be 20 2a 6f be 9b 22 9c be ff 01 d3 bd
       -0.4552214 -0.23355913 -0.30495152 -0.10303115
000010 4c 60 ab 3a 54 f3 e7 bc 6d a4 3d 3c e3 da 0c bf
       0.0013074963 -0.02831427 0.011574847 -0.55021495
000020 5d 63 b2 be aa 30 61 be 7b 3a e3 be 3a fc d7 be
       -0.34841433 -0.2199122 -0.44380555 -0.4218462
000030 c8 5e d3 be 49 e1 b2 3c 50 c0 7d be 4a c0 e8 bd
       -0.4128325 0.02183594 -0.24780393 -0.11364801
000040 80 9e c2 be 02 50 a9 be bf 1e 72 ba c8 e8 8f be
       -0.3801155 -0.33068854 -0.0009236149 -0.28107285
000050 1a 87 b2 3d d3 db c1 bd 8d cf bf be 18 87 9d bc
       0.08717175 -0.09465756 -0.37463036 -0.019229457
000060 d6 f7 64 be d3 c0 e3 be cb 30 c7 be 34 ad f8 be
       -0.22360167 -0.4448305 -0.38904414 -0.48569643
000070 2d 2f 74 be 79 60 f4 be ed 0e a9 bd 71 87 bb be
       -0.23846121 -0.47729853 -0.082548 -0.3662677

batch1.running_mean f4 [32]
000000 31 d5 76 43 c7 c1 e3 c2 5c cb a3 42 29 13 d6 c2
       246.83278 -113.87847 81.89719 -107.03742
000010 52 9d 1c c3 5a 36 de c2 fa 7d 3f c3 ee 03 85 43
       -156.61453 -111.106155 -191.4921 266.0307
000020 ef 52 a8 42 3c 2b aa c2 3f d4 87 43 59 d5 fd c1
       84.16198 -85.08444 271.65817 -31.729174
000030 a8 6b a8 43 c6 51 82 c3 d4 f7 fa c2 fe d6 be c2
       336.84106 -260.63885 -125.48404 -95.41991
000040 de 07 56 42 1e a4 ae c1 6c f2 1f c3 25 21 01 43
       53.507683 -21.830135 -159.94696 129.12947
000050 9b ae 1e c3 76 a9 51 c3 9e a2 9b c1 c0 f1 6b c3
       -158.68205 -209.66196 -19.454403 -235.94434
000060 f7 69 5b c3 d6 c4 8a 43 c7 fe a2 43 1b 31 31 43
       -219.41393 277.53778 325.99045 177.19182
000070 bc b9 13 c2 87 07 31 43 ac 73 b7 c2 70 46 5a 42
       -36.93138 177.0294 -91.72592 54.568787

batch1.running_var f4 [32]
000000 78 03 36 47 45 00 18 46 88 15 bd 45 5c 86 fd 45
       46595.47 9728.067 6050.6914 8112.795
000010 50 87 83 46 38 58 06 46 48 37 c1 46 da ef 41 47
       16835.656 8598.055 24731.64 49647.85
000020 88 76 d3 45 13 2f a9 45 92 14 6e 47 93 9f b2 45
       6766.8164 5413.8843 60948.57 5715.947
000030 6b ae a8 47 54 01 33 47 42 a9 47 46 cd b6 c9 45
       86364.836 45825.33 12778.314 6454.85
000040 23 15 b9 46 44 0e 21 46 9f e7 88 46 6e ca 64 46
       23690.568 10307.566 17523.81 14642.607
000050 80 6e 87 46 9c a4 e7 46 52 2a a3 46 8f 63 14 47
       17335.25 29650.305 20885.16 37987.56
000060 37 8d 0d 47 76 43 4b 47 fc 01 94 47 ac e5 b8 46
       36237.215 52035.46 75779.97 23666.836
000070 63 02 9d 45 07 45 14 47 a2 39 bc 45 cf bd bf 46
       5024.2983 37957.027 6023.204 24542.904

conv3.weight f4 [32, 32, 5]
000000 64 04 47 be 98 3f 30 be 0e fb 83 be 39 04 d8 bd
       -0.19435269 -0.17211759 -0.25777477 -0.105476804
000010 80 65 2a be 51 1f 81 bd 42 84 fd bd 0a df cc bd
       -0.16640282 -0.06304801 -0.12378742 -0.10003479
000020 32 08 40 bd 00 ea 85 bd 19 2c 50 3d 08 23 a3 3d
       -0.046882816 -0.065387726 0.050823305 0.07965666
000030 29 b8 d8 3d 66 12 a6 3d ac f6 d6 3d bc cf 09 3e
       0.10582001 0.08108978 0.10496268 0.1345815
000040 88 d0 4e 3d 3d 29 4a ba 1c c7 50 3d 43 2a 4c bd
       0.05049184 -0.00077118335 0.050971135 -0.04984499
000050 d6 1b 0e 3d 44 12 1f bd d7 4f 30 3c 08 ed 91 bd
       0.034694515 -0.03883578 0.010761223 -0.07125288
000060 d8 58 1b 3c 48 46 d4 3c 91 81 fb bc df 33 29 bd
       0.009481631 0.025912419 -0.03070143 -0.041309234
000070 f9 c8 4e 3d bf fd 66 bd c6 b1 27 3e 9a a6 ae 3d
       0.05048463 -0.056394335 0.16376409 0.085278705
000080 ba 1b d2 3d 42 fb 0f 3e 4f 45 32 3d 6d 2a fa bd
       0.10259195 0.14060691 0.04352313 -0.12215123
000090 bb 30 37 be ce f7 1f be d8 70 d4 bd e0 5c c6 bd
       -0.17889683 -0.15621874 -0.10373086 -0.09685683
0000a0 0d fc e8 3c 55 45 6d 3d cd 43 6d 3d f7 80 e0 3d
       0.0284405 0.05792745 0.057925988 0.10962098
0000b0 10 63 d6 3d 0f 63 0b 3e c3 7c 08 3d 3c 52 e6 3b
       0.104681134 0.13612007 0.033322107 0.007028846
0000c0 6d cc 5a bd 85 86 9b bd 98 37 6a be 87 0d 54 be
       -0.053417612 -0.07594017 -0.2287277 -0.20708285
0000d0 09 3c 7e be d2 47 28 be 06 74 69 be 68 d1 48 be
       -0.24827589 -0.16433647 -0.22798166 -0.19611132
0000e0 87 8e 58 be 0b 5e 00 be 37 61 3c be ed f1 4a be
       -0.2114812 -0.12535875 -0.1839646 -0.1981885
0000f0 9a df 42 be 33 70 b5 bd 06 43 6f bd 6b 94 41 be
       -0.1903061 -0.08859291 -0.058413528 -0.18904273
000100 10 ce 2e be e1 ab 1a 3e 94 02 c2 bc b1 20 25 3d
       -0.17070794 0.15104629 -0.02368287 0.04031438
000110 8f e2 a9 3b 9e 45 92 3c 71 c8 70 3d bb b6 f7 3d
       0.0051844786 0.017855462 0.058784906 0.120954
000120 b0 aa 19 3e ad c7 7b 3d b7 95 cd 3c 9c b4 91 bd
       0.15006518 0.061469723 0.025095804 -0.07114527
000130 cc d5 c3 bb 90 c8 22 bc ab ad c3 bc 6b c7 2d bd
       -0.0059764143 -0.009935513 -0.023886522 -0.042426508
000140 96 0c ba bc 92 d5 b5 bc 02 48 e3 3c a9 14 03 3d
       -0.02271108 -0.022196565 0.027744297 0.032002125
000150 87 d8 88 3c 67 dd b8 be 5c 43 b0 be 2f 9c 94 be
       0.01670481 -0.36106417 -0.3442639 -0.2902541
000160 94 da 80 be f8 45 6b be 24 3c 01 3e c1 79 31 3d
       -0.25166762 -0.2297591 0.12620598 0.043329004
000170 00 18 1d 3d 2c 26 95 bd 22 5e ab bd 25 79 9c 3d
       0.038352966 -0.07282671 -0.08367564 0.07640294
000180 9f 66 13 3d 7d 0c 73 3d aa 1a 7f 3d 62 af 19 3c
       0.03598654 0.05933808 0.06228129 0.009380193
000190 f1 f0 bb 3d 54 95 19 3e 94 f1 b4 3c 92 fe 82 3d
       0.09176815 0.1499837 0.02208785 0.06396212
0001a0 d3 22 27 bd 3d 37 b3 3c f7 84 6b 3c 57 6b fa bc
       -0.040804695 0.021876926 0.014374963 -0.030568762
0001b0 6c 0d e3 bc 24 49 83 bd a5 35 b9 be 35 cb c2 be
       -0.027716361 -0.06410435 -0.3617374 -0.3804566
0001c0 74 10 ac be a2 67 ae be 0a 0b a4 be ab 33 b3 3d
       -0.33606303 -0.3406344 -0.32039672 0.08750089
0001d0 89 fc cd 3d 35 39 85 3d 88 32 25 3d 6a c4 aa 3c
       0.10057933 0.06505052 0.040331393 0.02084561
0001e0 b7 79 aa 3c ab 88 c9 3d 42 96 07 3d 73 e5 a7 bc
       0.020809991 0.098405205 0.03310228 -0.020495152
0001f0 d0 3c b3 3c 1f fc 38 be c0 91 73 be 40 6b 7a be
       0.021879584 -0.18064927 -0.23786068 -0.24454975
000200 9b 24 85 be 32 cb 50 be e0 7b 55 be e9 97 5a be
       -0.2600449 -0.20390013 -0.20848036 -0.21347012
000210 0f 7e 79 be 72 bf 8b be 3e 6b 8c be b1 e6 1e be
       -0.24364494 -0.272945 -0.2742557 -0.1551769
000220 64 49 18 be ee 88 e4 bd 14 f2 16 be 8a 93 71 be
       -0.14871746 -0.1115893 -0.14740783 -0.23591438
000230 74 f6 55 be 82 0a f7 bd 07 5f 3e be a5 04 f6 bd
       -0.20894796 -0.12062551 -0.18590938 -0.120126046
000240 70 ed 7c be 17 ad 82 be f2 6b 34 be 53 33 84 be
       -0.2469995 -0.25522682 -0.17619303 -0.25820407
000250 aa 29 37 be bf 86 88 be 9e a4 e5 3d c6 ff 68 3d
       -0.17886987 -0.26665303 0.11213039 0.05688455
000260 d5 ac 71 3d af 4a 67 3d 97 33 6b bc c0 de b3 bd
       0.059002716 0.05646771 -0.014355562 -0.087827206
000270 eb 9e 90 3d ea 5d 6b 3d c4 27 41 3a 2d 48 c6 3c
       0.07061561 0.05746261 0.0007368291 0.024204338
000280 71 12 bd 3d ad ab 6a 3d 0b 8d ba 3d 0c d9 f5 3c
       0.09232033 0.05729263 0.09108933 0.030010723
000290 e5 14 de 3d 64 fe 0c bd c2 10 8b ba 9b f3 0c 3d
       0.10843829 -0.034422293 -0.0010609853 0.034412008
0002a0 95 31 ce 3c e0 05 3c 3d 28 0b e8 bc 2c 3a c4 3d
       0.025170127 0.04590404 -0.028325632 0.09581408
0002b0 69 82 d9 3d f1 26 af bc 07 c7 a7 3d 60 ac 56 be
       0.10620577 -0.021380873 0.08192258 -0.20964193
0002c0 b1 11 73 be 2b 93 22 be bd 1e 66 be a4 b0 2a be
       -0.23737217 -0.15876453 -0.22472663 -0.16668946
0002d0 2b a4 3a be 01 95 67 be e2 2f 89 be 82 f4 42 be
       -0.18226688 -0.22615434 -0.26794344 -0.19038585
0002e0 43 b5 19 be d3 65 87 be 61 5b 4a be 9b 63 2e be
       -0.15010552 -0.26444873 -0.19761421 -0.17030184
0002f0 13 fe 2d be 84 e0 f6 bd cd 2d 3c be 72 7f 2c be
       -0.16991453 -0.12054542 -0.18376847 -0.16845492
000300 13 f6 34 be 07 c7 79 be 08 27 53 be 7e be cb 3d
       -0.17671995 -0.24392329 -0.20620358 0.09948443
000310 f0 bd 96 3d b4 20 92 3c f3 56 59 3c e2 a5 c7 3d
       0.073604465 0.01783786 0.013265359 0.097484365
000320 3e bc af bc 3a 00 00 3d e5 ca db 3d d9 c1 0b 3d
       -0.021452066 0.031250216 0.107320584 0.034120414
000330 24 0f d2 bc 25 77 88 be 1b 65 87 be 03 8a 2c be
       -0.025641985 -0.266534 -0.26444325 -0.16849522
000340 fd 86 89 be 23 2f 13 be b7 f8 12 3d 6d 53 73 3d
       -0.268608 -0.1437345 0.035881724 0.059405733
000350 2b 7a 17 3e 21 2d c0 3d 71 12 23 3e 92 b1 10 bd
       0.14792697 0.09383608 0.15925004 -0.035325594
000360 0c 3f f7 3d f6 21 7d 3d c9 d7 1a bc 4d ee 4c 3d
       0.12072572 0.061799966 -0.009450861 0.05003195
000370 3b 16 21 3e b4 6a a0 3d bb 0a d8 3d 6b 9e 1b 3e
       0.15731137 0.07832852 0.10548922 0.1519715
000380 b3 ab d5 3d 5a bd 61 be ff 50 99 be 10 c6 52 be
       0.1043314 -0.22044888 -0.29944608 -0.20583367
000390 94 bc 57 be 81 f3 28 be 0d 9e 0c be 81 2a 24 be
       -0.2106803 -0.1649914 -0.13732167 -0.16031839
0003a0 2c cb d9 bd 92 fd 19 be 1f 0d a7 bd 01 3c 56 be
       -0.10634455 -0.15038136 -0.081567995 -0.20921327
0003b0 9c 9a a0 be 0d 4c 34 be 0f 4a 80 be 82 35 31 be
       -0.31367958 -0.17607136 -0.25056502 -0.17305568
0003c0 8f a1 0e 3e 4c 80 01 3e 78 d8 57 3d bd 1c ef 3d
       0.13928817 0.12646598 0.052696675 0.11675403
0003d0 c2 66 14 3e 57 9b 83 ba 23 62 b1 3d 84 2a 89 bc
       0.14492324 -0.0010040802 0.08661296 -0.016743906
0003e0 f4 34 de 3d 26 29 f1 3d 61 ad 62 be 9c da 45 be
       0.10849944 0.117754266 -0.22136451 -0.19321674
0003f0 69 90 40 be 93 4a 60 be b2 b6 6a be b2 7b fe 3d
       -0.18805088 -0.21903448 -0.22921255 0.12425937

conv3.bias f4 [32]
000000 c2 10 9d 3c 7b 64 98 3d 66 3b 2f 3c ab 01 a8 3d
       0.01917303 0.0744104 0.010695314 0.08203443
000010 ea c7 8e 3d 9c cc ae 3d 1f 70 bc 3d 03 66 cc bc
       0.06971724 0.0853512 0.09201073 -0.024950987
000020 2c c3 56 bd 70 3f 14 3d 52 5c 8f 3d 2f 13 05 3c
       -0.052432224 0.03619331 0.070000306 0.0081222495
000030 a3 0c 2c bc b4 4b 9d 3d a3 20 18 3d c4 ce 56 3c
       -0.01050106 0.07680455 0.0371405 0.01311082
000040 f3 c0 96 3c 10 ad 09 bd 08 5c dc bc cf a2 94 bd
       0.018402552 -0.03361231 -0.026899353 -0.07257616
000050 4d 46 94 3d 44 ff a0 3d 25 4c 81 3c 98 55 79 3d
       0.07239971 0.07861188 0.015783379 0.060872644
000060 c1 84 3c 3d fb fe 46 3d 48 39 a7 3c 15 1c d5 3c
       0.04602504 0.048583012 0.020413056 0.026014367
000070 11 8e 7a 3c 01 3f ec bc 03 2a d9 bc 91 55 67 3d
       0.01529266 -0.028838636 -0.02650929 0.056478087

batch2.weight f4 [32]
000000 7d f0 02 3f ca ca 8a 3f a6 ff 32 3f a5 83 a0 3f
       0.51148206 1.0843136 0.6992134 1.2540175
000010 08 61 86 3f 03 af 7a 3f f2 3f 3b 3f ba c0 70 3f
       1.0498362 0.97923297 0.7314445 0.9404408
000020 34 ab 0c 3f cc bc 48 3f 26 51 83 3f d5 53 48 3f
       0.54948735 0.7841308 1.025914 0.7825292
000030 ec 96 90 3f 3d 9f 86 3f 49 d2 91 3f 21 a9 8d 3f
       1.1296058 1.0517346 1.1392299 1.1067239
000040 55 a9 54 3f b5 d2 10 3f bf 65 99 3f 4f ad 6e 3f
       0.8307088 0.56571513 1.1984175 0.932332
000050 de 22 0f 3f a6 6e 9b 3f 5f 3b 93 3f da a6 39 3f
       0.5591258 1.2143142 1.1502494 0.7252022
000060 fa c0 63 3f c7 d1 79 3f aa b7 1b 3f 31 38 28 3f
       0.88966334 0.9758572 0.60827124 0.6571074
000070 14 9a a6 3f be fc a4 3f 3e 10 b8 3f 90 c5 4a 3f
       1.3015771 1.2889631 1.4379957 0.79207706

batch2.bias f4 [32]
000000 49 64 de be 12 68 13 3e cf ea 45 be 49 fc ae 3d
       -0.43435887 0.14395168 -0.19327854 0.08544213
000010 43 5e 86 be 4b ae b7 bd 05 b2 3f bd 0b fa 01 bc
       -0.2624379 -0.089687906 -0.046800632 -0.00793315
000020 57 45 a0 be 02 59 3c be 02 a7 57 3e 15 d6 fc bd
       -0.31302902 -0.18393329 0.21059802 -0.123455204
000030 54 dc 6d 3e 37 6f c7 3d 93 af 34 3e bb c0 83 3e
       0.2322858 0.097380094 0.17645101 0.2573298
000040 f2 b4 11 be c3 01 ce be 54 97 12 bd 31 c2 88 3d
       -0.14229181 -0.4023572 -0.03578885 0.06677664
000050 fa 7b 92 be 3a c6 bd 3e 4f 66 92 3e b0 ee 71 be
       -0.28610212 0.37065297 0.2859368 -0.23626208
000060 a0 09 6c bd 79 18 2a 3e a7 ef 89 be 42 c7 64 be
       -0.057626367 0.16610898 -0.26940653 -0.22341636
000070 17 4c cc 3e 4f 37 13 be d8 86 1f 3f 68 45 0d be
       0.39901802 -0.14376567 0.6231513 -0.13796008

batch2.running_mean f4 [32]
000000 8a 54 16 c0 ad b5 4c c0 53 23 92 c0 18 40 f1 40
       -2.3489099 -3.1985886 -4.566812 7.539074
000010 a0 a0 cd 40 c0 5d a4 40 c0 6f d4 c0 4b 42 c6 bf
       6.4258575 5.136444 -6.6386414 -1.5488981
000020 c3 d6 e1 c0 8c 09 9f c0 82 34 ba c0 40 a9 9a c0
       -7.057466 -4.9699154 -5.8189096 -4.8331604
000030 96 67 8b c0 e6 1f 76 c0 b7 4b fe c0 0f 43 80 c0
       -4.356395 -3.845697 -7.9467425 -4.008186
000040 7a 00 62 c0 90 72 b9 bf 3a e8 01 41 9d 9e 8c c0
       -3.531279 -1.4488087 8.119196 -4.394362
000050 dc 19 42 3e 86 2e 87 c0 95 50 ac c0 c1 f4 ef c0
       0.18955177 -4.224429 -5.3848367 -7.498627
000060 b3 22 55 c0 11 7c 3e c0 49 bc c6 3f 41 c4 00 c0
       -3.3302429 -2.9763224 1.552621 -2.0119784
000070 61 8e 81 40 10 aa b4 40 32 0c bd be f1 1f 87 c0
       4.04863 5.6457596 -0.36923367 -4.222649

batch2.running_var f4 [32]
000000 7e 8d d0 41 36 de 51 42 42 0f 48 42 32 63 5d 42
       26.069088 52.467003 50.0149 55.34687
000010 66 6a 9f 41 fd c9 91 41 ea 2b e9 41 96 0d 6d 42
       19.926952 18.223627 29.146442 59.263268
000020 e0 e3 84 41 33 0d 5c 41 0c cc ba 42 3d 0c ad 41
       16.611267 13.753222 93.39853 21.630976
000030 cf 49 5c 42 01 c4 05 42 76 42 7d 41 d8 a3 ba 41
       55.07208 33.44141 15.828726 23.330002
000040 36 d9 a5 41 7e f6 88 41 0a 5e 0d 42 1f e2 07 42
       20.73106 17.120358 35.341835 33.97082
000050 47 73 f7 41 16 56 4a 42 24 6a 69 42 73 d4 c1 41
       30.931288 50.58407 58.353653 24.228735
000060 b9 24 b3 41 df 06 f9 41 db 23 32 42 09 3a 71 41
       22.392931 31.128355 44.535015 15.076669
000070 8c 7b 19 42 0b 4e 07 42 fb 37 46 42 5e e3 9c 41
       38.37065 33.826214 49.55467 19.61102

fc1.weight f4 [50, 3136]
000000 98 f3 ae bd b4 2b cc bd 2b d1 c9 bd c8 ca b0 bd
       -0.085425556 -0.09969273 -0.09854349 -0.086324275
000010 c3 2d 87 bd 25 82 5f bd f3 4c b9 bc ae 16 9b bc
       -0.06600525 -0.054567475 -0.0226197 -0.018931713
000020 6d fd 91 3c a0 cb 08 bc 4b 58 be 3c b3 2c a3 3b
       0.017821038 -0.008349329 0.02323546 0.004979694
000030 6a 88 64 bc ca 1b e2 bc ae 72 3d bd 8d 5b 1c bd
       -0.013948539 -0.027601141 -0.046251945 -0.038173247
000040 e7 be e1 bc 74 12 5a bd 4d e5 f5 bc 91 35 23 bd
       -0.02755685 -0.053240255 -0.030016566 -0.039846007
000050 ec d9 2c bd a4 c2 9b bb 1b 7d 80 bc e6 9e 93 bc
       -0.042200014 -0.0047534276 -0.015684655 -0.018020105
000060 ae c7 e8 bc a7 2a 15 bd fe 22 69 bb 47 56 b9 bb
       -0.028415527 -0.03641763 -0.0035573835 -0.005656037
000070 4b bb ef b9 bb 14 6a bc d8 73 a0 bb 7b 83 13 bc
       -0.00045725176 -0.014287169 -0.004896622 -0.009003515
000080 03 cf b1 3b 53 e9 a5 3c 28 ee f9 bb cb bc 74 bc
       0.005426289 0.02025286 -0.0076272674 -0.01493759
000090 83 03 c1 3b 68 a3 87 ba ab f1 90 bc 8a f3 08 3b
       0.005890311 -0.0010348381 -0.017693361 0.0020897114
0000a0 31 aa 0f 3b 58 58 a0 3c 89 08 26 3c ae d5 a1 3c
       0.002192151 0.019573376 0.010133871 0.01975521
0000b0 03 d4 a4 3c 41 b1 ae 3a ee 3e 8d bb a0 aa 06 3b
       0.020120626 0.0013327972 -0.0043104803 0.0020548478
0000c0 3d 71 0b bc ac 55 26 3c f5 a1 f2 3c fb 85 e5 3c
       -0.008510885 0.010152262 0.029618243 0.028017988
0000d0 d9 63 16 3d b4 62 09 3d 0c f5 23 3d 0d f3 15 3d
       0.036716316 0.033541396 0.040028617 0.036608744
0000e0 ec f9 32 3d 49 be 4e 3d 56 17 38 3d f9 56 91 3c
       0.043695375 0.05047444 0.04494413 0.017741667
0000f0 8a d6 98 3c 46 f0 8f bc 2e 18 f2 bc 1a 07 c3 bb
       0.018656988 -0.017570626 -0.029552545 -0.0059517743
000100 64 71 b1 bc 59 82 1d bd 89 0e 36 bd 34 da eb bc
       -0.021660514 -0.038454387 -0.044447456 -0.02879057
000110 78 49 12 bd 11 8e 2b bd 66 4b 74 bc a6 d2 bf bc
       -0.035714597 -0.041883532 -0.0149105545 -0.023415875
000120 0a 4b 7b ba a6 ec de ba b4 d3 94 bb 80 e6 e4 3c
       -0.0009586072 -0.0017007783 -0.0045418385 0.027941942
000130 b9 9c 07 3d 5d 1d 19 3d 58 26 bb 3c f5 00 49 3d
       0.033108447 0.03738152 0.022845432 0.04907318
000140 b1 84 10 3d 61 a9 88 3d 38 45 8c 3d 5b 4b 7e 3d
       0.035282794 0.066729315 0.0684914 0.062083583
000150 0d a9 3d 3d cb a8 6e 3d e5 22 61 3d fc 21 7c 3d
       0.046303798 0.058266442 0.05496492 0.061555848
000160 4b 27 32 3d 79 8e 5f 3d 12 4b 54 3d b4 6d 37 3d
       0.043494504 0.054579232 0.051829405 0.044782355
000170 97 e6 3d 3d 33 f6 06 3d c4 3d 41 3c 67 aa c9 3b
       0.046362486 0.032949638 0.011794511 0.0061543467
000180 bd 18 a4 3c 02 b1 16 bc 45 b0 9a 3d ce e6 6f 3d
       0.020031327 -0.009197475 0.07553152 0.058569722
000190 d1 ee 52 3d 70 85 6a ba 70 4c 05 3c a4 ca dc bc
       0.051497284 -0.00089462753 0.0081359 -0.026952095
0001a0 0d ca 1b bd 8f 5e 18 bd 53 db 46 bd 92 4b 2e bd
       -0.038034488 -0.037199553 -0.048549008 -0.04255254
0001b0 11 75 36 bd b5 0b 62 bc c8 11 3c ba 32 21 5e 3d
       -0.044545237 -0.0137967365 -0.00071742805 0.054230876
0001c0 08 9d 91 3d 47 09 a1 3d 9c 45 a1 3d da 79 62 3d
       0.071100295 0.07863098 0.07874605 0.055291988
0001d0 fe d4 5e 3d 92 33 e1 3c 28 09 ff 3c 00 dd 18 bb
       0.054402344 0.027490411 0.031132296 -0.0023325086
0001e0 8f f4 11 bc 4d ae 49 bc d7 a9 60 bd 60 e8 8a bd
       -0.008908405 -0.012309623 -0.054849472 -0.06782603
0001f0 81 c8 7c bd a5 2e 4f bd af 69 59 bd c9 f2 b8 bc
       -0.061714653 -0.050581593 -0.053079303 -0.022576706
000200 0f 63 f8 bc 06 95 0c bb e8 2b b0 3b 7b 0f 81 3a
       -0.030320672 -0.002145113 0.005376328 0.0009846532
000210 63 2d a3 3c 01 2a 2f 3c 10 6c 13 3d 50 6e 42 3d
       0.019919103 0.010691167 0.03599173 0.047468483
000220 39 7c 6f 3d 74 d6 85 3d b9 9c 1e 3d 47 25 7b 3d
       0.058468077 0.06535044 0.03872368 0.061314847
000230 c9 74 83 3d 28 ec 1c 3d 8a 82 ef 3c 32 3a 22 3d
       0.064187594 0.038311154 0.02923705 0.03960628
000240 b6 d3 25 3c ee 45 aa 3c 13 13 16 bc 28 61 6e 3c
       0.010121277 0.020785298 -0.009159821 0.014549531
000250 60 ed 97 3b d1 4b bc 3b b0 8d fd bc 91 aa 39 ba
       0.0046364516 0.0057463427 -0.03095135 -0.00070826063
000260 90 b0 c7 ba be b3 ea bc 2a 44 a6 bc 00 08 27 bd
       -0.0015235115 -0.02865016 -0.020296175 -0.040779114
000270 53 e7 ef bc 33 41 e6 bc af 79 35 bc b0 17 2d bc
       -0.029285109 -0.028107261 -0.011076375 -0.01056473
000280 47 20 06 bd 30 68 89 bc 44 e3 2a bc 26 e7 8a 3c
       -0.032745626 -0.016773313 -0.010430161 0.016955923
000290 74 eb 45 3c c0 44 e3 bc 4b 20 bc bb 6e 05 6e bc
       0.012080062 -0.027742743 -0.0057411543 -0.014527662
0002a0 f3 d8 d6 bc 9e 7b 05 bd 0e 38 4f bd 96 09 8a bd
       -0.026226496 -0.032588594 -0.050590567 -0.067401096
0002b0 b1 88 5c bd 52 be a2 bc 82 8e d2 bc 58 8e d8 3b
       -0.053841297 -0.019866142 -0.025702719 0.0066087656
0002c0 68 9b b2 3c 68 71 3c 3d 33 d9 d8 3c 78 02 d4 3c
       0.02180262 0.04600659 0.026470756 0.025880083
0002d0 a0 62 8c bc 7c e7 d8 bc d0 48 01 bc ff aa 40 bc
       -0.017136872 -0.026477568 -0.007890895 -0.011759519
0002e0 d9 ca 22 bd a4 e3 47 bd f7 15 d0 bd 9b cc bc bd
       -0.03974423 -0.04880108 -0.101604395 -0.09218713
0002f0 69 3f a3 bd 3e 60 44 bd 9b 8e c7 3b 04 4a 35 3d
       -0.07971079 -0.047943346 0.006089998 0.04426004
000300 2b 73 90 3d 27 e0 6d 3d 6e f1 a0 3d d0 7e 63 3d
       0.070532165 0.058075096 0.07858549 0.05554086
000310 71 e6 d3 3d 33 2c c6 3d 75 87 8f 3d dd f0 59 3d
       0.103466876 0.09676399 0.07008258 0.05320822
000320 6f 0c 21 3d 1d 60 8b 3c f7 69 8b 3c f7 18 13 3c
       0.0393185 0.017013604 0.017018301 0.00897812
000330 5a c9 8b bb f4 44 92 3c 9a b3 03 3c 28 cf 95 3c
       -0.0042659463 0.017855145 0.008038426 0.018287256
000340 89 21 65 3c 85 29 e5 3c b8 4d 26 3d e3 7e 0f 3c
       0.013985046 0.0279739 0.040601462 0.0087582795
000350 4a 18 df 3c ed 33 db 3c b4 61 80 bc 81 1a cc bc
       0.027233262 0.026758159 -0.015671588 -0.024914982
000360 06 31 eb bc c2 59 aa bc b9 bc fc bc 14 b4 6c bd
       -0.0287099 -0.020794753 -0.030851709 -0.057788923
000370 83 c4 2e bd 79 9c 51 bd d7 72 2b bd b0 c5 b5 bc
       -0.042667877 -0.051174615 -0.041857567 -0.022188991
000380 46 6b 84 bc 4a ea 1b bc 37 3c 4b bb 9e fc 95 3b
       -0.016164433 -0.009516308 -0.0031011233 0.0045772335
000390 60 8d a9 bc 86 db 71 bc 26 0f 5b 3c 36 21 68 bc
       -0.020697296 -0.014761811 0.013370311 -0.014168074
0003a0 a9 30 99 3c 0d dc a5 3c 8a 98 23 3d fb a3 fa 3c
       0.01869996 0.02024653 0.039940394 0.03059577
0003b0 90 7c 75 3d 40 5f 88 3d d8 bb 25 3d c9 d9 2c 3d
       0.059933245 0.066587925 0.040462345 0.042199884
0003c0 fd 68 a5 3c 12 02 f3 3c b3 e9 10 bc 6f ee 99 3b
       0.020191664 0.029664073 -0.008844781 0.004697613
0003d0 29 be 44 bc 7c c8 21 3c f2 c6 9a 3c d2 60 f9 3b
       -0.012008228 0.009874459 0.018893693 0.007610419
0003e0 20 21 67 3c e8 45 d8 3b ca 8f e6 3c 68 a9 a6 3c
       0.014107019 0.0066001303 0.028144736 0.020344451
0003f0 9a a6 e7 3c 30 af ef 3c 1c b4 5a 3c 33 41 7b 3c
       0.028277684 0.02925834 0.0133486055 0.015335369

fc1.bias f4 [50]
000000 67 9e 69 3d 85 62 85 3d 10 da 7e bd bf 40 a7 bd
       0.05703583 0.06512932 -0.06221968 -0.08166646
000010 c7 2c 71 3c 86 dc 18 39 c6 2b 80 bd 56 a1 af 3d
       0.014720148 0.00014578001 -0.06258349 0.08575694
000020 0e 9c 82 bd 0f 8a 69 bd e4 3a 04 3d ef 48 31 3c
       -0.06377421 -0.05701643 0.032282725 0.010820611
000030 e8 be 12 3d 82 cb b5 bb 21 91 55 3b 01 16 df bb
       0.035826594 -0.0055479417 0.0032587724 -0.006808043
000040 09 c5 0b 3d 98 90 cd bc 90 cc 8f bc ef ae b4 3d
       0.034123454 -0.025093362 -0.017553598 0.088224284
000050 eb ff 8c bd e7 5b 8f 3c 88 60 54 bd 9e 29 87 3d
       -0.0688475 0.017499877 -0.051849872 0.06599735
000060 19 ef 00 bd 94 be 4a 3c 2f f7 44 3d 01 1f 01 bd
       -0.03147802 0.012374539 0.048087295 -0.03152371
000070 7d 00 4c 3c af 64 3a bd 76 25 6f 3d 48 f8 a8 bc
       0.012451288 -0.045506176 0.058385335 -0.020626202
000080 0c 89 df 3c 6e b1 2a 3d 0a 78 1d bd dd d5 47 3d
       0.027287029 0.041673116 -0.038444556 0.04878794
000090 0e a7 27 bd 4f 27 93 3d be 45 55 bc 33 63 82 3c
       -0.0409308 0.07185232 -0.013017116 0.015916442
0000a0 53 75 0d 3c c7 ee 97 bc d7 c8 0c 3d 35 ab 61 3d
       0.008633929 -0.018546475 0.034371223 0.055094916
0000b0 33 dd 19 3d 0c d4 92 bd 1b c2 1b bc 80 d3 73 3d
       0.037564468 -0.07169351 -0.009506728 0.059527874
0000c0 b2 11 7c 3d cd 5d 1c bd
       0.061540313 -0.038175393
